WARNING: Logging before InitGoogleLogging() is written to STDERR
I0719 13:43:37.399029  9165 upgrade_proto.cpp:1084] Attempting to upgrade input file specified using deprecated 'solver_type' field (enum)': solver_MobileNetV2.prototxt
I0719 13:43:37.399055  9165 upgrade_proto.cpp:1091] Successfully upgraded file specified using deprecated 'solver_type' field (enum) to 'type' field (string).
W0719 13:43:37.399058  9165 upgrade_proto.cpp:1093] Note that future Caffe releases will only support 'type' field (string) for a solver's type.
I0719 13:43:37.399102  9165 solver.cpp:45] Initializing solver from parameters: 
test_iter: 2000
test_interval: 4000
base_lr: 0.005
display: 20
max_iter: 250000
lr_policy: "step"
gamma: 0.5
momentum: 0.9
weight_decay: 0.0005
stepsize: 50000
snapshot: 4000
snapshot_prefix: "models/MobileNetV2_1epoch_"
solver_mode: GPU
net: "train_val_MobileNetV2.prototxt"
test_initialization: false
type: "Nesterov"
I0719 13:43:37.399165  9165 solver.cpp:102] Creating training net from net file: train_val_MobileNetV2.prototxt
I0719 13:43:37.400430  9165 upgrade_proto.cpp:79] Attempting to upgrade batch norm layers using deprecated params: train_val_MobileNetV2.prototxt
I0719 13:43:37.400444  9165 upgrade_proto.cpp:82] Successfully upgraded batch norm layers using deprecated params.
I0719 13:43:37.400686  9165 net.cpp:294] The NetState phase (0) differed from the phase (1) specified by a rule in layer data
I0719 13:43:37.400759  9165 net.cpp:294] The NetState phase (0) differed from the phase (1) specified by a rule in layer accuracy
I0719 13:43:37.400764  9165 net.cpp:294] The NetState phase (0) differed from the phase (1) specified by a rule in layer accuracy_5
I0719 13:43:37.401945  9165 net.cpp:51] Initializing net from parameters: 
state {
  phase: TRAIN
}
layer {
  name: "data"
  type: "Data"
  top: "data"
  top: "label"
  include {
    phase: TRAIN
  }
  transform_param {
    mirror: true
    crop_size: 224
    mean_file: "/home/beauty/DL_dataset/lmdb_places365standard/places365CNN_mean.binaryproto"
  }
  data_param {
    source: "/home/beauty/DL_dataset/lmdb_places365standard/train_image_lmdb"
    batch_size: 32
    backend: LMDB
  }
}
layer {
  name: "conv1"
  type: "Convolution"
  bottom: "data"
  top: "conv1"
  param {
    lr_mult: 0
    decay_mult: 1
  }
  convolution_param {
    num_output: 32
    bias_term: false
    pad: 1
    kernel_size: 3
    stride: 2
    weight_filler {
      type: "msra"
    }
  }
}
layer {
  name: "conv1/bn"
  type: "BatchNorm"
  bottom: "conv1"
  top: "conv1/bn"
  param {
    lr_mult: 0
    decay_mult: 0
  }
  param {
    lr_mult: 0
    decay_mult: 0
  }
  param {
    lr_mult: 0
    decay_mult: 0
  }
  batch_norm_param {
    use_global_stats: true
    eps: 1e-05
  }
}
layer {
  name: "conv1/scale"
  type: "Scale"
  bottom: "conv1/bn"
  top: "conv1/bn"
  param {
    lr_mult: 0
    decay_mult: 0
  }
  param {
    lr_mult: 0
    decay_mult: 0
  }
  scale_param {
    bias_term: true
  }
}
layer {
  name: "relu1"
  type: "ReLU"
  bottom: "conv1/bn"
  top: "conv1/bn"
}
layer {
  name: "conv2_1/expand"
  type: "Convolution"
  bottom: "conv1/bn"
  top: "conv2_1/expand"
  param {
    lr_mult: 0
    decay_mult: 1
  }
  convolution_param {
    num_output: 32
    bias_term: false
    kernel_size: 1
    weight_filler {
      type: "msra"
    }
  }
}
layer {
  name: "conv2_1/expand/bn"
  type: "BatchNorm"
  bottom: "conv2_1/expand"
  top: "conv2_1/expand/bn"
  param {
    lr_mult: 0
    decay_mult: 0
  }
  param {
    lr_mult: 0
    decay_mult: 0
  }
  param {
    lr_mult: 0
    decay_mult: 0
  }
  batch_norm_param {
    use_global_stats: true
    eps: 1e-05
  }
}
layer {
  name: "conv2_1/expand/scale"
  type: "Scale"
  bottom: "conv2_1/expand/bn"
  top: "conv2_1/expand/bn"
  param {
    lr_mult: 0
    decay_mult: 0
  }
  param {
    lr_mult: 0
    decay_mult: 0
  }
  scale_param {
    bias_term: true
  }
}
layer {
  name: "relu2_1/expand"
  type: "ReLU"
  bottom: "conv2_1/expand/bn"
  top: "conv2_1/expand/bn"
}
layer {
  name: "conv2_1/dwise"
  type: "Convolution"
  bottom: "conv2_1/expand/bn"
  top: "conv2_1/dwise"
  param {
    lr_mult: 0
    decay_mult: 1
  }
  convolution_param {
    num_output: 32
    bias_term: false
    pad: 1
    kernel_size: 3
    group: 32
    weight_filler {
      type: "msra"
    }
    engine: CAFFE
  }
}
layer {
  name: "conv2_1/dwise/bn"
  type: "BatchNorm"
  bottom: "conv2_1/dwise"
  top: "conv2_1/dwise/bn"
  param {
    lr_mult: 0
    decay_mult: 0
  }
  param {
    lr_mult: 0
    decay_mult: 0
  }
  param {
    lr_mult: 0
    decay_mult: 0
  }
  batch_norm_param {
    use_global_stats: true
    eps: 1e-05
  }
}
layer {
  name: "conv2_1/dwise/scale"
  type: "Scale"
  bottom: "conv2_1/dwise/bn"
  top: "conv2_1/dwise/bn"
  param {
    lr_mult: 0
    decay_mult: 0
  }
  param {
    lr_mult: 0
    decay_mult: 0
  }
  scale_param {
    bias_term: true
  }
}
layer {
  name: "relu2_1/dwise"
  type: "ReLU"
  bottom: "conv2_1/dwise/bn"
  top: "conv2_1/dwise/bn"
}
layer {
  name: "conv2_1/linear"
  type: "Convolution"
  bottom: "conv2_1/dwise/bn"
  top: "conv2_1/linear"
  param {
    lr_mult: 0
    decay_mult: 1
  }
  convolution_param {
    num_output: 16
    bias_term: false
    kernel_size: 1
    weight_filler {
      type: "msra"
    }
  }
}
layer {
  name: "conv2_1/linear/bn"
  type: "BatchNorm"
  bottom: "conv2_1/linear"
  top: "conv2_1/linear/bn"
  param {
    lr_mult: 0
    decay_mult: 0
  }
  param {
    lr_mult: 0
    decay_mult: 0
  }
  param {
    lr_mult: 0
    decay_mult: 0
  }
  batch_norm_param {
    use_global_stats: true
    eps: 1e-05
  }
}
layer {
  name: "conv2_1/linear/scale"
  type: "Scale"
  bottom: "conv2_1/linear/bn"
  top: "conv2_1/linear/bn"
  param {
    lr_mult: 0
    decay_mult: 0
  }
  param {
    lr_mult: 0
    decay_mult: 0
  }
  scale_param {
    bias_term: true
  }
}
layer {
  name: "conv2_2/expand"
  type: "Convolution"
  bottom: "conv2_1/linear/bn"
  top: "conv2_2/expand"
  param {
    lr_mult: 0
    decay_mult: 1
  }
  convolution_param {
    num_output: 96
    bias_term: false
    kernel_size: 1
    weight_filler {
      type: "msra"
    }
  }
}
layer {
  name: "conv2_2/expand/bn"
  type: "BatchNorm"
  bottom: "conv2_2/expand"
  top: "conv2_2/expand/bn"
  param {
    lr_mult: 0
    decay_mult: 0
  }
  param {
    lr_mult: 0
    decay_mult: 0
  }
  param {
    lr_mult: 0
    decay_mult: 0
  }
  batch_norm_param {
    use_global_stats: true
    eps: 1e-05
  }
}
layer {
  name: "conv2_2/expand/scale"
  type: "Scale"
  bottom: "conv2_2/expand/bn"
  top: "conv2_2/expand/bn"
  param {
    lr_mult: 0
    decay_mult: 0
  }
  param {
    lr_mult: 0
    decay_mult: 0
  }
  scale_param {
    bias_term: true
  }
}
layer {
  name: "relu2_2/expand"
  type: "ReLU"
  bottom: "conv2_2/expand/bn"
  top: "conv2_2/expand/bn"
}
layer {
  name: "conv2_2/dwise"
  type: "Convolution"
  bottom: "conv2_2/expand/bn"
  top: "conv2_2/dwise"
  param {
    lr_mult: 0
    decay_mult: 1
  }
  convolution_param {
    num_output: 96
    bias_term: false
    pad: 1
    kernel_size: 3
    group: 96
    stride: 2
    weight_filler {
      type: "msra"
    }
    engine: CAFFE
  }
}
layer {
  name: "conv2_2/dwise/bn"
  type: "BatchNorm"
  bottom: "conv2_2/dwise"
  top: "conv2_2/dwise/bn"
  param {
    lr_mult: 0
    decay_mult: 0
  }
  param {
    lr_mult: 0
    decay_mult: 0
  }
  param {
    lr_mult: 0
    decay_mult: 0
  }
  batch_norm_param {
    use_global_stats: true
    eps: 1e-05
  }
}
layer {
  name: "conv2_2/dwise/scale"
  type: "Scale"
  bottom: "conv2_2/dwise/bn"
  top: "conv2_2/dwise/bn"
  param {
    lr_mult: 0
    decay_mult: 0
  }
  param {
    lr_mult: 0
    decay_mult: 0
  }
  scale_param {
    bias_term: true
  }
}
layer {
  name: "relu2_2/dwise"
  type: "ReLU"
  bottom: "conv2_2/dwise/bn"
  top: "conv2_2/dwise/bn"
}
layer {
  name: "conv2_2/linear"
  type: "Convolution"
  bottom: "conv2_2/dwise/bn"
  top: "conv2_2/linear"
  param {
    lr_mult: 0
    decay_mult: 1
  }
  convolution_param {
    num_output: 24
    bias_term: false
    kernel_size: 1
    weight_filler {
      type: "msra"
    }
  }
}
layer {
  name: "conv2_2/linear/bn"
  type: "BatchNorm"
  bottom: "conv2_2/linear"
  top: "conv2_2/linear/bn"
  param {
    lr_mult: 0
    decay_mult: 0
  }
  param {
    lr_mult: 0
    decay_mult: 0
  }
  param {
    lr_mult: 0
    decay_mult: 0
  }
  batch_norm_param {
    use_global_stats: true
    eps: 1e-05
  }
}
layer {
  name: "conv2_2/linear/scale"
  type: "Scale"
  bottom: "conv2_2/linear/bn"
  top: "conv2_2/linear/bn"
  param {
    lr_mult: 0
    decay_mult: 0
  }
  param {
    lr_mult: 0
    decay_mult: 0
  }
  scale_param {
    bias_term: true
  }
}
layer {
  name: "conv3_1/expand"
  type: "Convolution"
  bottom: "conv2_2/linear/bn"
  top: "conv3_1/expand"
  param {
    lr_mult: 0
    decay_mult: 1
  }
  convolution_param {
    num_output: 144
    bias_term: false
    kernel_size: 1
    weight_filler {
      type: "msra"
    }
  }
}
layer {
  name: "conv3_1/expand/bn"
  type: "BatchNorm"
  bottom: "conv3_1/expand"
  top: "conv3_1/expand/bn"
  param {
    lr_mult: 0
    decay_mult: 0
  }
  param {
    lr_mult: 0
    decay_mult: 0
  }
  param {
    lr_mult: 0
    decay_mult: 0
  }
  batch_norm_param {
    use_global_stats: true
    eps: 1e-05
  }
}
layer {
  name: "conv3_1/expand/scale"
  type: "Scale"
  bottom: "conv3_1/expand/bn"
  top: "conv3_1/expand/bn"
  param {
    lr_mult: 0
    decay_mult: 0
  }
  param {
    lr_mult: 0
    decay_mult: 0
  }
  scale_param {
    bias_term: true
  }
}
layer {
  name: "relu3_1/expand"
  type: "ReLU"
  bottom: "conv3_1/expand/bn"
  top: "conv3_1/expand/bn"
}
layer {
  name: "conv3_1/dwise"
  type: "Convolution"
  bottom: "conv3_1/expand/bn"
  top: "conv3_1/dwise"
  param {
    lr_mult: 0
    decay_mult: 1
  }
  convolution_param {
    num_output: 144
    bias_term: false
    pad: 1
    kernel_size: 3
    group: 144
    weight_filler {
      type: "msra"
    }
    engine: CAFFE
  }
}
layer {
  name: "conv3_1/dwise/bn"
  type: "BatchNorm"
  bottom: "conv3_1/dwise"
  top: "conv3_1/dwise/bn"
  param {
    lr_mult: 0
    decay_mult: 0
  }
  param {
    lr_mult: 0
    decay_mult: 0
  }
  param {
    lr_mult: 0
    decay_mult: 0
  }
  batch_norm_param {
    use_global_stats: true
    eps: 1e-05
  }
}
layer {
  name: "conv3_1/dwise/scale"
  type: "Scale"
  bottom: "conv3_1/dwise/bn"
  top: "conv3_1/dwise/bn"
  param {
    lr_mult: 0
    decay_mult: 0
  }
  param {
    lr_mult: 0
    decay_mult: 0
  }
  scale_param {
    bias_term: true
  }
}
layer {
  name: "relu3_1/dwise"
  type: "ReLU"
  bottom: "conv3_1/dwise/bn"
  top: "conv3_1/dwise/bn"
}
layer {
  name: "conv3_1/linear"
  type: "Convolution"
  bottom: "conv3_1/dwise/bn"
  top: "conv3_1/linear"
  param {
    lr_mult: 0
    decay_mult: 1
  }
  convolution_param {
    num_output: 24
    bias_term: false
    kernel_size: 1
    weight_filler {
      type: "msra"
    }
  }
}
layer {
  name: "conv3_1/linear/bn"
  type: "BatchNorm"
  bottom: "conv3_1/linear"
  top: "conv3_1/linear/bn"
  param {
    lr_mult: 0
    decay_mult: 0
  }
  param {
    lr_mult: 0
    decay_mult: 0
  }
  param {
    lr_mult: 0
    decay_mult: 0
  }
  batch_norm_param {
    use_global_stats: true
    eps: 1e-05
  }
}
layer {
  name: "conv3_1/linear/scale"
  type: "Scale"
  bottom: "conv3_1/linear/bn"
  top: "conv3_1/linear/bn"
  param {
    lr_mult: 0
    decay_mult: 0
  }
  param {
    lr_mult: 0
    decay_mult: 0
  }
  scale_param {
    bias_term: true
  }
}
layer {
  name: "block_3_1"
  type: "Eltwise"
  bottom: "conv2_2/linear/bn"
  bottom: "conv3_1/linear/bn"
  top: "block_3_1"
}
layer {
  name: "conv3_2/expand"
  type: "Convolution"
  bottom: "block_3_1"
  top: "conv3_2/expand"
  param {
    lr_mult: 0
    decay_mult: 1
  }
  convolution_param {
    num_output: 144
    bias_term: false
    kernel_size: 1
    weight_filler {
      type: "msra"
    }
  }
}
layer {
  name: "conv3_2/expand/bn"
  type: "BatchNorm"
  bottom: "conv3_2/expand"
  top: "conv3_2/expand/bn"
  param {
    lr_mult: 0
    decay_mult: 0
  }
  param {
    lr_mult: 0
    decay_mult: 0
  }
  param {
    lr_mult: 0
    decay_mult: 0
  }
  batch_norm_param {
    use_global_stats: true
    eps: 1e-05
  }
}
layer {
  name: "conv3_2/expand/scale"
  type: "Scale"
  bottom: "conv3_2/expand/bn"
  top: "conv3_2/expand/bn"
  param {
    lr_mult: 0
    decay_mult: 0
  }
  param {
    lr_mult: 0
    decay_mult: 0
  }
  scale_param {
    bias_term: true
  }
}
layer {
  name: "relu3_2/expand"
  type: "ReLU"
  bottom: "conv3_2/expand/bn"
  top: "conv3_2/expand/bn"
}
layer {
  name: "conv3_2/dwise"
  type: "Convolution"
  bottom: "conv3_2/expand/bn"
  top: "conv3_2/dwise"
  param {
    lr_mult: 0
    decay_mult: 1
  }
  convolution_param {
    num_output: 144
    bias_term: false
    pad: 1
    kernel_size: 3
    group: 144
    stride: 2
    weight_filler {
      type: "msra"
    }
    engine: CAFFE
  }
}
layer {
  name: "conv3_2/dwise/bn"
  type: "BatchNorm"
  bottom: "conv3_2/dwise"
  top: "conv3_2/dwise/bn"
  param {
    lr_mult: 0
    decay_mult: 0
  }
  param {
    lr_mult: 0
    decay_mult: 0
  }
  param {
    lr_mult: 0
    decay_mult: 0
  }
  batch_norm_param {
    use_global_stats: true
    eps: 1e-05
  }
}
layer {
  name: "conv3_2/dwise/scale"
  type: "Scale"
  bottom: "conv3_2/dwise/bn"
  top: "conv3_2/dwise/bn"
  param {
    lr_mult: 0
    decay_mult: 0
  }
  param {
    lr_mult: 0
    decay_mult: 0
  }
  scale_param {
    bias_term: true
  }
}
layer {
  name: "relu3_2/dwise"
  type: "ReLU"
  bottom: "conv3_2/dwise/bn"
  top: "conv3_2/dwise/bn"
}
layer {
  name: "conv3_2/linear"
  type: "Convolution"
  bottom: "conv3_2/dwise/bn"
  top: "conv3_2/linear"
  param {
    lr_mult: 0
    decay_mult: 1
  }
  convolution_param {
    num_output: 32
    bias_term: false
    kernel_size: 1
    weight_filler {
      type: "msra"
    }
  }
}
layer {
  name: "conv3_2/linear/bn"
  type: "BatchNorm"
  bottom: "conv3_2/linear"
  top: "conv3_2/linear/bn"
  param {
    lr_mult: 0
    decay_mult: 0
  }
  param {
    lr_mult: 0
    decay_mult: 0
  }
  param {
    lr_mult: 0
    decay_mult: 0
  }
  batch_norm_param {
    use_global_stats: true
    eps: 1e-05
  }
}
layer {
  name: "conv3_2/linear/scale"
  type: "Scale"
  bottom: "conv3_2/linear/bn"
  top: "conv3_2/linear/bn"
  param {
    lr_mult: 0
    decay_mult: 0
  }
  param {
    lr_mult: 0
    decay_mult: 0
  }
  scale_param {
    bias_term: true
  }
}
layer {
  name: "conv4_1/expand"
  type: "Convolution"
  bottom: "conv3_2/linear/bn"
  top: "conv4_1/expand"
  param {
    lr_mult: 0
    decay_mult: 1
  }
  convolution_param {
    num_output: 192
    bias_term: false
    kernel_size: 1
    weight_filler {
      type: "msra"
    }
  }
}
layer {
  name: "conv4_1/expand/bn"
  type: "BatchNorm"
  bottom: "conv4_1/expand"
  top: "conv4_1/expand/bn"
  param {
    lr_mult: 0
    decay_mult: 0
  }
  param {
    lr_mult: 0
    decay_mult: 0
  }
  param {
    lr_mult: 0
    decay_mult: 0
  }
  batch_norm_param {
    use_global_stats: true
    eps: 1e-05
  }
}
layer {
  name: "conv4_1/expand/scale"
  type: "Scale"
  bottom: "conv4_1/expand/bn"
  top: "conv4_1/expand/bn"
  param {
    lr_mult: 0
    decay_mult: 0
  }
  param {
    lr_mult: 0
    decay_mult: 0
  }
  scale_param {
    bias_term: true
  }
}
layer {
  name: "relu4_1/expand"
  type: "ReLU"
  bottom: "conv4_1/expand/bn"
  top: "conv4_1/expand/bn"
}
layer {
  name: "conv4_1/dwise"
  type: "Convolution"
  bottom: "conv4_1/expand/bn"
  top: "conv4_1/dwise"
  param {
    lr_mult: 0
    decay_mult: 1
  }
  convolution_param {
    num_output: 192
    bias_term: false
    pad: 1
    kernel_size: 3
    group: 192
    weight_filler {
      type: "msra"
    }
    engine: CAFFE
  }
}
layer {
  name: "conv4_1/dwise/bn"
  type: "BatchNorm"
  bottom: "conv4_1/dwise"
  top: "conv4_1/dwise/bn"
  param {
    lr_mult: 0
    decay_mult: 0
  }
  param {
    lr_mult: 0
    decay_mult: 0
  }
  param {
    lr_mult: 0
    decay_mult: 0
  }
  batch_norm_param {
    use_global_stats: true
    eps: 1e-05
  }
}
layer {
  name: "conv4_1/dwise/scale"
  type: "Scale"
  bottom: "conv4_1/dwise/bn"
  top: "conv4_1/dwise/bn"
  param {
    lr_mult: 0
    decay_mult: 0
  }
  param {
    lr_mult: 0
    decay_mult: 0
  }
  scale_param {
    bias_term: true
  }
}
layer {
  name: "relu4_1/dwise"
  type: "ReLU"
  bottom: "conv4_1/dwise/bn"
  top: "conv4_1/dwise/bn"
}
layer {
  name: "conv4_1/linear"
  type: "Convolution"
  bottom: "conv4_1/dwise/bn"
  top: "conv4_1/linear"
  param {
    lr_mult: 0
    decay_mult: 1
  }
  convolution_param {
    num_output: 32
    bias_term: false
    kernel_size: 1
    weight_filler {
      type: "msra"
    }
  }
}
layer {
  name: "conv4_1/linear/bn"
  type: "BatchNorm"
  bottom: "conv4_1/linear"
  top: "conv4_1/linear/bn"
  param {
    lr_mult: 0
    decay_mult: 0
  }
  param {
    lr_mult: 0
    decay_mult: 0
  }
  param {
    lr_mult: 0
    decay_mult: 0
  }
  batch_norm_param {
    use_global_stats: true
    eps: 1e-05
  }
}
layer {
  name: "conv4_1/linear/scale"
  type: "Scale"
  bottom: "conv4_1/linear/bn"
  top: "conv4_1/linear/bn"
  param {
    lr_mult: 0
    decay_mult: 0
  }
  param {
    lr_mult: 0
    decay_mult: 0
  }
  scale_param {
    bias_term: true
  }
}
layer {
  name: "block_4_1"
  type: "Eltwise"
  bottom: "conv3_2/linear/bn"
  bottom: "conv4_1/linear/bn"
  top: "block_4_1"
}
layer {
  name: "conv4_2/expand"
  type: "Convolution"
  bottom: "block_4_1"
  top: "conv4_2/expand"
  param {
    lr_mult: 0
    decay_mult: 1
  }
  convolution_param {
    num_output: 192
    bias_term: false
    kernel_size: 1
    weight_filler {
      type: "msra"
    }
  }
}
layer {
  name: "conv4_2/expand/bn"
  type: "BatchNorm"
  bottom: "conv4_2/expand"
  top: "conv4_2/expand/bn"
  param {
    lr_mult: 0
    decay_mult: 0
  }
  param {
    lr_mult: 0
    decay_mult: 0
  }
  param {
    lr_mult: 0
    decay_mult: 0
  }
  batch_norm_param {
    use_global_stats: true
    eps: 1e-05
  }
}
layer {
  name: "conv4_2/expand/scale"
  type: "Scale"
  bottom: "conv4_2/expand/bn"
  top: "conv4_2/expand/bn"
  param {
    lr_mult: 0
    decay_mult: 0
  }
  param {
    lr_mult: 0
    decay_mult: 0
  }
  scale_param {
    bias_term: true
  }
}
layer {
  name: "relu4_2/expand"
  type: "ReLU"
  bottom: "conv4_2/expand/bn"
  top: "conv4_2/expand/bn"
}
layer {
  name: "conv4_2/dwise"
  type: "Convolution"
  bottom: "conv4_2/expand/bn"
  top: "conv4_2/dwise"
  param {
    lr_mult: 0
    decay_mult: 1
  }
  convolution_param {
    num_output: 192
    bias_term: false
    pad: 1
    kernel_size: 3
    group: 192
    weight_filler {
      type: "msra"
    }
    engine: CAFFE
  }
}
layer {
  name: "conv4_2/dwise/bn"
  type: "BatchNorm"
  bottom: "conv4_2/dwise"
  top: "conv4_2/dwise/bn"
  param {
    lr_mult: 0
    decay_mult: 0
  }
  param {
    lr_mult: 0
    decay_mult: 0
  }
  param {
    lr_mult: 0
    decay_mult: 0
  }
  batch_norm_param {
    use_global_stats: true
    eps: 1e-05
  }
}
layer {
  name: "conv4_2/dwise/scale"
  type: "Scale"
  bottom: "conv4_2/dwise/bn"
  top: "conv4_2/dwise/bn"
  param {
    lr_mult: 0
    decay_mult: 0
  }
  param {
    lr_mult: 0
    decay_mult: 0
  }
  scale_param {
    bias_term: true
  }
}
layer {
  name: "relu4_2/dwise"
  type: "ReLU"
  bottom: "conv4_2/dwise/bn"
  top: "conv4_2/dwise/bn"
}
layer {
  name: "conv4_2/linear"
  type: "Convolution"
  bottom: "conv4_2/dwise/bn"
  top: "conv4_2/linear"
  param {
    lr_mult: 0
    decay_mult: 1
  }
  convolution_param {
    num_output: 32
    bias_term: false
    kernel_size: 1
    weight_filler {
      type: "msra"
    }
  }
}
layer {
  name: "conv4_2/linear/bn"
  type: "BatchNorm"
  bottom: "conv4_2/linear"
  top: "conv4_2/linear/bn"
  param {
    lr_mult: 0
    decay_mult: 0
  }
  param {
    lr_mult: 0
    decay_mult: 0
  }
  param {
    lr_mult: 0
    decay_mult: 0
  }
  batch_norm_param {
    use_global_stats: true
    eps: 1e-05
  }
}
layer {
  name: "conv4_2/linear/scale"
  type: "Scale"
  bottom: "conv4_2/linear/bn"
  top: "conv4_2/linear/bn"
  param {
    lr_mult: 0
    decay_mult: 0
  }
  param {
    lr_mult: 0
    decay_mult: 0
  }
  scale_param {
    bias_term: true
  }
}
layer {
  name: "block_4_2"
  type: "Eltwise"
  bottom: "block_4_1"
  bottom: "conv4_2/linear/bn"
  top: "block_4_2"
}
layer {
  name: "conv4_3/expand"
  type: "Convolution"
  bottom: "block_4_2"
  top: "conv4_3/expand"
  param {
    lr_mult: 0
    decay_mult: 1
  }
  convolution_param {
    num_output: 192
    bias_term: false
    kernel_size: 1
    weight_filler {
      type: "msra"
    }
  }
}
layer {
  name: "conv4_3/expand/bn"
  type: "BatchNorm"
  bottom: "conv4_3/expand"
  top: "conv4_3/expand/bn"
  param {
    lr_mult: 0
    decay_mult: 0
  }
  param {
    lr_mult: 0
    decay_mult: 0
  }
  param {
    lr_mult: 0
    decay_mult: 0
  }
  batch_norm_param {
    use_global_stats: true
    eps: 1e-05
  }
}
layer {
  name: "conv4_3/expand/scale"
  type: "Scale"
  bottom: "conv4_3/expand/bn"
  top: "conv4_3/expand/bn"
  param {
    lr_mult: 0
    decay_mult: 0
  }
  param {
    lr_mult: 0
    decay_mult: 0
  }
  scale_param {
    bias_term: true
  }
}
layer {
  name: "relu4_3/expand"
  type: "ReLU"
  bottom: "conv4_3/expand/bn"
  top: "conv4_3/expand/bn"
}
layer {
  name: "conv4_3/dwise"
  type: "Convolution"
  bottom: "conv4_3/expand/bn"
  top: "conv4_3/dwise"
  param {
    lr_mult: 0
    decay_mult: 1
  }
  convolution_param {
    num_output: 192
    bias_term: false
    pad: 1
    kernel_size: 3
    group: 192
    weight_filler {
      type: "msra"
    }
    engine: CAFFE
  }
}
layer {
  name: "conv4_3/dwise/bn"
  type: "BatchNorm"
  bottom: "conv4_3/dwise"
  top: "conv4_3/dwise/bn"
  param {
    lr_mult: 0
    decay_mult: 0
  }
  param {
    lr_mult: 0
    decay_mult: 0
  }
  param {
    lr_mult: 0
    decay_mult: 0
  }
  batch_norm_param {
    use_global_stats: true
    eps: 1e-05
  }
}
layer {
  name: "conv4_3/dwise/scale"
  type: "Scale"
  bottom: "conv4_3/dwise/bn"
  top: "conv4_3/dwise/bn"
  param {
    lr_mult: 0
    decay_mult: 0
  }
  param {
    lr_mult: 0
    decay_mult: 0
  }
  scale_param {
    bias_term: true
  }
}
layer {
  name: "relu4_3/dwise"
  type: "ReLU"
  bottom: "conv4_3/dwise/bn"
  top: "conv4_3/dwise/bn"
}
layer {
  name: "conv4_3/linear"
  type: "Convolution"
  bottom: "conv4_3/dwise/bn"
  top: "conv4_3/linear"
  param {
    lr_mult: 0
    decay_mult: 1
  }
  convolution_param {
    num_output: 64
    bias_term: false
    kernel_size: 1
    weight_filler {
      type: "msra"
    }
  }
}
layer {
  name: "conv4_3/linear/bn"
  type: "BatchNorm"
  bottom: "conv4_3/linear"
  top: "conv4_3/linear/bn"
  param {
    lr_mult: 0
    decay_mult: 0
  }
  param {
    lr_mult: 0
    decay_mult: 0
  }
  param {
    lr_mult: 0
    decay_mult: 0
  }
  batch_norm_param {
    use_global_stats: true
    eps: 1e-05
  }
}
layer {
  name: "conv4_3/linear/scale"
  type: "Scale"
  bottom: "conv4_3/linear/bn"
  top: "conv4_3/linear/bn"
  param {
    lr_mult: 0
    decay_mult: 0
  }
  param {
    lr_mult: 0
    decay_mult: 0
  }
  scale_param {
    bias_term: true
  }
}
layer {
  name: "conv4_4/expand"
  type: "Convolution"
  bottom: "conv4_3/linear/bn"
  top: "conv4_4/expand"
  param {
    lr_mult: 0
    decay_mult: 1
  }
  convolution_param {
    num_output: 384
    bias_term: false
    kernel_size: 1
    weight_filler {
      type: "msra"
    }
  }
}
layer {
  name: "conv4_4/expand/bn"
  type: "BatchNorm"
  bottom: "conv4_4/expand"
  top: "conv4_4/expand/bn"
  param {
    lr_mult: 0
    decay_mult: 0
  }
  param {
    lr_mult: 0
    decay_mult: 0
  }
  param {
    lr_mult: 0
    decay_mult: 0
  }
  batch_norm_param {
    use_global_stats: true
    eps: 1e-05
  }
}
layer {
  name: "conv4_4/expand/scale"
  type: "Scale"
  bottom: "conv4_4/expand/bn"
  top: "conv4_4/expand/bn"
  param {
    lr_mult: 0
    decay_mult: 0
  }
  param {
    lr_mult: 0
    decay_mult: 0
  }
  scale_param {
    bias_term: true
  }
}
layer {
  name: "relu4_4/expand"
  type: "ReLU"
  bottom: "conv4_4/expand/bn"
  top: "conv4_4/expand/bn"
}
layer {
  name: "conv4_4/dwise"
  type: "Convolution"
  bottom: "conv4_4/expand/bn"
  top: "conv4_4/dwise"
  param {
    lr_mult: 0
    decay_mult: 1
  }
  convolution_param {
    num_output: 384
    bias_term: false
    pad: 1
    kernel_size: 3
    group: 384
    weight_filler {
      type: "msra"
    }
    engine: CAFFE
  }
}
layer {
  name: "conv4_4/dwise/bn"
  type: "BatchNorm"
  bottom: "conv4_4/dwise"
  top: "conv4_4/dwise/bn"
  param {
    lr_mult: 0
    decay_mult: 0
  }
  param {
    lr_mult: 0
    decay_mult: 0
  }
  param {
    lr_mult: 0
    decay_mult: 0
  }
  batch_norm_param {
    use_global_stats: true
    eps: 1e-05
  }
}
layer {
  name: "conv4_4/dwise/scale"
  type: "Scale"
  bottom: "conv4_4/dwise/bn"
  top: "conv4_4/dwise/bn"
  param {
    lr_mult: 0
    decay_mult: 0
  }
  param {
    lr_mult: 0
    decay_mult: 0
  }
  scale_param {
    bias_term: true
  }
}
layer {
  name: "relu4_4/dwise"
  type: "ReLU"
  bottom: "conv4_4/dwise/bn"
  top: "conv4_4/dwise/bn"
}
layer {
  name: "conv4_4/linear"
  type: "Convolution"
  bottom: "conv4_4/dwise/bn"
  top: "conv4_4/linear"
  param {
    lr_mult: 0
    decay_mult: 1
  }
  convolution_param {
    num_output: 64
    bias_term: false
    kernel_size: 1
    weight_filler {
      type: "msra"
    }
  }
}
layer {
  name: "conv4_4/linear/bn"
  type: "BatchNorm"
  bottom: "conv4_4/linear"
  top: "conv4_4/linear/bn"
  param {
    lr_mult: 0
    decay_mult: 0
  }
  param {
    lr_mult: 0
    decay_mult: 0
  }
  param {
    lr_mult: 0
    decay_mult: 0
  }
  batch_norm_param {
    use_global_stats: true
    eps: 1e-05
  }
}
layer {
  name: "conv4_4/linear/scale"
  type: "Scale"
  bottom: "conv4_4/linear/bn"
  top: "conv4_4/linear/bn"
  param {
    lr_mult: 0
    decay_mult: 0
  }
  param {
    lr_mult: 0
    decay_mult: 0
  }
  scale_param {
    bias_term: true
  }
}
layer {
  name: "block_4_4"
  type: "Eltwise"
  bottom: "conv4_3/linear/bn"
  bottom: "conv4_4/linear/bn"
  top: "block_4_4"
}
layer {
  name: "conv4_5/expand"
  type: "Convolution"
  bottom: "block_4_4"
  top: "conv4_5/expand"
  param {
    lr_mult: 0
    decay_mult: 1
  }
  convolution_param {
    num_output: 384
    bias_term: false
    kernel_size: 1
    weight_filler {
      type: "msra"
    }
  }
}
layer {
  name: "conv4_5/expand/bn"
  type: "BatchNorm"
  bottom: "conv4_5/expand"
  top: "conv4_5/expand/bn"
  param {
    lr_mult: 0
    decay_mult: 0
  }
  param {
    lr_mult: 0
    decay_mult: 0
  }
  param {
    lr_mult: 0
    decay_mult: 0
  }
  batch_norm_param {
    use_global_stats: true
    eps: 1e-05
  }
}
layer {
  name: "conv4_5/expand/scale"
  type: "Scale"
  bottom: "conv4_5/expand/bn"
  top: "conv4_5/expand/bn"
  param {
    lr_mult: 0
    decay_mult: 0
  }
  param {
    lr_mult: 0
    decay_mult: 0
  }
  scale_param {
    bias_term: true
  }
}
layer {
  name: "relu4_5/expand"
  type: "ReLU"
  bottom: "conv4_5/expand/bn"
  top: "conv4_5/expand/bn"
}
layer {
  name: "conv4_5/dwise"
  type: "Convolution"
  bottom: "conv4_5/expand/bn"
  top: "conv4_5/dwise"
  param {
    lr_mult: 0
    decay_mult: 1
  }
  convolution_param {
    num_output: 384
    bias_term: false
    pad: 1
    kernel_size: 3
    group: 384
    weight_filler {
      type: "msra"
    }
    engine: CAFFE
  }
}
layer {
  name: "conv4_5/dwise/bn"
  type: "BatchNorm"
  bottom: "conv4_5/dwise"
  top: "conv4_5/dwise/bn"
  param {
    lr_mult: 0
    decay_mult: 0
  }
  param {
    lr_mult: 0
    decay_mult: 0
  }
  param {
    lr_mult: 0
    decay_mult: 0
  }
  batch_norm_param {
    use_global_stats: true
    eps: 1e-05
  }
}
layer {
  name: "conv4_5/dwise/scale"
  type: "Scale"
  bottom: "conv4_5/dwise/bn"
  top: "conv4_5/dwise/bn"
  param {
    lr_mult: 0
    decay_mult: 0
  }
  param {
    lr_mult: 0
    decay_mult: 0
  }
  scale_param {
    bias_term: true
  }
}
layer {
  name: "relu4_5/dwise"
  type: "ReLU"
  bottom: "conv4_5/dwise/bn"
  top: "conv4_5/dwise/bn"
}
layer {
  name: "conv4_5/linear"
  type: "Convolution"
  bottom: "conv4_5/dwise/bn"
  top: "conv4_5/linear"
  param {
    lr_mult: 0
    decay_mult: 1
  }
  convolution_param {
    num_output: 64
    bias_term: false
    kernel_size: 1
    weight_filler {
      type: "msra"
    }
  }
}
layer {
  name: "conv4_5/linear/bn"
  type: "BatchNorm"
  bottom: "conv4_5/linear"
  top: "conv4_5/linear/bn"
  param {
    lr_mult: 0
    decay_mult: 0
  }
  param {
    lr_mult: 0
    decay_mult: 0
  }
  param {
    lr_mult: 0
    decay_mult: 0
  }
  batch_norm_param {
    use_global_stats: true
    eps: 1e-05
  }
}
layer {
  name: "conv4_5/linear/scale"
  type: "Scale"
  bottom: "conv4_5/linear/bn"
  top: "conv4_5/linear/bn"
  param {
    lr_mult: 0
    decay_mult: 0
  }
  param {
    lr_mult: 0
    decay_mult: 0
  }
  scale_param {
    bias_term: true
  }
}
layer {
  name: "block_4_5"
  type: "Eltwise"
  bottom: "block_4_4"
  bottom: "conv4_5/linear/bn"
  top: "block_4_5"
}
layer {
  name: "conv4_6/expand"
  type: "Convolution"
  bottom: "block_4_5"
  top: "conv4_6/expand"
  param {
    lr_mult: 0
    decay_mult: 1
  }
  convolution_param {
    num_output: 384
    bias_term: false
    kernel_size: 1
    weight_filler {
      type: "msra"
    }
  }
}
layer {
  name: "conv4_6/expand/bn"
  type: "BatchNorm"
  bottom: "conv4_6/expand"
  top: "conv4_6/expand/bn"
  param {
    lr_mult: 0
    decay_mult: 0
  }
  param {
    lr_mult: 0
    decay_mult: 0
  }
  param {
    lr_mult: 0
    decay_mult: 0
  }
  batch_norm_param {
    use_global_stats: true
    eps: 1e-05
  }
}
layer {
  name: "conv4_6/expand/scale"
  type: "Scale"
  bottom: "conv4_6/expand/bn"
  top: "conv4_6/expand/bn"
  param {
    lr_mult: 0
    decay_mult: 0
  }
  param {
    lr_mult: 0
    decay_mult: 0
  }
  scale_param {
    bias_term: true
  }
}
layer {
  name: "relu4_6/expand"
  type: "ReLU"
  bottom: "conv4_6/expand/bn"
  top: "conv4_6/expand/bn"
}
layer {
  name: "conv4_6/dwise"
  type: "Convolution"
  bottom: "conv4_6/expand/bn"
  top: "conv4_6/dwise"
  param {
    lr_mult: 0
    decay_mult: 1
  }
  convolution_param {
    num_output: 384
    bias_term: false
    pad: 1
    kernel_size: 3
    group: 384
    weight_filler {
      type: "msra"
    }
    engine: CAFFE
  }
}
layer {
  name: "conv4_6/dwise/bn"
  type: "BatchNorm"
  bottom: "conv4_6/dwise"
  top: "conv4_6/dwise/bn"
  param {
    lr_mult: 0
    decay_mult: 0
  }
  param {
    lr_mult: 0
    decay_mult: 0
  }
  param {
    lr_mult: 0
    decay_mult: 0
  }
  batch_norm_param {
    use_global_stats: true
    eps: 1e-05
  }
}
layer {
  name: "conv4_6/dwise/scale"
  type: "Scale"
  bottom: "conv4_6/dwise/bn"
  top: "conv4_6/dwise/bn"
  param {
    lr_mult: 0
    decay_mult: 0
  }
  param {
    lr_mult: 0
    decay_mult: 0
  }
  scale_param {
    bias_term: true
  }
}
layer {
  name: "relu4_6/dwise"
  type: "ReLU"
  bottom: "conv4_6/dwise/bn"
  top: "conv4_6/dwise/bn"
}
layer {
  name: "conv4_6/linear"
  type: "Convolution"
  bottom: "conv4_6/dwise/bn"
  top: "conv4_6/linear"
  param {
    lr_mult: 0
    decay_mult: 1
  }
  convolution_param {
    num_output: 64
    bias_term: false
    kernel_size: 1
    weight_filler {
      type: "msra"
    }
  }
}
layer {
  name: "conv4_6/linear/bn"
  type: "BatchNorm"
  bottom: "conv4_6/linear"
  top: "conv4_6/linear/bn"
  param {
    lr_mult: 0
    decay_mult: 0
  }
  param {
    lr_mult: 0
    decay_mult: 0
  }
  param {
    lr_mult: 0
    decay_mult: 0
  }
  batch_norm_param {
    use_global_stats: true
    eps: 1e-05
  }
}
layer {
  name: "conv4_6/linear/scale"
  type: "Scale"
  bottom: "conv4_6/linear/bn"
  top: "conv4_6/linear/bn"
  param {
    lr
I0719 13:43:37.402657  9165 layer_factory.hpp:77] Creating layer data
I0719 13:43:37.402737  9165 db_lmdb.cpp:35] Opened lmdb /home/beauty/DL_dataset/lmdb_places365standard/train_image_lmdb
I0719 13:43:37.402758  9165 net.cpp:84] Creating Layer data
I0719 13:43:37.402765  9165 net.cpp:380] data -> data
I0719 13:43:37.402778  9165 net.cpp:380] data -> label
I0719 13:43:37.402791  9165 data_transformer.cpp:25] Loading mean file from: /home/beauty/DL_dataset/lmdb_places365standard/places365CNN_mean.binaryproto
I0719 13:43:37.413162  9165 data_layer.cpp:45] output data size: 32,3,224,224
I0719 13:43:37.449297  9165 net.cpp:122] Setting up data
I0719 13:43:37.449329  9165 net.cpp:129] Top shape: 32 3 224 224 (4816896)
I0719 13:43:37.449333  9165 net.cpp:129] Top shape: 32 (32)
I0719 13:43:37.449337  9165 net.cpp:137] Memory required for data: 19267712
I0719 13:43:37.449342  9165 layer_factory.hpp:77] Creating layer conv1
I0719 13:43:37.449368  9165 net.cpp:84] Creating Layer conv1
I0719 13:43:37.449373  9165 net.cpp:406] conv1 <- data
I0719 13:43:37.449378  9165 net.cpp:380] conv1 -> conv1
