…
  name: "data"
  type: "Data"
  top: "data"
  include {
    phase: TRAIN
  }
  transform_param {
    mirror: true
    crop_size: 224
    mean_file: "/home/beauty/DL_dataset/SUNAttribute_lmdb/mean.binaryproto"
  }
  data_param {
    source: "/home/beauty/DL_dataset/SUNAttribute_lmdb/train_img_lmdb"
    batch_size: 32
    backend: LMDB
  }
}
layer {
  name: "label"
  type: "Data"
  top: "label"
  include {
    phase: TRAIN
  }
  data_param {
    source: "/home/beauty/DL_dataset/SUNAttribute_lmdb/train_label_lmdb"
    batch_size: 32
    backend: LMDB
  }
}
layer {
  name: "conv1"
  type: "Convolution"
  bottom: "data"
  top: "conv1"
  param {
    lr_mult: 0
    decay_mult: 1
  }
  convolution_param {
    num_output: 32
    bias_term: false
    pad: 1
    kernel_size: 3
    stride: 2
    weight_filler {
      type: "msra"
    }
  }
}
layer {
  name: "conv1/bn"
  type: "BatchNorm"
  bottom: "conv1"
  top: "conv1/bn"
  param {
    lr_mult: 0
    decay_mult: 0
  }
  param {
    lr_mult: 0
    decay_mult: 0
  }
  param {
    lr_mult: 0
    decay_mult: 0
  }
  batch_norm_param {
    use_global_stats: true
    eps: 1e-05
  }
}
layer {
  name: "conv1/scale"
  type: "Scale"
  bottom: "conv1/bn"
  top: "conv1/bn"
  param {
    lr_mult: 0
    decay_mult: 0
  }
  param {
    lr_mult: 0
    decay_mult: 0
  }
  scale_param {
    bias_term: true
  }
}
layer {
  name: "relu1"
  type: "ReLU"
  bottom: "conv1/bn"
  top: "conv1/bn"
}
layer {
  name: "conv2_1/expand"
  type: "Convolution"
  bottom: "conv1/bn"
  top: "conv2_1/expand"
  param {
    lr_mult: 0
    decay_mult: 1
  }
  convolution_param {
    num_output: 32
    bias_term: false
    kernel_size: 1
    weight_filler {
      type: "msra"
    }
  }
}
layer {
  name: "conv2_1/expand/bn"
  type: "BatchNorm"
  bottom: "conv2_1/expand"
  top: "conv2_1/expand/bn"
  param {
    lr_mult: 0
    decay_mult: 0
  }
  param {
    lr_mult: 0
    decay_mult: 0
  }
  param {
    lr_mult: 0
    decay_mult: 0
  }
  batch_norm_param {
    use_global_stats: true
    eps: 1e-05
  }
}
layer {
  name: "conv2_1/expand/scale"
  type: "Scale"
  bottom: "conv2_1/expand/bn"
  top: "conv2_1/expand/bn"
  param {
    lr_mult: 0
    decay_mult: 0
  }
  param {
    lr_mult: 0
    decay_mult: 0
  }
  scale_param {
    bias_term: true
  }
}
layer {
  name: "relu2_1/expand"
  type: "ReLU"
  bottom: "conv2_1/expand/bn"
  top: "conv2_1/expand/bn"
}
layer {
  name: "conv2_1/dwise"
  type: "DepthwiseConvolution"
  bottom: "conv2_1/expand/bn"
  top: "conv2_1/dwise"
  param {
    lr_mult: 0
    decay_mult: 1
  }
  convolution_param {
    num_output: 32
    bias_term: false
    pad: 1
    kernel_size: 3
    group: 32
    weight_filler {
      type: "msra"
    }
    engine: CAFFE
  }
}
layer {
  name: "conv2_1/dwise/bn"
  type: "BatchNorm"
  bottom: "conv2_1/dwise"
  top: "conv2_1/dwise/bn"
  param {
    lr_mult: 0
    decay_mult: 0
  }
  param {
    lr_mult: 0
    decay_mult: 0
  }
  param {
    lr_mult: 0
    decay_mult: 0
  }
  batch_norm_param {
    use_global_stats: true
    eps: 1e-05
  }
}
layer {
  name: "conv2_1/dwise/scale"
  type: "Scale"
  bottom: "conv2_1/dwise/bn"
  top: "conv2_1/dwise/bn"
  param {
    lr_mult: 0
    decay_mult: 0
  }
  param {
    lr_mult: 0
    decay_mult: 0
  }
  scale_param {
    bias_term: true
  }
}
layer {
  name: "relu2_1/dwise"
  type: "ReLU"
  bottom: "conv2_1/dwise/bn"
  top: "conv2_1/dwise/bn"
}
layer {
  name: "conv2_1/linear"
  type: "Convolution"
  bottom: "conv2_1/dwise/bn"
  top: "conv2_1/linear"
  param {
    lr_mult: 0
    decay_mult: 1
  }
  convolution_param {
    num_output: 16
    bias_term: false
    kernel_size: 1
    weight_filler {
      type: "msra"
    }
  }
}
layer {
  name: "conv2_1/linear/bn"
  type: "BatchNorm"
  bottom: "conv2_1/linear"
  top: "conv2_1/linear/bn"
  param {
    lr_mult: 0
    decay_mult: 0
  }
  param {
    lr_mult: 0
    decay_mult: 0
  }
  param {
    lr_mult: 0
    decay_mult: 0
  }
  batch_norm_param {
    use_global_stats: true
    eps: 1e-05
  }
}
layer {
  name: "conv2_1/linear/scale"
  type: "Scale"
  bottom: "conv2_1/linear/bn"
  top: "conv2_1/linear/bn"
  param {
    lr_mult: 0
    decay_mult: 0
  }
  param {
    lr_mult: 0
    decay_mult: 0
  }
  scale_param {
    bias_term: true
  }
}
layer {
  name: "conv2_2/expand"
  type: "Convolution"
  bottom: "conv2_1/linear/bn"
  top: "conv2_2/expand"
  param {
    lr_mult: 0
    decay_mult: 1
  }
  convolution_param {
    num_output: 96
    bias_term: false
    kernel_size: 1
    weight_filler {
      type: "msra"
    }
  }
}
layer {
  name: "conv2_2/expand/bn"
  type: "BatchNorm"
  bottom: "conv2_2/expand"
  top: "conv2_2/expand/bn"
  param {
    lr_mult: 0
    decay_mult: 0
  }
  param {
    lr_mult: 0
    decay_mult: 0
  }
  param {
    lr_mult: 0
    decay_mult: 0
  }
  batch_norm_param {
    use_global_stats: true
    eps: 1e-05
  }
}
layer {
  name: "conv2_2/expand/scale"
  type: "Scale"
  bottom: "conv2_2/expand/bn"
  top: "conv2_2/expand/bn"
  param {
    lr_mult: 0
    decay_mult: 0
  }
  param {
    lr_mult: 0
    decay_mult: 0
  }
  scale_param {
    bias_term: true
  }
}
layer {
  name: "relu2_2/expand"
  type: "ReLU"
  bottom: "conv2_2/expand/bn"
  top: "conv2_2/expand/bn"
}
layer {
  name: "conv2_2/dwise"
  type: "DepthwiseConvolution"
  bottom: "conv2_2/expand/bn"
  top: "conv2_2/dwise"
  param {
    lr_mult: 0
    decay_mult: 1
  }
  convolution_param {
    num_output: 96
    bias_term: false
    pad: 1
    kernel_size: 3
    group: 96
    stride: 2
    weight_filler {
      type: "msra"
    }
    engine: CAFFE
  }
}
layer {
  name: "conv2_2/dwise/bn"
  type: "BatchNorm"
  bottom: "conv2_2/dwise"
  top: "conv2_2/dwise/bn"
  param {
    lr_mult: 0
    decay_mult: 0
  }
  param {
    lr_mult: 0
    decay_mult: 0
  }
  param {
    lr_mult: 0
    decay_mult: 0
  }
  batch_norm_param {
    use_global_stats: true
    eps: 1e-05
  }
}
layer {
  name: "conv2_2/dwise/scale"
  type: "Scale"
  bottom: "conv2_2/dwise/bn"
  top: "conv2_2/dwise/bn"
  param {
    lr_mult: 0
    decay_mult: 0
  }
  param {
    lr_mult: 0
    decay_mult: 0
  }
  scale_param {
    bias_term: true
  }
}
layer {
  name: "relu2_2/dwise"
  type: "ReLU"
  bottom: "conv2_2/dwise/bn"
  top: "conv2_2/dwise/bn"
}
layer {
  name: "conv2_2/linear"
  type: "Convolution"
  bottom: "conv2_2/dwise/bn"
  top: "conv2_2/linear"
  param {
    lr_mult: 0
    decay_mult: 1
  }
  convolution_param {
    num_output: 24
    bias_term: false
    kernel_size: 1
    weight_filler {
      type: "msra"
    }
  }
}
layer {
  name: "conv2_2/linear/bn"
  type: "BatchNorm"
  bottom: "conv2_2/linear"
  top: "conv2_2/linear/bn"
  param {
    lr_mult: 0
    decay_mult: 0
  }
  param {
    lr_mult: 0
    decay_mult: 0
  }
  param {
    lr_mult: 0
    decay_mult: 0
  }
  batch_norm_param {
    use_global_stats: true
    eps: 1e-05
  }
}
layer {
  name: "conv2_2/linear/scale"
  type: "Scale"
  bottom: "conv2_2/linear/bn"
  top: "conv2_2/linear/bn"
  param {
    lr_mult: 0
    decay_mult: 0
  }
  param {
    lr_mult: 0
    decay_mult: 0
  }
  scale_param {
    bias_term: true
  }
}
layer {
  name: "conv3_1/expand"
  type: "Convolution"
  bottom: "conv2_2/linear/bn"
  top: "conv3_1/expand"
  param {
    lr_mult: 0
    decay_mult: 1
  }
  convolution_param {
    num_output: 144
    bias_term: false
    kernel_size: 1
    weight_filler {
      type: "msra"
    }
  }
}
layer {
  name: "conv3_1/expand/bn"
  type: "BatchNorm"
  bottom: "conv3_1/expand"
  top: "conv3_1/expand/bn"
  param {
    lr_mult: 0
    decay_mult: 0
  }
  param {
    lr_mult: 0
    decay_mult: 0
  }
  param {
    lr_mult: 0
    decay_mult: 0
  }
  batch_norm_param {
    use_global_stats: true
    eps: 1e-05
  }
}
layer {
  name: "conv3_1/expand/scale"
  type: "Scale"
  bottom: "conv3_1/expand/bn"
  top: "conv3_1/expand/bn"
  param {
    lr_mult: 0
    decay_mult: 0
  }
  param {
    lr_mult: 0
    decay_mult: 0
  }
  scale_param {
    bias_term: true
  }
}
layer {
  name: "relu3_1/expand"
  type: "ReLU"
  bottom: "conv3_1/expand/bn"
  top: "conv3_1/expand/bn"
}
layer {
  name: "conv3_1/dwise"
  type: "DepthwiseConvolution"
  bottom: "conv3_1/expand/bn"
  top: "conv3_1/dwise"
  param {
    lr_mult: 0
    decay_mult: 1
  }
  convolution_param {
    num_output: 144
    bias_term: false
    pad: 1
    kernel_size: 3
    group: 144
    weight_filler {
      type: "msra"
    }
    engine: CAFFE
  }
}
layer {
  name: "conv3_1/dwise/bn"
  type: "BatchNorm"
  bottom: "conv3_1/dwise"
  top: "conv3_1/dwise/bn"
  param {
    lr_mult: 0
    decay_mult: 0
  }
  param {
    lr_mult: 0
    decay_mult: 0
  }
  param {
    lr_mult: 0
    decay_mult: 0
  }
  batch_norm_param {
    use_global_stats: true
    eps: 1e-05
  }
}
layer {
  name: "conv3_1/dwise/scale"
  type: "Scale"
  bottom: "conv3_1/dwise/bn"
  top: "conv3_1/dwise/bn"
  param {
    lr_mult: 0
    decay_mult: 0
  }
  param {
    lr_mult: 0
    decay_mult: 0
  }
  scale_param {
    bias_term: true
  }
}
layer {
  name: "relu3_1/dwise"
  type: "ReLU"
  bottom: "conv3_1/dwise/bn"
  top: "conv3_1/dwise/bn"
}
layer {
  name: "conv3_1/linear"
  type: "Convolution"
  bottom: "conv3_1/dwise/bn"
  top: "conv3_1/linear"
  param {
    lr_mult: 0
    decay_mult: 1
  }
  convolution_param {
    num_output: 24
    bias_term: false
    kernel_size: 1
    weight_filler {
      type: "msra"
    }
  }
}
layer {
  name: "conv3_1/linear/bn"
  type: "BatchNorm"
  bottom: "conv3_1/linear"
  top: "conv3_1/linear/bn"
  param {
    lr_mult: 0
    decay_mult: 0
  }
  param {
    lr_mult: 0
    decay_mult: 0
  }
  param {
    lr_mult: 0
    decay_mult: 0
  }
  batch_norm_param {
    use_global_stats: true
    eps: 1e-05
  }
}
layer {
  name: "conv3_1/linear/scale"
  type: "Scale"
  bottom: "conv3_1/linear/bn"
  top: "conv3_1/linear/bn"
  param {
    lr_mult: 0
    decay_mult: 0
  }
  param {
    lr_mult: 0
    decay_mult: 0
  }
  scale_param {
    bias_term: true
  }
}
layer {
  name: "block_3_1"
  type: "Eltwise"
  bottom: "conv2_2/linear/bn"
  bottom: "conv3_1/linear/bn"
  top: "block_3_1"
}
layer {
  name: "conv3_2/expand"
  type: "Convolution"
  bottom: "block_3_1"
  top: "conv3_2/expand"
  param {
    lr_mult: 0
    decay_mult: 1
  }
  convolution_param {
    num_output: 144
    bias_term: false
    kernel_size: 1
    weight_filler {
      type: "msra"
    }
  }
}
layer {
  name: "conv3_2/expand/bn"
  type: "BatchNorm"
  bottom: "conv3_2/expand"
  top: "conv3_2/expand/bn"
  param {
    lr_mult: 0
    decay_mult: 0
  }
  param {
    lr_mult: 0
    decay_mult: 0
  }
  param {
    lr_mult: 0
    decay_mult: 0
  }
  batch_norm_param {
    use_global_stats: true
    eps: 1e-05
  }
}
layer {
  name: "conv3_2/expand/scale"
  type: "Scale"
  bottom: "conv3_2/expand/bn"
  top: "conv3_2/expand/bn"
  param {
    lr_mult: 0
    decay_mult: 0
  }
  param {
    lr_mult: 0
    decay_mult: 0
  }
  scale_param {
    bias_term: true
  }
}
layer {
  name: "relu3_2/expand"
  type: "ReLU"
  bottom: "conv3_2/expand/bn"
  top: "conv3_2/expand/bn"
}
layer {
  name: "conv3_2/dwise"
  type: "DepthwiseConvolution"
  bottom: "conv3_2/expand/bn"
  top: "conv3_2/dwise"
  param {
    lr_mult: 0
    decay_mult: 1
  }
  convolution_param {
    num_output: 144
    bias_term: false
    pad: 1
    kernel_size: 3
    group: 144
    stride: 2
    weight_filler {
      type: "msra"
    }
    engine: CAFFE
  }
}
layer {
  name: "conv3_2/dwise/bn"
  type: "BatchNorm"
  bottom: "conv3_2/dwise"
  top: "conv3_2/dwise/bn"
  param {
    lr_mult: 0
    decay_mult: 0
  }
  param {
    lr_mult: 0
    decay_mult: 0
  }
  param {
    lr_mult: 0
    decay_mult: 0
  }
  batch_norm_param {
    use_global_stats: true
    eps: 1e-05
  }
}
layer {
  name: "conv3_2/dwise/scale"
  type: "Scale"
  bottom: "conv3_2/dwise/bn"
  top: "conv3_2/dwise/bn"
  param {
    lr_mult: 0
    decay_mult: 0
  }
  param {
    lr_mult: 0
    decay_mult: 0
  }
  scale_param {
    bias_term: true
  }
}
layer {
  name: "relu3_2/dwise"
  type: "ReLU"
  bottom: "conv3_2/dwise/bn"
  top: "conv3_2/dwise/bn"
}
layer {
  name: "conv3_2/linear"
  type: "Convolution"
  bottom: "conv3_2/dwise/bn"
  top: "conv3_2/linear"
  param {
    lr_mult: 0
    decay_mult: 1
  }
  convolution_param {
    num_output: 32
    bias_term: false
    kernel_size: 1
    weight_filler {
      type: "msra"
    }
  }
}
layer {
  name: "conv3_2/linear/bn"
  type: "BatchNorm"
  bottom: "conv3_2/linear"
  top: "conv3_2/linear/bn"
  param {
    lr_mult: 0
    decay_mult: 0
  }
  param {
    lr_mult: 0
    decay_mult: 0
  }
  param {
    lr_mult: 0
    decay_mult: 0
  }
  batch_norm_param {
    use_global_stats: true
    eps: 1e-05
  }
}
layer {
  name: "conv3_2/linear/scale"
  type: "Scale"
  bottom: "conv3_2/linear/bn"
  top: "conv3_2/linear/bn"
  param {
    lr_mult: 0
    decay_mult: 0
  }
  param {
    lr_mult: 0
    decay_mult: 0
  }
  scale_param {
    bias_term: true
  }
}
layer {
  name: "conv4_1/expand"
  type: "Convolution"
  bottom: "conv3_2/linear/bn"
  top: "conv4_1/expand"
  param {
    lr_mult: 0
    decay_mult: 1
  }
  convolution_param {
    num_output: 192
    bias_term: false
    kernel_size: 1
    weight_filler {
      type: "msra"
    }
  }
}
layer {
  name: "conv4_1/expand/bn"
  type: "BatchNorm"
  bottom: "conv4_1/expand"
  top: "conv4_1/expand/bn"
  param {
    lr_mult: 0
    decay_mult: 0
  }
  param {
    lr_mult: 0
    decay_mult: 0
  }
  param {
    lr_mult: 0
    decay_mult: 0
  }
  batch_norm_param {
    use_global_stats: true
    eps: 1e-05
  }
}
layer {
  name: "conv4_1/expand/scale"
  type: "Scale"
  bottom: "conv4_1/expand/bn"
  top: "conv4_1/expand/bn"
  param {
    lr_mult: 0
    decay_mult: 0
  }
  param {
    lr_mult: 0
    decay_mult: 0
  }
  scale_param {
    bias_term: true
  }
}
layer {
  name: "relu4_1/expand"
  type: "ReLU"
  bottom: "conv4_1/expand/bn"
  top: "conv4_1/expand/bn"
}
layer {
  name: "conv4_1/dwise"
  type: "DepthwiseConvolution"
  bottom: "conv4_1/expand/bn"
  top: "conv4_1/dwise"
  param {
    lr_mult: 0
    decay_mult: 1
  }
  convolution_param {
    num_output: 192
    bias_term: false
    pad: 1
    kernel_size: 3
    group: 192
    weight_filler {
      type: "msra"
    }
    engine: CAFFE
  }
}
layer {
  name: "conv4_1/dwise/bn"
  type: "BatchNorm"
  bottom: "conv4_1/dwise"
  top: "conv4_1/dwise/bn"
  param {
    lr_mult: 0
    decay_mult: 0
  }
  param {
    lr_mult: 0
    decay_mult: 0
  }
  param {
    lr_mult: 0
    decay_mult: 0
  }
  batch_norm_param {
    use_global_stats: true
    eps: 1e-05
  }
}
layer {
  name: "conv4_1/dwise/scale"
  type: "Scale"
  bottom: "conv4_1/dwise/bn"
  top: "conv4_1/dwise/bn"
  param {
    lr_mult: 0
    decay_mult: 0
  }
  param {
    lr_mult: 0
    decay_mult: 0
  }
  scale_param {
    bias_term: true
  }
}
layer {
  name: "relu4_1/dwise"
  type: "ReLU"
  bottom: "conv4_1/dwise/bn"
  top: "conv4_1/dwise/bn"
}
layer {
  name: "conv4_1/linear"
  type: "Convolution"
  bottom: "conv4_1/dwise/bn"
  top: "conv4_1/linear"
  param {
    lr_mult: 0
    decay_mult: 1
  }
  convolution_param {
    num_output: 32
    bias_term: false
    kernel_size: 1
    weight_filler {
      type: "msra"
    }
  }
}
layer {
  name: "conv4_1/linear/bn"
  type: "BatchNorm"
  bottom: "conv4_1/linear"
  top: "conv4_1/linear/bn"
  param {
    lr_mult: 0
    decay_mult: 0
  }
  param {
    lr_mult: 0
    decay_mult: 0
  }
  param {
    lr_mult: 0
    decay_mult: 0
  }
  batch_norm_param {
    use_global_stats: true
    eps: 1e-05
  }
}
layer {
  name: "conv4_1/linear/scale"
  type: "Scale"
  bottom: "conv4_1/linear/bn"
  top: "conv4_1/linear/bn"
  param {
    lr_mult: 0
    decay_mult: 0
  }
  param {
    lr_mult: 0
    decay_mult: 0
  }
  scale_param {
    bias_term: true
  }
}
layer {
  name: "block_4_1"
  type: "Eltwise"
  bottom: "conv3_2/linear/bn"
  bottom: "conv4_1/linear/bn"
  top: "block_4_1"
}
layer {
  name: "conv4_2/expand"
  type: "Convolution"
  bottom: "block_4_1"
  top: "conv4_2/expand"
  param {
    lr_mult: 0
    decay_mult: 1
  }
  convolution_param {
    num_output: 192
    bias_term: false
    kernel_size: 1
    weight_filler {
      type: "msra"
    }
  }
}
layer {
  name: "conv4_2/expand/bn"
  type: "BatchNorm"
  bottom: "conv4_2/expand"
  top: "conv4_2/expand/bn"
  param {
    lr_mult: 0
    decay_mult: 0
  }
  param {
    lr_mult: 0
    decay_mult: 0
  }
  param {
    lr_mult: 0
    decay_mult: 0
  }
  batch_norm_param {
    use_global_stats: true
    eps: 1e-05
  }
}
layer {
  name: "conv4_2/expand/scale"
  type: "Scale"
  bottom: "conv4_2/expand/bn"
  top: "conv4_2/expand/bn"
  param {
    lr_mult: 0
    decay_mult: 0
  }
  param {
    lr_mult: 0
    decay_mult: 0
  }
  scale_param {
    bias_term: true
  }
}
layer {
  name: "relu4_2/expand"
  type: "ReLU"
  bottom: "conv4_2/expand/bn"
  top: "conv4_2/expand/bn"
}
layer {
  name: "conv4_2/dwise"
  type: "DepthwiseConvolution"
  bottom: "conv4_2/expand/bn"
  top: "conv4_2/dwise"
  param {
    lr_mult: 0
    decay_mult: 1
  }
  convolution_param {
    num_output: 192
    bias_term: false
    pad: 1
    kernel_size: 3
    group: 192
    weight_filler {
      type: "msra"
    }
    engine: CAFFE
  }
}
layer {
  name: "conv4_2/dwise/bn"
  type: "BatchNorm"
  bottom: "conv4_2/dwise"
  top: "conv4_2/dwise/bn"
  param {
    lr_mult: 0
    decay_mult: 0
  }
  param {
    lr_mult: 0
    decay_mult: 0
  }
  param {
    lr_mult: 0
    decay_mult: 0
  }
  batch_norm_param {
    use_global_stats: true
    eps: 1e-05
  }
}
layer {
  name: "conv4_2/dwise/scale"
  type: "Scale"
  bottom: "conv4_2/dwise/bn"
  top: "conv4_2/dwise/bn"
  param {
    lr_mult: 0
    decay_mult: 0
  }
  param {
    lr_mult: 0
    decay_mult: 0
  }
  scale_param {
    bias_term: true
  }
}
layer {
  name: "relu4_2/dwise"
  type: "ReLU"
  bottom: "conv4_2/dwise/bn"
  top: "conv4_2/dwise/bn"
}
layer {
  name: "conv4_2/linear"
  type: "Convolution"
  bottom: "conv4_2/dwise/bn"
  top: "conv4_2/linear"
  param {
    lr_mult: 0
    decay_mult: 1
  }
  convolution_param {
    num_output: 32
    bias_term: false
    kernel_size: 1
    weight_filler {
      type: "msra"
    }
  }
}
layer {
  name: "conv4_2/linear/bn"
  type: "BatchNorm"
  bottom: "conv4_2/linear"
  top: "conv4_2/linear/bn"
  param {
    lr_mult: 0
    decay_mult: 0
  }
  param {
    lr_mult: 0
    decay_mult: 0
  }
  param {
    lr_mult: 0
    decay_mult: 0
  }
  batch_norm_param {
    use_global_stats: true
    eps: 1e-05
  }
}
layer {
  name: "conv4_2/linear/scale"
  type: "Scale"
  bottom: "conv4_2/linear/bn"
  top: "conv4_2/linear/bn"
  param {
    lr_mult: 0
    decay_mult: 0
  }
  param {
    lr_mult: 0
    decay_mult: 0
  }
  scale_param {
    bias_term: true
  }
}
layer {
  name: "block_4_2"
  type: "Eltwise"
  bottom: "block_4_1"
  bottom: "conv4_2/linear/bn"
  top: "block_4_2"
}
layer {
  name: "conv4_3/expand"
  type: "Convolution"
  bottom: "block_4_2"
  top: "conv4_3/expand"
  param {
    lr_mult: 0
    decay_mult: 1
  }
  convolution_param {
    num_output: 192
    bias_term: false
    kernel_size: 1
    weight_filler {
      type: "msra"
    }
  }
}
layer {
  name: "conv4_3/expand/bn"
  type: "BatchNorm"
  bottom: "conv4_3/expand"
  top: "conv4_3/expand/bn"
  param {
    lr_mult: 0
    decay_mult: 0
  }
  param {
    lr_mult: 0
    decay_mult: 0
  }
  param {
    lr_mult: 0
    decay_mult: 0
  }
  batch_norm_param {
    use_global_stats: true
    eps: 1e-05
  }
}
layer {
  name: "conv4_3/expand/scale"
  type: "Scale"
  bottom: "conv4_3/expand/bn"
  top: "conv4_3/expand/bn"
  param {
    lr_mult: 0
    decay_mult: 0
  }
  param {
    lr_mult: 0
    decay_mult: 0
  }
  scale_param {
    bias_term: true
  }
}
layer {
  name: "relu4_3/expand"
  type: "ReLU"
  bottom: "conv4_3/expand/bn"
  top: "conv4_3/expand/bn"
}
layer {
  name: "conv4_3/dwise"
  type: "DepthwiseConvolution"
  bottom: "conv4_3/expand/bn"
  top: "conv4_3/dwise"
  param {
    lr_mult: 0
    decay_mult: 1
  }
  convolution_param {
    num_output: 192
    bias_term: false
    pad: 1
    kernel_size: 3
    group: 192
    weight_filler {
      type: "msra"
    }
    engine: CAFFE
  }
}
layer {
  name: "conv4_3/dwise/bn"
  type: "BatchNorm"
  bottom: "conv4_3/dwise"
  top: "conv4_3/dwise/bn"
  param {
    lr_mult: 0
    decay_mult: 0
  }
  param {
    lr_mult: 0
    decay_mult: 0
  }
  param {
    lr_mult: 0
    decay_mult: 0
  }
  batch_norm_param {
    use_global_stats: true
    eps: 1e-05
  }
}
layer {
  name: "conv4_3/dwise/scale"
  type: "Scale"
  bottom: "conv4_3/dwise/bn"
  top: "conv4_3/dwise/bn"
  param {
    lr_mult: 0
    decay_mult: 0
  }
  param {
    lr_mult: 0
    decay_mult: 0
  }
  scale_param {
    bias_term: true
  }
}
layer {
  name: "relu4_3/dwise"
  type: "ReLU"
  bottom: "conv4_3/dwise/bn"
  top: "conv4_3/dwise/bn"
}
layer {
  name: "conv4_3/linear"
  type: "Convolution"
  bottom: "conv4_3/dwise/bn"
  top: "conv4_3/linear"
  param {
    lr_mult: 0
    decay_mult: 1
  }
  convolution_param {
    num_output: 64
    bias_term: false
    kernel_size: 1
    weight_filler {
      type: "msra"
    }
  }
}
layer {
  name: "conv4_3/linear/bn"
  type: "BatchNorm"
  bottom: "conv4_3/linear"
  top: "conv4_3/linear/bn"
  param {
    lr_mult: 0
    decay_mult: 0
  }
  param {
    lr_mult: 0
    decay_mult: 0
  }
  param {
    lr_mult: 0
    decay_mult: 0
  }
  batch_norm_param {
    use_global_stats: true
    eps: 1e-05
  }
}
layer {
  name: "conv4_3/linear/scale"
  type: "Scale"
  bottom: "conv4_3/linear/bn"
  top: "conv4_3/linear/bn"
  param {
    lr_mult: 0
    decay_mult: 0
  }
  param {
    lr_mult: 0
    decay_mult: 0
  }
  scale_param {
    bias_term: true
  }
}
layer {
  name: "conv4_4/expand"
  type: "Convolution"
  bottom: "conv4_3/linear/bn"
  top: "conv4_4/expand"
  param {
    lr_mult: 0
    decay_mult: 1
  }
  convolution_param {
    num_output: 384
    bias_term: false
    kernel_size: 1
    weight_filler {
      type: "msra"
    }
  }
}
layer {
  name: "conv4_4/expand/bn"
  type: "BatchNorm"
  bottom: "conv4_4/expand"
  top: "conv4_4/expand/bn"
  param {
    lr_mult: 0
    decay_mult: 0
  }
  param {
    lr_mult: 0
    decay_mult: 0
  }
  param {
    lr_mult: 0
    decay_mult: 0
  }
  batch_norm_param {
    use_global_stats: true
    eps: 1e-05
  }
}
layer {
  name: "conv4_4/expand/scale"
  type: "Scale"
  bottom: "conv4_4/expand/bn"
  top: "conv4_4/expand/bn"
  param {
    lr_mult: 0
    decay_mult: 0
  }
  param {
    lr_mult: 0
    decay_mult: 0
  }
  scale_param {
    bias_term: true
  }
}
layer {
  name: "relu4_4/expand"
  type: "ReLU"
  bottom: "conv4_4/expand/bn"
  top: "conv4_4/expand/bn"
}
layer {
  name: "conv4_4/dwise"
  type: "DepthwiseConvolution"
  bottom: "conv4_4/expand/bn"
  top: "conv4_4/dwise"
  param {
    lr_mult: 0
    decay_mult: 1
  }
  convolution_param {
    num_output: 384
    bias_term: false
    pad: 1
    kernel_size: 3
    group: 384
    weight_filler {
      type: "msra"
    }
    engine: CAFFE
  }
}
layer {
  name: "conv4_4/dwise/bn"
  type: "BatchNorm"
  bottom: "conv4_4/dwise"
  top: "conv4_4/dwise/bn"
  param {
    lr_mult: 0
    decay_mult: 0
  }
  param {
    lr_mult: 0
    decay_mult: 0
  }
  param {
    lr_mult: 0
    decay_mult: 0
  }
  batch_norm_param {
    use_global_stats: true
    eps: 1e-05
  }
}
layer {
  name: "conv4_4/dwise/scale"
  type: "Scale"
  bottom: "conv4_4/dwise/bn"
  top: "conv4_4/dwise/bn"
  param {
    lr_mult: 0
    decay_mult: 0
  }
  param {
    lr_mult: 0
    decay_mult: 0
  }
  scale_param {
    bias_term: true
  }
}
layer {
  name: "relu4_4/dwise"
  type: "ReLU"
  bottom: "conv4_4/dwise/bn"
  top: "conv4_4/dwise/bn"
}
layer {
  name: "conv4_4/linear"
  type: "Convolution"
  bottom: "conv4_4/dwise/bn"
  top: "conv4_4/linear"
  param {
    lr_mult: 0
    decay_mult: 1
  }
  convolution_param {
    num_output: 64
    bias_term: false
    kernel_size: 1
    weight_filler {
      type: "msra"
    }
  }
}
layer {
  name: "conv4_4/linear/bn"
  type: "BatchNorm"
  bottom: "conv4_4/linear"
  top: "conv4_4/linear/bn"
  param {
    lr_mult: 0
    decay_mult: 0
  }
  param {
    lr_mult: 0
    decay_mult: 0
  }
  param {
    lr_mult: 0
    decay_mult: 0
  }
  batch_norm_param {
    use_global_stats: true
    eps: 1e-05
  }
}
layer {
  name: "conv4_4/linear/scale"
  type: "Scale"
  bottom: "conv4_4/linear/bn"
  top: "conv4_4/linear/bn"
  param {
    lr_mult: 0
    decay_mult: 0
  }
  param {
    lr_mult: 0
    decay_mult: 0
  }
  scale_param {
    bias_term: true
  }
}
layer {
  name: "block_4_4"
  type: "Eltwise"
  bottom: "conv4_3/linear/bn"
  bottom: "conv4_4/linear/bn"
  top: "block_4_4"
}
layer {
  name: "conv4_5/expand"
  type: "Convolution"
  bottom: "block_4_4"
  top: "conv4_5/expand"
  param {
    lr_mult: 0
    decay_mult: 1
  }
  convolution_param {
    num_output: 384
    bias_term: false
    kernel_size: 1
    weight_filler {
      type: "msra"
    }
  }
}
layer {
  name: "conv4_5/expand/bn"
  type: "BatchNorm"
  bottom: "conv4_5/expand"
  top: "conv4_5/expand/bn"
  param {
    lr_mult: 0
    decay_mult: 0
  }
  param {
    lr_mult: 0
    decay_mult: 0
  }
  param {
    lr_mult: 0
    decay_mult: 0
  }
  batch_norm_param {
    use_global_stats: true
    eps: 1e-05
  }
}
layer {
  name: "conv4_5/expand/scale"
  type: "Scale"
  bottom: "conv4_5/expand/bn"
  top: "conv4_5/expand/bn"
  param {
    lr_mult: 0
    decay_mult: 0
  }
  param {
    lr_mult: 0
    decay_mult: 0
  }
  scale_param {
    bias_term: true
  }
}
layer {
  name: "relu4_5/expand"
  type: "ReLU"
  bottom: "conv4_5/expand/bn"
  top: "conv4_5/expand/bn"
}
layer {
  name: "conv4_5/dwise"
  type: "DepthwiseConvolution"
  bottom: "conv4_5/expand/bn"
  top: "conv4_5/dwise"
  param {
    lr_mult: 0
    decay_mult: 1
  }
  convolution_param {
    num_output: 384
    bias_term: false
    pad: 1
    kernel_size: 3
    group: 384
    weight_filler {
      type: "msra"
    }
    engine: CAFFE
  }
}
layer {
  name: "conv4_5/dwise/bn"
  type: "BatchNorm"
  bottom: "conv4_5/dwise"
  top: "conv4_5/dwise/bn"
  param {
    lr_mult: 0
    decay_mult: 0
  }
  param {
    lr_mult: 0
    decay_mult: 0
  }
  param {
    lr_mult: 0
    decay_mult: 0
  }
  batch_norm_param {
    use_global_stats: true
    eps: 1e-05
  }
}
layer {
  name: "conv4_5/dwise/scale"
  type: "Scale"
  bottom: "conv4_5/dwise/bn"
  top: "conv4_5/dwise/bn"
  param {
    lr_mult: 0
    decay_mult: 0
  }
  param {
    lr_mult: 0
    decay_mult: 0
  }
  scale_param {
    bias_term: true
  }
}
layer {
  name: "relu4_5/dwise"
  type: "ReLU"
  bottom: "conv4_5/dwise/bn"
  top: "conv4_5/dwise/bn"
}
layer {
  name: "conv4_5/linear"
  type: "Convolution"
  bottom: "conv4_5/dwise/bn"
  top: "conv4_5/linear"
  param {
    lr_mult: 0
    decay_mult: 1
  }
  convolution_param {
    num_output: 64
    bias_term: false
    kernel_size: 1
    weight_filler {
      type: "msra"
    }
  }
}
layer {
  name: "conv4_5/linear/bn"
  type: "BatchNorm"
  bottom: "conv4_5/linear"
  top: "conv4_5/linear/bn"
  param {
    lr_mult: 0
    decay_mult: 0
  }
  param {
    lr_mult: 0
    decay_mult: 0
  }
  param {
    lr_mult: 0
    decay_mult: 0
  }
  batch_norm_param {
    use_global_stats: true
    eps: 1e-05
  }
}
layer {
  name: "conv4_5/linear/scale"
  type: "Scale"
  bottom: "conv4_5/linear/bn"
  top: "conv4_5/linear/bn"
  param {
    lr_mult: 0
    decay_mult: 0
  }
  param {
    lr_mult: 0
    decay_mult: 0
  }
  scale_param {
    bias_term: true
  }
}
layer {
  name: "block_4_5"
  type: "Eltwise"
  bottom: "block_4_4"
  bottom: "conv4_5/linear/bn"
  top: "block_4_5"
}
layer {
  name: "conv4_6/expand"
  type: "Convolution"
  bottom: "block_4_5"
  top: "conv4_6/expand"
  param {
    lr_mult: 0
    decay_mult: 1
  }
  convolution_param {
    num_output: 384
    bias_term: false
    kernel_size: 1
    weight_filler {
      type: "msra"
    }
  }
}
layer {
  name: "conv4_6/expand/bn"
  type: "BatchNorm"
  bottom: "conv4_6/expand"
  top: "conv4_6/expand/bn"
  param {
    lr_mult: 0
    decay_mult: 0
  }
  param {
    lr_mult: 0
    decay_mult: 0
  }
  param {
    lr_mult: 0
    decay_mult: 0
  }
  batch_norm_param {
    use_global_stats: true
    eps: 1e-05
  }
}
layer {
  name: "conv4_6/expand/scale"
  type: "Scale"
  bottom: "conv4_6/expand/bn"
  top: "conv4_6/expand/bn"
  param {
    lr_mult: 0
    decay_mult: 0
  }
  param {
    lr_mult: 0
    decay_mult: 0
  }
  scale_param {
    bias_term: true
  }
}
layer {
  name: "relu4_6/expand"
  type: "ReLU"
  bottom: "conv4_6/expand/bn"
  top: "conv4_6/expand/bn"
}
layer {
  name: "conv4_6/dwise"
  type: "DepthwiseConvolution"
  bottom: "conv4_6/expand/bn"
  top: "conv4_6/dwise"
  param {
    lr_mult: 0
    decay_mult: 1
  }
  convolution_param {
    num_output: 384
    bias_term: false
    pad: 1
    kernel_size: 3
    group: 384
    weight_filler {
      type: "msra"
    }
    engine: CAFFE
  }
}
layer {
  name: "conv4_6/dwise/bn"
  type: "BatchNorm"
  bottom: "conv4_6/dwise"
  top: "conv4_6/dwise/bn"
  param {
    lr_mult: 0
    decay_mult: 0
  }
  param {
    lr_mult: 0
    decay_mult: 0
  }
  param {
    lr_mult: 0
    decay_mult: 0
  }
  batch_norm_param {
    use_global_stats: true
    eps: 1e-05
  }
}
layer {
  name: "conv4_6/dwise/scale"
  type: "Scale"
  bottom: "conv4_6/dwise/bn"
  top: "conv4_6/dwise/bn"
  param {
    lr_mult: 0
    decay_mult: 0
  }
  param {
    lr_mult: 0
    decay_mult: 0
  }
  scale_param {
    bias_term: true
  }
}
layer {
  name: "relu4_6/dwise"
  type: "ReLU"
  bottom: "conv4_6/dwise/bn"
  top: "conv4_6/dwise/bn"
}
layer {
  name: "conv4_6/linear"
  type: "Convolution"
  bottom: "conv4_6/dwise/bn"
  top: "conv4_6/linear"
  param {
    lr_mult: 0
    decay_mult: 1
  }
  convolution_param {
    num_output: 64
    bias_term: false
    kernel_size: 1
    weight_filler {
      type: "msra"
    }
  }
}
layer {
  name: "conv4_6/linear/bn"
  type: "BatchNorm"
  bottom: "conv4_6/linear"
  top: "conv4_6/linear/bn"
  param {
    lr_mult: 0
    decay_mult: 0
  }
  param {
    lr_mult: 
I0726 19:52:38.432607  2103 layer_factory.hpp:77] Creating layer data
I0726 19:52:38.432665  2103 db_lmdb.cpp:35] Opened lmdb /home/beauty/DL_dataset/SUNAttribute_lmdb/train_img_lmdb
I0726 19:52:38.432682  2103 net.cpp:84] Creating Layer data
I0726 19:52:38.432687  2103 net.cpp:380] data -> data
I0726 19:52:38.432701  2103 data_transformer.cpp:25] Loading mean file from: /home/beauty/DL_dataset/SUNAttribute_lmdb/mean.binaryproto
I0726 19:52:38.435456  2103 data_layer.cpp:45] output data size: 32,3,224,224
I0726 19:52:38.470145  2103 net.cpp:122] Setting up data
I0726 19:52:38.470178  2103 net.cpp:129] Top shape: 32 3 224 224 (4816896)
I0726 19:52:38.470182  2103 net.cpp:137] Memory required for data: 19267584
I0726 19:52:38.470198  2103 layer_factory.hpp:77] Creating layer label
I0726 19:52:38.470283  2103 db_lmdb.cpp:35] Opened lmdb /home/beauty/DL_dataset/SUNAttribute_lmdb/train_label_lmdb
I0726 19:52:38.470300  2103 net.cpp:84] Creating Layer label
I0726 19:52:38.470306  2103 net.cpp:380] label -> label
I0726 19:52:38.470433  2103 data_layer.cpp:45] output data size: 32,102,1,1
I0726 19:52:38.471688  2103 net.cpp:122] Setting up label
I0726 19:52:38.471714  2103 net.cpp:129] Top shape: 32 102 1 1 (3264)
I0726 19:52:38.471717  2103 net.cpp:137] Memory required for data: 19280640
I0726 19:52:38.471721  2103 layer_factory.hpp:77] Creating layer conv1
I0726 19:52:38.471735  2103 net.cpp:84] Creating Layer conv1
I0726 19:52:38.471740  2103 net.cpp:406] conv1 <- data
I0726 19:52:38.471746  2103 net.cpp:380] conv1 -> conv1
I0726 19:52:38.987414  2103 net.cpp:122] Setting up conv1
I0726 19:52:38.987442  2103 net.cpp:129] Top shape: 32 32 112 112 (12845056)
I0726 19:52:38.987445  2103 net.cpp:137] Memory required for data: 70660864
I0726 19:52:38.987457  2103 layer_factory.hpp:77] Creating layer conv1/bn
I0726 19:52:38.987476  2103 net.cpp:84] Creating Layer conv1/bn
I0726 19:52:38.987480  2103 net.cpp:406] conv1/bn <- conv1
I0726 19:52:38.987485  2103 net.cpp:380] conv1/bn -> conv1/bn
I0726 19:52:38.988585  2103 net.cpp:122] Setting up conv1/bn
I0726 19:52:38.988611  2103 net.cpp:129] Top shape: 32 32 112 112 (12845056)
I0726 19:52:38.988615  2103 net.cpp:137] Memory required for data: 122041088
I0726 19:52:38.988626  2103 layer_factory.hpp:77] Creating layer conv1/scale
I0726 19:52:38.988636  2103 net.cpp:84] Creating Layer conv1/scale
I0726 19:52:38.988639  2103 net.cpp:406] conv1/scale <- conv1/bn
I0726 19:52:38.988644  2103 net.cpp:367] conv1/scale -> conv1/bn (in-place)
I0726 19:52:38.988692  2103 layer_factory.hpp:77] Creating layer conv1/scale
I0726 19:52:38.988814  2103 net.cpp:122] Setting up conv1/scale
I0726 19:52:38.988821  2103 net.cpp:129] Top shape: 32 32 112 112 (12845056)
I0726 19:52:38.988833  2103 net.cpp:137] Memory required for data: 173421312
I0726 19:52:38.988839  2103 layer_factory.hpp:77] Creating layer relu1
I0726 19:52:38.988844  2103 net.cpp:84] Creating Layer relu1
I0726 19:52:38.988847  2103 net.cpp:406] relu1 <- conv1/bn
I0726 19:52:38.988852  2103 net.cpp:367] relu1 -> conv1/bn (in-place)
I0726 19:52:38.989236  2103 net.cpp:122] Setting up relu1
I0726 19:52:38.989245  2103 net.cpp:129] Top shape: 32 32 112 112 (12845056)
I0726 19:52:38.989248  2103 net.cpp:137] Memory required for data: 224801536
I0726 19:52:38.989251  2103 layer_factory.hpp:77] Creating layer conv2_1/expand
I0726 19:52:38.989259  2103 net.cpp:84] Creating Layer conv2_1/expand
I0726 19:52:38.989264  2103 net.cpp:406] conv2_1/expand <- conv1/bn
I0726 19:52:38.989267  2103 net.cpp:380] conv2_1/expand -> conv2_1/expand
I0726 19:52:38.990842  2103 net.cpp:122] Setting up conv2_1/expand
I0726 19:52:38.990854  2103 net.cpp:129] Top shape: 32 32 112 112 (12845056)
I0726 19:52:38.990857  2103 net.cpp:137] Memory required for data: 276181760
I0726 19:52:38.990862  2103 layer_factory.hpp:77] Creating layer conv2_1/expand/bn
I0726 19:52:38.990871  2103 net.cpp:84] Creating Layer conv2_1/expand/bn
I0726 19:52:38.990875  2103 net.cpp:406] conv2_1/expand/bn <- conv2_1/expand
I0726 19:52:38.990878  2103 net.cpp:380] conv2_1/expand/bn -> conv2_1/expand/bn
I0726 19:52:38.991068  2103 net.cpp:122] Setting up conv2_1/expand/bn
I0726 19:52:38.991075  2103 net.cpp:129] Top shape: 32 32 112 112 (12845056)
I0726 19:52:38.991078  2103 net.cpp:137] Memory required for data: 327561984
I0726 19:52:38.991087  2103 layer_factory.hpp:77] Creating layer conv2_1/expand/scale
I0726 19:52:38.991096  2103 net.cpp:84] Creating Layer conv2_1/expand/scale
I0726 19:52:38.991108  2103 net.cpp:406] conv2_1/expand/scale <- conv2_1/expand/bn
I0726 19:52:38.991113  2103 net.cpp:367] conv2_1/expand/scale -> conv2_1/expand/bn (in-place)
I0726 19:52:38.991152  2103 layer_factory.hpp:77] Creating layer conv2_1/expand/scale
I0726 19:52:38.991259  2103 net.cpp:122] Setting up conv2_1/expand/scale
I0726 19:52:38.991266  2103 net.cpp:129] Top shape: 32 32 112 112 (12845056)
I0726 19:52:38.991269  2103 net.cpp:137] Memory required for data: 378942208
I0726 19:52:38.991273  2103 layer_factory.hpp:77] Creating layer relu2_1/expand
I0726 19:52:38.991278  2103 net.cpp:84] Creating Layer relu2_1/expand
I0726 19:52:38.991281  2103 net.cpp:406] relu2_1/expand <- conv2_1/expand/bn
I0726 19:52:38.991286  2103 net.cpp:367] relu2_1/expand -> conv2_1/expand/bn (in-place)
I0726 19:52:38.991662  2103 net.cpp:122] Setting up relu2_1/expand
I0726 19:52:38.991669  2103 net.cpp:129] Top shape: 32 32 112 112 (12845056)
I0726 19:52:38.991681  2103 net.cpp:137] Memory required for data: 430322432
I0726 19:52:38.991684  2103 layer_factory.hpp:77] Creating layer conv2_1/dwise
I0726 19:52:38.991693  2103 net.cpp:84] Creating Layer conv2_1/dwise
I0726 19:52:38.991695  2103 net.cpp:406] conv2_1/dwise <- conv2_1/expand/bn
I0726 19:52:38.991700  2103 net.cpp:380] conv2_1/dwise -> conv2_1/dwise
I0726 19:52:38.991883  2103 net.cpp:122] Setting up conv2_1/dwise
I0726 19:52:38.991888  2103 net.cpp:129] Top shape: 32 32 112 112 (12845056)
I0726 19:52:38.991900  2103 net.cpp:137] Memory required for data: 481702656
I0726 19:52:38.991904  2103 layer_factory.hpp:77] Creating layer conv2_1/dwise/bn
I0726 19:52:38.991911  2103 net.cpp:84] Creating Layer conv2_1/dwise/bn
I0726 19:52:38.991914  2103 net.cpp:406] conv2_1/dwise/bn <- conv2_1/dwise
I0726 19:52:38.991919  2103 net.cpp:380] conv2_1/dwise/bn -> conv2_1/dwise/bn
I0726 19:52:38.992105  2103 net.cpp:122] Setting up conv2_1/dwise/bn
I0726 19:52:38.992111  2103 net.cpp:129] Top shape: 32 32 112 112 (12845056)
I0726 19:52:38.992123  2103 net.cpp:137] Memory required for data: 533082880
I0726 19:52:38.992130  2103 layer_factory.hpp:77] Creating layer conv2_1/dwise/scale
I0726 19:52:38.992135  2103 net.cpp:84] Creating Layer conv2_1/dwise/scale
I0726 19:52:38.992136  2103 net.cpp:406] conv2_1/dwise/scale <- conv2_1/dwise/bn
I0726 19:52:38.992141  2103 net.cpp:367] conv2_1/dwise/scale -> conv2_1/dwise/bn (in-place)
I0726 19:52:38.992187  2103 layer_factory.hpp:77] Creating layer conv2_1/dwise/scale
I0726 19:52:38.992312  2103 net.cpp:122] Setting up conv2_1/dwise/scale
I0726 19:52:38.992319  2103 net.cpp:129] Top shape: 32 32 112 112 (12845056)
I0726 19:52:38.992331  2103 net.cpp:137] Memory required for data: 584463104
I0726 19:52:38.992337  2103 layer_factory.hpp:77] Creating layer relu2_1/dwise
I0726 19:52:38.992343  2103 net.cpp:84] Creating Layer relu2_1/dwise
I0726 19:52:38.992347  2103 net.cpp:406] relu2_1/dwise <- conv2_1/dwise/bn
I0726 19:52:38.992350  2103 net.cpp:367] relu2_1/dwise -> conv2_1/dwise/bn (in-place)
I0726 19:52:38.992904  2103 net.cpp:122] Setting up relu2_1/dwise
I0726 19:52:38.992916  2103 net.cpp:129] Top shape: 32 32 112 112 (12845056)
I0726 19:52:38.992918  2103 net.cpp:137] Memory required for data: 635843328
I0726 19:52:38.992921  2103 layer_factory.hpp:77] Creating layer conv2_1/linear
I0726 19:52:38.992930  2103 net.cpp:84] Creating Layer conv2_1/linear
I0726 19:52:38.992934  2103 net.cpp:406] conv2_1/linear <- conv2_1/dwise/bn
I0726 19:52:38.992940  2103 net.cpp:380] conv2_1/linear -> conv2_1/linear
I0726 19:52:38.994518  2103 net.cpp:122] Setting up conv2_1/linear
I0726 19:52:38.994530  2103 net.cpp:129] Top shape: 32 16 112 112 (6422528)
I0726 19:52:38.994542  2103 net.cpp:137] Memory required for data: 661533440
I0726 19:52:38.994547  2103 layer_factory.hpp:77] Creating layer conv2_1/linear/bn
I0726 19:52:38.994556  2103 net.cpp:84] Creating Layer conv2_1/linear/bn
I0726 19:52:38.994560  2103 net.cpp:406] conv2_1/linear/bn <- conv2_1/linear
I0726 19:52:38.994565  2103 net.cpp:380] conv2_1/linear/bn -> conv2_1/linear/bn
I0726 19:52:38.994834  2103 net.cpp:122] Setting up conv2_1/linear/bn
I0726 19:52:38.994841  2103 net.cpp:129] Top shape: 32 16 112 112 (6422528)
I0726 19:52:38.994844  2103 net.cpp:137] Memory required for data: 687223552
I0726 19:52:38.994849  2103 layer_factory.hpp:77] Creating layer conv2_1/linear/scale
I0726 19:52:38.994858  2103 net.cpp:84] Creating Layer conv2_1/linear/scale
I0726 19:52:38.994861  2103 net.cpp:406] conv2_1/linear/scale <- conv2_1/linear/bn
I0726 19:52:38.994866  2103 net.cpp:367] conv2_1/linear/scale -> conv2_1/linear/bn (in-place)
I0726 19:52:38.994904  2103 layer_factory.hpp:77] Creating layer conv2_1/linear/scale
I0726 19:52:38.995014  2103 net.cpp:122] Setting up conv2_1/linear/scale
I0726 19:52:38.995021  2103 net.cpp:129] Top shape: 32 16 112 112 (6422528)
I0726 19:52:38.995024  2103 net.cpp:137] Memory required for data: 712913664
I0726 19:52:38.995028  2103 layer_factory.hpp:77] Creating layer conv2_2/expand
I0726 19:52:38.995036  2103 net.cpp:84] Creating Layer conv2_2/expand
I0726 19:52:38.995038  2103 net.cpp:406] conv2_2/expand <- conv2_1/linear/bn
I0726 19:52:38.995044  2103 net.cpp:380] conv2_2/expand -> conv2_2/expand
I0726 19:52:38.996613  2103 net.cpp:122] Setting up conv2_2/expand
I0726 19:52:38.996626  2103 net.cpp:129] Top shape: 32 96 112 112 (38535168)
I0726 19:52:38.996629  2103 net.cpp:137] Memory required for data: 867054336
I0726 19:52:38.996634  2103 layer_factory.hpp:77] Creating layer conv2_2/expand/bn
I0726 19:52:38.996640  2103 net.cpp:84] Creating Layer conv2_2/expand/bn
I0726 19:52:38.996644  2103 net.cpp:406] conv2_2/expand/bn <- conv2_2/expand
I0726 19:52:38.996649  2103 net.cpp:380] conv2_2/expand/bn -> conv2_2/expand/bn
I0726 19:52:38.996847  2103 net.cpp:122] Setting up conv2_2/expand/bn
I0726 19:52:38.996855  2103 net.cpp:129] Top shape: 32 96 112 112 (38535168)
I0726 19:52:38.996856  2103 net.cpp:137] Memory required for data: 1021195008
I0726 19:52:38.996862  2103 layer_factory.hpp:77] Creating layer conv2_2/expand/scale
I0726 19:52:38.996870  2103 net.cpp:84] Creating Layer conv2_2/expand/scale
I0726 19:52:38.996893  2103 net.cpp:406] conv2_2/expand/scale <- conv2_2/expand/bn
I0726 19:52:38.996901  2103 net.cpp:367] conv2_2/expand/scale -> conv2_2/expand/bn (in-place)
I0726 19:52:38.996942  2103 layer_factory.hpp:77] Creating layer conv2_2/expand/scale
I0726 19:52:38.997053  2103 net.cpp:122] Setting up conv2_2/expand/scale
I0726 19:52:38.997061  2103 net.cpp:129] Top shape: 32 96 112 112 (38535168)
I0726 19:52:38.997062  2103 net.cpp:137] Memory required for data: 1175335680
I0726 19:52:38.997067  2103 layer_factory.hpp:77] Creating layer relu2_2/expand
I0726 19:52:38.997073  2103 net.cpp:84] Creating Layer relu2_2/expand
I0726 19:52:38.997076  2103 net.cpp:406] relu2_2/expand <- conv2_2/expand/bn
I0726 19:52:38.997081  2103 net.cpp:367] relu2_2/expand -> conv2_2/expand/bn (in-place)
I0726 19:52:38.997467  2103 net.cpp:122] Setting up relu2_2/expand
I0726 19:52:38.997478  2103 net.cpp:129] Top shape: 32 96 112 112 (38535168)
I0726 19:52:38.997479  2103 net.cpp:137] Memory required for data: 1329476352
I0726 19:52:38.997483  2103 layer_factory.hpp:77] Creating layer conv2_2/dwise
I0726 19:52:38.997489  2103 net.cpp:84] Creating Layer conv2_2/dwise
I0726 19:52:38.997493  2103 net.cpp:406] conv2_2/dwise <- conv2_2/expand/bn
I0726 19:52:38.997498  2103 net.cpp:380] conv2_2/dwise -> conv2_2/dwise
I0726 19:52:38.997684  2103 net.cpp:122] Setting up conv2_2/dwise
I0726 19:52:38.997690  2103 net.cpp:129] Top shape: 32 96 56 56 (9633792)
I0726 19:52:38.997692  2103 net.cpp:137] Memory required for data: 1368011520
I0726 19:52:38.997696  2103 layer_factory.hpp:77] Creating layer conv2_2/dwise/bn
I0726 19:52:38.997701  2103 net.cpp:84] Creating Layer conv2_2/dwise/bn
I0726 19:52:38.997704  2103 net.cpp:406] conv2_2/dwise/bn <- conv2_2/dwise
I0726 19:52:38.997709  2103 net.cpp:380] conv2_2/dwise/bn -> conv2_2/dwise/bn
I0726 19:52:38.997897  2103 net.cpp:122] Setting up conv2_2/dwise/bn
I0726 19:52:38.997920  2103 net.cpp:129] Top shape: 32 96 56 56 (9633792)
I0726 19:52:38.997925  2103 net.cpp:137] Memory required for data: 1406546688
I0726 19:52:38.997934  2103 layer_factory.hpp:77] Creating layer conv2_2/dwise/scale
I0726 19:52:38.997941  2103 net.cpp:84] Creating Layer conv2_2/dwise/scale
I0726 19:52:38.997944  2103 net.cpp:406] conv2_2/dwise/scale <- conv2_2/dwise/bn
I0726 19:52:38.997949  2103 net.cpp:367] conv2_2/dwise/scale -> conv2_2/dwise/bn (in-place)
I0726 19:52:38.997987  2103 layer_factory.hpp:77] Creating layer conv2_2/dwise/scale
I0726 19:52:38.998102  2103 net.cpp:122] Setting up conv2_2/dwise/scale
I0726 19:52:38.998109  2103 net.cpp:129] Top shape: 32 96 56 56 (9633792)
I0726 19:52:38.998111  2103 net.cpp:137] Memory required for data: 1445081856
I0726 19:52:38.998116  2103 layer_factory.hpp:77] Creating layer relu2_2/dwise
I0726 19:52:38.998121  2103 net.cpp:84] Creating Layer relu2_2/dwise
I0726 19:52:38.998122  2103 net.cpp:406] relu2_2/dwise <- conv2_2/dwise/bn
I0726 19:52:38.998126  2103 net.cpp:367] relu2_2/dwise -> conv2_2/dwise/bn (in-place)
I0726 19:52:38.998507  2103 net.cpp:122] Setting up relu2_2/dwise
I0726 19:52:38.998515  2103 net.cpp:129] Top shape: 32 96 56 56 (9633792)
I0726 19:52:38.998518  2103 net.cpp:137] Memory required for data: 1483617024
I0726 19:52:38.998522  2103 layer_factory.hpp:77] Creating layer conv2_2/linear
I0726 19:52:38.998529  2103 net.cpp:84] Creating Layer conv2_2/linear
I0726 19:52:38.998533  2103 net.cpp:406] conv2_2/linear <- conv2_2/dwise/bn
I0726 19:52:38.998538  2103 net.cpp:380] conv2_2/linear -> conv2_2/linear
I0726 19:52:39.000244  2103 net.cpp:122] Setting up conv2_2/linear
I0726 19:52:39.000262  2103 net.cpp:129] Top shape: 32 24 56 56 (2408448)
I0726 19:52:39.000265  2103 net.cpp:137] Memory required for data: 1493250816
I0726 19:52:39.000272  2103 layer_factory.hpp:77] Creating layer conv2_2/linear/bn
I0726 19:52:39.000280  2103 net.cpp:84] Creating Layer conv2_2/linear/bn
I0726 19:52:39.000284  2103 net.cpp:406] conv2_2/linear/bn <- conv2_2/linear
I0726 19:52:39.000290  2103 net.cpp:380] conv2_2/linear/bn -> conv2_2/linear/bn
I0726 19:52:39.000494  2103 net.cpp:122] Setting up conv2_2/linear/bn
I0726 19:52:39.000500  2103 net.cpp:129] Top shape: 32 24 56 56 (2408448)
I0726 19:52:39.000504  2103 net.cpp:137] Memory required for data: 1502884608
I0726 19:52:39.000509  2103 layer_factory.hpp:77] Creating layer conv2_2/linear/scale
I0726 19:52:39.000515  2103 net.cpp:84] Creating Layer conv2_2/linear/scale
I0726 19:52:39.000519  2103 net.cpp:406] conv2_2/linear/scale <- conv2_2/linear/bn
I0726 19:52:39.000524  2103 net.cpp:367] conv2_2/linear/scale -> conv2_2/linear/bn (in-place)
I0726 19:52:39.000562  2103 layer_factory.hpp:77] Creating layer conv2_2/linear/scale
I0726 19:52:39.000677  2103 net.cpp:122] Setting up conv2_2/linear/scale
I0726 19:52:39.000684  2103 net.cpp:129] Top shape: 32 24 56 56 (2408448)
I0726 19:52:39.000686  2103 net.cpp:137] Memory required for data: 1512518400
I0726 19:52:39.000691  2103 layer_factory.hpp:77] Creating layer conv2_2/linear/bn_conv2_2/linear/scale_0_split
I0726 19:52:39.000696  2103 net.cpp:84] Creating Layer conv2_2/linear/bn_conv2_2/linear/scale_0_split
I0726 19:52:39.000699  2103 net.cpp:406] conv2_2/linear/bn_conv2_2/linear/scale_0_split <- conv2_2/linear/bn
I0726 19:52:39.000705  2103 net.cpp:380] conv2_2/linear/bn_conv2_2/linear/scale_0_split -> conv2_2/linear/bn_conv2_2/linear/scale_0_split_0
I0726 19:52:39.000713  2103 net.cpp:380] conv2_2/linear/bn_conv2_2/linear/scale_0_split -> conv2_2/linear/bn_conv2_2/linear/scale_0_split_1
I0726 19:52:39.000747  2103 net.cpp:122] Setting up conv2_2/linear/bn_conv2_2/linear/scale_0_split
I0726 19:52:39.000754  2103 net.cpp:129] Top shape: 32 24 56 56 (2408448)
I0726 19:52:39.000757  2103 net.cpp:129] Top shape: 32 24 56 56 (2408448)
I0726 19:52:39.000759  2103 net.cpp:137] Memory required for data: 1531785984
I0726 19:52:39.000762  2103 layer_factory.hpp:77] Creating layer conv3_1/expand
I0726 19:52:39.000769  2103 net.cpp:84] Creating Layer conv3_1/expand
I0726 19:52:39.000772  2103 net.cpp:406] conv3_1/expand <- conv2_2/linear/bn_conv2_2/linear/scale_0_split_0
I0726 19:52:39.000777  2103 net.cpp:380] conv3_1/expand -> conv3_1/expand
I0726 19:52:39.002413  2103 net.cpp:122] Setting up conv3_1/expand
I0726 19:52:39.002429  2103 net.cpp:129] Top shape: 32 144 56 56 (14450688)
I0726 19:52:39.002432  2103 net.cpp:137] Memory required for data: 1589588736
I0726 19:52:39.002437  2103 layer_factory.hpp:77] Creating layer conv3_1/expand/bn
I0726 19:52:39.002446  2103 net.cpp:84] Creating Layer conv3_1/expand/bn
I0726 19:52:39.002449  2103 net.cpp:406] conv3_1/expand/bn <- conv3_1/expand
I0726 19:52:39.002454  2103 net.cpp:380] conv3_1/expand/bn -> conv3_1/expand/bn
I0726 19:52:39.002676  2103 net.cpp:122] Setting up conv3_1/expand/bn
I0726 19:52:39.002682  2103 net.cpp:129] Top shape: 32 144 56 56 (14450688)
I0726 19:52:39.002686  2103 net.cpp:137] Memory required for data: 1647391488
I0726 19:52:39.002691  2103 layer_factory.hpp:77] Creating layer conv3_1/expand/scale
I0726 19:52:39.002697  2103 net.cpp:84] Creating Layer conv3_1/expand/scale
I0726 19:52:39.002701  2103 net.cpp:406] conv3_1/expand/scale <- conv3_1/expand/bn
I0726 19:52:39.002705  2103 net.cpp:367] conv3_1/expand/scale -> conv3_1/expand/bn (in-place)
I0726 19:52:39.002748  2103 layer_factory.hpp:77] Creating layer conv3_1/expand/scale
I0726 19:52:39.002862  2103 net.cpp:122] Setting up conv3_1/expand/scale
I0726 19:52:39.002871  2103 net.cpp:129] Top shape: 32 144 56 56 (14450688)
I0726 19:52:39.002873  2103 net.cpp:137] Memory required for data: 1705194240
I0726 19:52:39.002877  2103 layer_factory.hpp:77] Creating layer relu3_1/expand
I0726 19:52:39.002889  2103 net.cpp:84] Creating Layer relu3_1/expand
I0726 19:52:39.002894  2103 net.cpp:406] relu3_1/expand <- conv3_1/expand/bn
I0726 19:52:39.002897  2103 net.cpp:367] relu3_1/expand -> conv3_1/expand/bn (in-place)
I0726 19:52:39.003499  2103 net.cpp:122] Setting up relu3_1/expand
I0726 19:52:39.003510  2103 net.cpp:129] Top shape: 32 144 56 56 (14450688)
I0726 19:52:39.003513  2103 net.cpp:137] Memory required for data: 1762996992
I0726 19:52:39.003516  2103 layer_factory.hpp:77] Creating layer conv3_1/dwise
I0726 19:52:39.003525  2103 net.cpp:84] Creating Layer conv3_1/dwise
I0726 19:52:39.003530  2103 net.cpp:406] conv3_1/dwise <- conv3_1/expand/bn
I0726 19:52:39.003535  2103 net.cpp:380] conv3_1/dwise -> conv3_1/dwise
I0726 19:52:39.003741  2103 net.cpp:122] Setting up conv3_1/dwise
I0726 19:52:39.003748  2103 net.cpp:129] Top shape: 32 144 56 56 (14450688)
I0726 19:52:39.003751  2103 net.cpp:137] Memory required for data: 1820799744
I0726 19:52:39.003756  2103 layer_factory.hpp:77] Creating layer conv3_1/dwise/bn
I0726 19:52:39.003762  2103 net.cpp:84] Creating Layer conv3_1/dwise/bn
I0726 19:52:39.003764  2103 net.cpp:406] conv3_1/dwise/bn <- conv3_1/dwise
I0726 19:52:39.003768  2103 net.cpp:380] conv3_1/dwise/bn -> conv3_1/dwise/bn
I0726 19:52:39.003962  2103 net.cpp:122] Setting up conv3_1/dwise/bn
I0726 19:52:39.003968  2103 net.cpp:129] Top shape: 32 144 56 56 (14450688)
I0726 19:52:39.003971  2103 net.cpp:137] Memory required for data: 1878602496
I0726 19:52:39.003978  2103 layer_factory.hpp:77] Creating layer conv3_1/dwise/scale
I0726 19:52:39.003981  2103 net.cpp:84] Creating Layer conv3_1/dwise/scale
I0726 19:52:39.003984  2103 net.cpp:406] conv3_1/dwise/scale <- conv3_1/dwise/bn
I0726 19:52:39.003989  2103 net.cpp:367] conv3_1/dwise/scale -> conv3_1/dwise/bn (in-place)
I0726 19:52:39.004030  2103 layer_factory.hpp:77] Creating layer conv3_1/dwise/scale
I0726 19:52:39.004145  2103 net.cpp:122] Setting up conv3_1/dwise/scale
I0726 19:52:39.004153  2103 net.cpp:129] Top shape: 32 144 56 56 (14450688)
I0726 19:52:39.004154  2103 net.cpp:137] Memory required for data: 1936405248
I0726 19:52:39.004159  2103 layer_factory.hpp:77] Creating layer relu3_1/dwise
I0726 19:52:39.004164  2103 net.cpp:84] Creating Layer relu3_1/dwise
I0726 19:52:39.004168  2103 net.cpp:406] relu3_1/dwise <- conv3_1/dwise/bn
I0726 19:52:39.004173  2103 net.cpp:367] relu3_1/dwise -> conv3_1/dwise/bn (in-place)
I0726 19:52:39.004566  2103 net.cpp:122] Setting up relu3_1/dwise
I0726 19:52:39.004576  2103 net.cpp:129] Top shape: 32 144 56 56 (14450688)
I0726 19:52:39.004578  2103 net.cpp:137] Memory required for data: 1994208000
I0726 19:52:39.004581  2103 layer_factory.hpp:77] Creating layer conv3_1/linear
I0726 19:52:39.004590  2103 net.cpp:84] Creating Layer conv3_1/linear
I0726 19:52:39.004609  2103 net.cpp:406] conv3_1/linear <- conv3_1/dwise/bn
I0726 19:52:39.004619  2103 net.cpp:380] conv3_1/linear -> conv3_1/linear
I0726 19:52:39.006265  2103 net.cpp:122] Setting up conv3_1/linear
I0726 19:52:39.006278  2103 net.cpp:129] Top shape: 32 24 56 56 (2408448)
I0726 19:52:39.006281  2103 net.cpp:137] Memory required for data: 2003841792
I0726 19:52:39.006286  2103 layer_factory.hpp:77] Creating layer conv3_1/linear/bn
I0726 19:52:39.006294  2103 net.cpp:84] Creating Layer conv3_1/linear/bn
I0726 19:52:39.006296  2103 net.cpp:406] conv3_1/linear/bn <- conv3_1/linear
I0726 19:52:39.006304  2103 net.cpp:380] conv3_1/linear/bn -> conv3_1/linear/bn
I0726 19:52:39.006503  2103 net.cpp:122] Setting up conv3_1/linear/bn
I0726 19:52:39.006510  2103 net.cpp:129] Top shape: 32 24 56 56 (2408448)
I0726 19:52:39.006513  2103 net.cpp:137] Memory required for data: 2013475584
I0726 19:52:39.006520  2103 layer_factory.hpp:77] Creating layer conv3_1/linear/scale
I0726 19:52:39.006525  2103 net.cpp:84] Creating Layer conv3_1/linear/scale
I0726 19:52:39.006527  2103 net.cpp:406] conv3_1/linear/scale <- conv3_1/linear/bn
I0726 19:52:39.006531  2103 net.cpp:367] conv3_1/linear/scale -> conv3_1/linear/bn (in-place)
I0726 19:52:39.006569  2103 layer_factory.hpp:77] Creating layer conv3_1/linear/scale
I0726 19:52:39.006683  2103 net.cpp:122] Setting up conv3_1/linear/scale
I0726 19:52:39.006691  2103 net.cpp:129] Top shape: 32 24 56 56 (2408448)
I0726 19:52:39.006693  2103 net.cpp:137] Memory required for data: 2023109376
I0726 19:52:39.006698  2103 layer_factory.hpp:77] Creating layer block_3_1
I0726 19:52:39.006703  2103 net.cpp:84] Creating Layer block_3_1
I0726 19:52:39.006706  2103 net.cpp:406] block_3_1 <- conv2_2/linear/bn_conv2_2/linear/scale_0_split_1
I0726 19:52:39.006709  2103 net.cpp:406] block_3_1 <- conv3_1/linear/bn
I0726 19:52:39.006713  2103 net.cpp:380] block_3_1 -> block_3_1
I0726 19:52:39.006736  2103 net.cpp:122] Setting up block_3_1
I0726 19:52:39.006741  2103 net.cpp:129] Top shape: 32 24 56 56 (2408448)
I0726 19:52:39.006743  2103 net.cpp:137] Memory required for data: 2032743168
I0726 19:52:39.006745  2103 layer_factory.hpp:77] Creating layer conv3_2/expand
I0726 19:52:39.006752  2103 net.cpp:84] Creating Layer conv3_2/expand
I0726 19:52:39.006754  2103 net.cpp:406] conv3_2/expand <- block_3_1
I0726 19:52:39.006759  2103 net.cpp:380] conv3_2/expand -> conv3_2/expand
I0726 19:52:39.008374  2103 net.cpp:122] Setting up conv3_2/expand
I0726 19:52:39.008386  2103 net.cpp:129] Top shape: 32 144 56 56 (14450688)
I0726 19:52:39.008389  2103 net.cpp:137] Memory required for data: 2090545920
I0726 19:52:39.008394  2103 layer_factory.hpp:77] Creating layer conv3_2/expand/bn
I0726 19:52:39.008402  2103 net.cpp:84] Creating Layer conv3_2/expand/bn
I0726 19:52:39.008405  2103 net.cpp:406] conv3_2/expand/bn <- conv3_2/expand
I0726 19:52:39.008412  2103 net.cpp:380] conv3_2/expand/bn -> conv3_2/expand/bn
I0726 19:52:39.008637  2103 net.cpp:122] Setting up conv3_2/expand/bn
I0726 19:52:39.008643  2103 net.cpp:129] Top shape: 32 144 56 56 (14450688)
I0726 19:52:39.008646  2103 net.cpp:137] Memory required for data: 2148348672
I0726 19:52:39.008651  2103 layer_factory.hpp:77] Creating layer conv3_2/expand/scale
I0726 19:52:39.008666  2103 net.cpp:84] Creating Layer conv3_2/expand/scale
I0726 19:52:39.008669  2103 net.cpp:406] conv3_2/expand/scale <- conv3_2/expand/bn
I0726 19:52:39.008674  2103 net.cpp:367] conv3_2/expand/scale -> conv3_2/expand/bn (in-place)
I0726 19:52:39.008729  2103 layer_factory.hpp:77] Creating layer conv3_2/expand/scale
I0726 19:52:39.008869  2103 net.cpp:122] Setting up conv3_2/expand/scale
I0726 19:52:39.008877  2103 net.cpp:129] Top shape: 32 144 56 56 (14450688)
I0726 19:52:39.008888  2103 net.cpp:137] Memory required for data: 2206151424
I0726 19:52:39.008901  2103 layer_factory.hpp:77] Creating layer relu3_2/expand
I0726 19:52:39.008906  2103 net.cpp:84] Creating Layer relu3_2/expand
I0726 19:52:39.008909  2103 net.cpp:406] relu3_2/expand <- conv3_2/expand/bn
I0726 19:52:39.008913  2103 net.cpp:367] relu3_2/expand -> conv3_2/expand/bn (in-place)
I0726 19:52:39.009316  2103 net.cpp:122] Setting up relu3_2/expand
I0726 19:52:39.009327  2103 net.cpp:129] Top shape: 32 144 56 56 (14450688)
I0726 19:52:39.009330  2103 net.cpp:137] Memory required for data: 2263954176
I0726 19:52:39.009333  2103 layer_factory.hpp:77] Creating layer conv3_2/dwise
I0726 19:52:39.009341  2103 net.cpp:84] Creating Layer conv3_2/dwise
I0726 19:52:39.009343  2103 net.cpp:406] conv3_2/dwise <- conv3_2/expand/bn
I0726 19:52:39.009348  2103 net.cpp:380] conv3_2/dwise -> conv3_2/dwise
I0726 19:52:39.009549  2103 net.cpp:122] Setting up conv3_2/dwise
I0726 19:52:39.009557  2103 net.cpp:129] Top shape: 32 144 28 28 (3612672)
I0726 19:52:39.009559  2103 net.cpp:137] Memory required for data: 2278404864
I0726 19:52:39.009563  2103 layer_factory.hpp:77] Creating layer conv3_2/dwise/bn
I0726 19:52:39.009569  2103 net.cpp:84] Creating Layer conv3_2/dwise/bn
I0726 19:52:39.009572  2103 net.cpp:406] conv3_2/dwise/bn <- conv3_2/dwise
I0726 19:52:39.009577  2103 net.cpp:380] conv3_2/dwise/bn -> conv3_2/dwise/bn
I0726 19:52:39.009778  2103 net.cpp:122] Setting up conv3_2/dwise/bn
I0726 19:52:39.009783  2103 net.cpp:129] Top shape: 32 144 28 28 (3612672)
I0726 19:52:39.009786  2103 net.cpp:137] Memory required for data: 2292855552
I0726 19:52:39.009791  2103 layer_factory.hpp:77] Creating layer conv3_2/dwise/scale
I0726 19:52:39.009796  2103 net.cpp:84] Creating Layer conv3_2/dwise/scale
I0726 19:52:39.009799  2103 net.cpp:406] conv3_2/dwise/scale <- conv3_2/dwise/bn
I0726 19:52:39.009804  2103 net.cpp:367] conv3_2/dwise/scale -> conv3_2/dwise/bn (in-place)
I0726 19:52:39.009840  2103 layer_factory.hpp:77] Creating layer conv3_2/dwise/scale
I0726 19:52:39.009954  2103 net.cpp:122] Setting up conv3_2/dwise/scale
I0726 19:52:39.009961  2103 net.cpp:129] Top shape: 32 144 28 28 (3612672)
I0726 19:52:39.009963  2103 net.cpp:137] Memory required for data: 2307306240
I0726 19:52:39.009968  2103 layer_factory.hpp:77] Creating layer relu3_2/dwise
I0726 19:52:39.009974  2103 net.cpp:84] Creating Layer relu3_2/dwise
I0726 19:52:39.009976  2103 net.cpp:406] relu3_2/dwise <- conv3_2/dwise/bn
I0726 19:52:39.009979  2103 net.cpp:367] relu3_2/dwise -> conv3_2/dwise/bn (in-place)
I0726 19:52:39.010371  2103 net.cpp:122] Setting up relu3_2/dwise
I0726 19:52:39.010381  2103 net.cpp:129] Top shape: 32 144 28 28 (3612672)
I0726 19:52:39.010383  2103 net.cpp:137] Memory required for data: 2321756928
I0726 19:52:39.010386  2103 layer_factory.hpp:77] Creating layer conv3_2/linear
I0726 19:52:39.010394  2103 net.cpp:84] Creating Layer conv3_2/linear
I0726 19:52:39.010398  2103 net.cpp:406] conv3_2/linear <- conv3_2/dwise/bn
I0726 19:52:39.010404  2103 net.cpp:380] conv3_2/linear -> conv3_2/linear
I0726 19:52:39.012051  2103 net.cpp:122] Setting up conv3_2/linear
I0726 19:52:39.012063  2103 net.cpp:129] Top shape: 32 32 28 28 (802816)
I0726 19:52:39.012066  2103 net.cpp:137] Memory required for data: 2324968192
I0726 19:52:39.012080  2103 layer_factory.hpp:77] Creating layer conv3_2/linear/bn
I0726 19:52:39.012089  2103 net.cpp:84] Creating Layer conv3_2/linear/bn
I0726 19:52:39.012091  2103 net.cpp:406] conv3_2/linear/bn <- conv3_2/linear
I0726 19:52:39.012096  2103 net.cpp:380] conv3_2/linear/bn -> conv3_2/linear/bn
I0726 19:52:39.012311  2103 net.cpp:122] Setting up conv3_2/linear/bn
I0726 19:52:39.012318  2103 net.cpp:129] Top shape: 32 32 28 28 (802816)
I0726 19:52:39.012331  2103 net.cpp:137] Memory required for data: 2328179456
I0726 19:52:39.012336  2103 layer_factory.hpp:77] Creating layer conv3_2/linear/scale
I0726 19:52:39.012343  2103 net.cpp:84] Creating Layer conv3_2/linear/scale
I0726 19:52:39.012346  2103 net.cpp:406] conv3_2/linear/scale <- conv3_2/linear/bn
I0726 19:52:39.012351  2103 net.cpp:367] conv3_2/linear/scale -> conv3_2/linear/bn (in-place)
I0726 19:52:39.012408  2103 layer_factory.hpp:77] Creating layer conv3_2/linear/scale
I0726 19:52:39.012550  2103 net.cpp:122] Setting up conv3_2/linear/scale
I0726 19:52:39.012567  2103 net.cpp:129] Top shape: 32 32 28 28 (802816)
I0726 19:52:39.012568  2103 net.cpp:137] Memory required for data: 2331390720
I0726 19:52:39.012573  2103 layer_factory.hpp:77] Creating layer conv3_2/linear/bn_conv3_2/linear/scale_0_split
I0726 19:52:39.012578  2103 net.cpp:84] Creating Layer conv3_2/linear/bn_conv3_2/linear/scale_0_split
I0726 19:52:39.012583  2103 net.cpp:406] conv3_2/linear/bn_conv3_2/linear/scale_0_split <- conv3_2/linear/bn
I0726 19:52:39.012586  2103 net.cpp:380] conv3_2/linear/bn_conv3_2/linear/scale_0_split -> conv3_2/linear/bn_conv3_2/linear/scale_0_split_0
I0726 19:52:39.012593  2103 net.cpp:380] conv3_2/linear/bn_conv3_2/linear/scale_0_split -> conv3_2/linear/bn_conv3_2/linear/scale_0_split_1
I0726 19:52:39.012631  2103 net.cpp:122] Setting up conv3_2/linear/bn_conv3_2/linear/scale_0_split
I0726 19:52:39.012637  2103 net.cpp:129] Top shape: 32 32 28 28 (802816)
I0726 19:52:39.012641  2103 net.cpp:129] Top shape: 32 32 28 28 (802816)
I0726 19:52:39.012645  2103 net.cpp:137] Memory required for data: 2337813248
I0726 19:52:39.012646  2103 layer_factory.hpp:77] Creating layer conv4_1/expand
I0726 19:52:39.012652  2103 net.cpp:84] Creating Layer conv4_1/expand
I0726 19:52:39.012655  2103 net.cpp:406] conv4_1/expand <- conv3_2/linear/bn_conv3_2/linear/scale_0_split_0
I0726 19:52:39.012660  2103 net.cpp:380] conv4_1/expand -> conv4_1/expand
I0726 19:52:39.014338  2103 net.cpp:122] Setting up conv4_1/expand
I0726 19:52:39.014350  2103 net.cpp:129] Top shape: 32 192 28 28 (4816896)
I0726 19:52:39.014353  2103 net.cpp:137] Memory required for data: 2357080832
I0726 19:52:39.014358  2103 layer_factory.hpp:77] Creating layer conv4_1/expand/bn
I0726 19:52:39.014367  2103 net.cpp:84] Creating Layer conv4_1/expand/bn
I0726 19:52:39.014370  2103 net.cpp:406] conv4_1/expand/bn <- conv4_1/expand
I0726 19:52:39.014375  2103 net.cpp:380] conv4_1/expand/bn -> conv4_1/expand/bn
I0726 19:52:39.014611  2103 net.cpp:122] Setting up conv4_1/expand/bn
I0726 19:52:39.014627  2103 net.cpp:129] Top shape: 32 192 28 28 (4816896)
I0726 19:52:39.014631  2103 net.cpp:137] Memory required for data: 2376348416
I0726 19:52:39.014636  2103 layer_factory.hpp:77] Creating layer conv4_1/expand/scale
I0726 19:52:39.014642  2103 net.cpp:84] Creating Layer conv4_1/expand/scale
I0726 19:52:39.014645  2103 net.cpp:406] conv4_1/expand/scale <- conv4_1/expand/bn
I0726 19:52:39.014652  2103 net.cpp:367] conv4_1/expand/scale -> conv4_1/expand/bn (in-place)
I0726 19:52:39.014689  2103 layer_factory.hpp:77] Creating layer conv4_1/expand/scale
I0726 19:52:39.014823  2103 net.cpp:122] Setting up conv4_1/expand/scale
I0726 19:52:39.014830  2103 net.cpp:129] Top shape: 32 192 28 28 (4816896)
I0726 19:52:39.014832  2103 net.cpp:137] Memory required for data: 2395616000
I0726 19:52:39.014837  2103 layer_factory.hpp:77] Creating layer relu4_1/expand
I0726 19:52:39.014842  2103 net.cpp:84] Creating Layer relu4_1/expand
I0726 19:52:39.014847  2103 net.cpp:406] relu4_1/expand <- conv4_1/expand/bn
I0726 19:52:39.014850  2103 net.cpp:367] relu4_1/expand -> conv4_1/expand/bn (in-place)
I0726 19:52:39.015430  2103 net.cpp:122] Setting up relu4_1/expand
I0726 19:52:39.015442  2103 net.cpp:129] Top shape: 32 192 28 28 (4816896)
I0726 19:52:39.015445  2103 net.cpp:137] Memory required for data: 2414883584
I0726 19:52:39.015449  2103 layer_factory.hpp:77] Creating layer conv4_1/dwise
I0726 19:52:39.015456  2103 net.cpp:84] Creating Layer conv4_1/dwise
I0726 19:52:39.015460  2103 net.cpp:406] conv4_1/dwise <- conv4_1/expand/bn
I0726 19:52:39.015466  2103 net.cpp:380] conv4_1/dwise -> conv4_1/dwise
I0726 19:52:39.015683  2103 net.cpp:122] Setting up conv4_1/dwise
I0726 19:52:39.015692  2103 net.cpp:129] Top shape: 32 192 28 28 (4816896)
I0726 19:52:39.015694  2103 net.cpp:137] Memory required for data: 2434151168
I0726 19:52:39.015698  2103 layer_factory.hpp:77] Creating layer conv4_1/dwise/bn
I0726 19:52:39.015704  2103 net.cpp:84] Creating Layer conv4_1/dwise/bn
I0726 19:52:39.015707  2103 net.cpp:406] conv4_1/dwise/bn <- conv4_1/dwise
I0726 19:52:39.015713  2103 net.cpp:380] conv4_1/dwise/bn -> conv4_1/dwise/bn
I0726 19:52:39.015911  2103 net.cpp:122] Setting up conv4_1/dwise/bn
I0726 19:52:39.015935  2103 net.cpp:129] Top shape: 32 192 28 28 (4816896)
I0726 19:52:39.015939  2103 net.cpp:137] Memory required for data: 2453418752
I0726 19:52:39.015946  2103 layer_factory.hpp:77] Creating layer conv4_1/dwise/scale
I0726 19:52:39.015951  2103 net.cpp:84] Creating Layer conv4_1/dwise/scale
I0726 19:52:39.015954  2103 net.cpp:406] conv4_1/dwise/scale <- conv4_1/dwise/bn
I0726 19:52:39.015959  2103 net.cpp:367] conv4_1/dwise/scale -> conv4_1/dwise/bn (in-place)
I0726 19:52:39.016002  2103 layer_factory.hpp:77] Creating layer conv4_1/dwise/scale
I0726 19:52:39.016134  2103 net.cpp:122] Setting up conv4_1/dwise/scale
I0726 19:52:39.016140  2103 net.cpp:129] Top shape: 32 192 28 28 (4816896)
I0726 19:52:39.016144  2103 net.cpp:137] Memory required for data: 2472686336
I0726 19:52:39.016149  2103 layer_factory.hpp:77] Creating layer relu4_1/dwise
I0726 19:52:39.016153  2103 net.cpp:84] Creating Layer relu4_1/dwise
I0726 19:52:39.016155  2103 net.cpp:406] relu4_1/dwise <- conv4_1/dwise/bn
I0726 19:52:39.016160  2103 net.cpp:367] relu4_1/dwise -> conv4_1/dwise/bn (in-place)
I0726 19:52:39.016578  2103 net.cpp:122] Setting up relu4_1/dwise
I0726 19:52:39.016588  2103 net.cpp:129] Top shape: 32 192 28 28 (4816896)
I0726 19:52:39.016592  2103 net.cpp:137] Memory required for data: 2491953920
I0726 19:52:39.016594  2103 layer_factory.hpp:77] Creating layer conv4_1/linear
I0726 19:52:39.016603  2103 net.cpp:84] Creating Layer conv4_1/linear
I0726 19:52:39.016607  2103 net.cpp:406] conv4_1/linear <- conv4_1/dwise/bn
I0726 19:52:39.016611  2103 net.cpp:380] conv4_1/linear -> conv4_1/linear
I0726 19:52:39.018499  2103 net.cpp:122] Setting up conv4_1/linear
I0726 19:52:39.018512  2103 net.cpp:129] Top shape: 32 32 28 28 (802816)
I0726 19:52:39.018515  2103 net.cpp:137] Memory required for data: 2495165184
I0726 19:52:39.018522  2103 layer_factory.hpp:77] Creating layer conv4_1/linear/bn
I0726 19:52:39.018530  2103 net.cpp:84] Creating Layer conv4_1/linear/bn
I0726 19:52:39.018533  2103 net.cpp:406] conv4_1/linear/bn <- conv4_1/linear
I0726 19:52:39.018539  2103 net.cpp:380] conv4_1/linear/bn -> conv4_1/linear/bn
I0726 19:52:39.018751  2103 net.cpp:122] Setting up conv4_1/linear/bn
I0726 19:52:39.018759  2103 net.cpp:129] Top shape: 32 32 28 28 (802816)
I0726 19:52:39.018761  2103 net.cpp:137] Memory required for data: 2498376448
I0726 19:52:39.018767  2103 layer_factory.hpp:77] Creating layer conv4_1/linear/scale
I0726 19:52:39.018774  2103 net.cpp:84] Creating Layer conv4_1/linear/scale
I0726 19:52:39.018776  2103 net.cpp:406] conv4_1/linear/scale <- conv4_1/linear/bn
I0726 19:52:39.018781  2103 net.cpp:367] conv4_1/linear/scale -> conv4_1/linear/bn (in-place)
I0726 19:52:39.018822  2103 layer_factory.hpp:77] Creating layer conv4_1/linear/scale
I0726 19:52:39.018936  2103 net.cpp:122] Setting up conv4_1/linear/scale
I0726 19:52:39.018944  2103 net.cpp:129] Top shape: 32 32 28 28 (802816)
I0726 19:52:39.018945  2103 net.cpp:137] Memory required for data: 2501587712
I0726 19:52:39.018950  2103 layer_factory.hpp:77] Creating layer block_4_1
I0726 19:52:39.018965  2103 net.cpp:84] Creating Layer block_4_1
I0726 19:52:39.018970  2103 net.cpp:406] block_4_1 <- conv3_2/linear/bn_conv3_2/linear/scale_0_split_1
I0726 19:52:39.018973  2103 net.cpp:406] block_4_1 <- conv4_1/linear/bn
I0726 19:52:39.018977  2103 net.cpp:380] block_4_1 -> block_4_1
I0726 19:52:39.019001  2103 net.cpp:122] Setting up block_4_1
I0726 19:52:39.019006  2103 net.cpp:129] Top shape: 32 32 28 28 (802816)
I0726 19:52:39.019008  2103 net.cpp:137] Memory required for data: 2504798976
I0726 19:52:39.019011  2103 layer_factory.hpp:77] Creating layer block_4_1_block_4_1_0_split
I0726 19:52:39.019016  2103 net.cpp:84] Creating Layer block_4_1_block_4_1_0_split
I0726 19:52:39.019018  2103 net.cpp:406] block_4_1_block_4_1_0_split <- block_4_1
I0726 19:52:39.019023  2103 net.cpp:380] block_4_1_block_4_1_0_split -> block_4_1_block_4_1_0_split_0
I0726 19:52:39.019028  2103 net.cpp:380] block_4_1_block_4_1_0_split -> block_4_1_block_4_1_0_split_1
I0726 19:52:39.019059  2103 net.cpp:122] Setting up block_4_1_block_4_1_0_split
I0726 19:52:39.019065  2103 net.cpp:129] Top shape: 32 32 28 28 (802816)
I0726 19:52:39.019068  2103 net.cpp:129] Top shape: 32 32 28 28 (802816)
I0726 19:52:39.019071  2103 net.cpp:137] Memory required for data: 2511221504
I0726 19:52:39.019073  2103 layer_factory.hpp:77] Creating layer conv4_2/expand
I0726 19:52:39.019083  2103 net.cpp:84] Creating Layer conv4_2/expand
I0726 19:52:39.019085  2103 net.cpp:406] conv4_2/expand <- block_4_1_block_4_1_0_split_0
I0726 19:52:39.019089  2103 net.cpp:380] conv4_2/expand -> conv4_2/expand
I0726 19:52:39.020808  2103 net.cpp:122] Setting up conv4_2/expand
I0726 19:52:39.020839  2103 net.cpp:129] Top shape: 32 192 28 28 (4816896)
I0726 19:52:39.020843  2103 net.cpp:137] Memory required for data: 2530489088
I0726 19:52:39.020848  2103 layer_factory.hpp:77] Creating layer conv4_2/expand/bn
I0726 19:52:39.020865  2103 net.cpp:84] Creating Layer conv4_2/expand/bn
I0726 19:52:39.020869  2103 net.cpp:406] conv4_2/expand/bn <- conv4_2/expand
I0726 19:52:39.020874  2103 net.cpp:380] conv4_2/expand/bn -> conv4_2/expand/bn
I0726 19:52:39.021090  2103 net.cpp:122] Setting up conv4_2/expand/bn
I0726 19:52:39.021096  2103 net.cpp:129] Top shape: 32 192 28 28 (4816896)
I0726 19:52:39.021108  2103 net.cpp:137] Memory required for data: 2549756672
I0726 19:52:39.021114  2103 layer_factory.hpp:77] Creating layer conv4_2/expand/scale
I0726 19:52:39.021121  2103 net.cpp:84] Creating Layer conv4_2/expand/scale
I0726 19:52:39.021124  2103 net.cpp:406] conv4_2/expand/scale <- conv4_2/expand/bn
I0726 19:52:39.021128  2103 net.cpp:367] conv4_2/expand/scale -> conv4_2/expand/bn (in-place)
I0726 19:52:39.021179  2103 layer_factory.hpp:77] Creating layer conv4_2/expand/scale
I0726 19:52:39.021315  2103 net.cpp:122] Setting up conv4_2/expand/scale
I0726 19:52:39.021322  2103 net.cpp:129] Top shape: 32 192 28 28 (4816896)
I0726 19:52:39.021334  2103 net.cpp:137] Memory required for data: 2569024256
I0726 19:52:39.021339  2103 layer_factory.hpp:77] Creating layer relu4_2/expand
I0726 19:52:39.021343  2103 net.cpp:84] Creating Layer relu4_2/expand
I0726 19:52:39.021347  2103 net.cpp:406] relu4_2/expand <- conv4_2/expand/bn
I0726 19:52:39.021350  2103 net.cpp:367] relu4_2/expand -> conv4_2/expand/bn (in-place)
I0726 19:52:39.021775  2103 net.cpp:122] Setting up relu4_2/expand
I0726 19:52:39.021795  2103 net.cpp:129] Top shape: 32 192 28 28 (4816896)
I0726 19:52:39.021797  2103 net.cpp:137] Memory required for data: 2588291840
I0726 19:52:39.021800  2103 layer_factory.hpp:77] Creating layer conv4_2/dwise
I0726 19:52:39.021806  2103 net.cpp:84] Creating Layer conv4_2/dwise
I0726 19:52:39.021809  2103 net.cpp:406] conv4_2/dwise <- conv4_2/expand/bn
I0726 19:52:39.021816  2103 net.cpp:380] conv4_2/dwise -> conv4_2/dwise
I0726 19:52:39.022032  2103 net.cpp:122] Setting up conv4_2/dwise
I0726 19:52:39.022038  2103 net.cpp:129] Top shape: 32 192 28 28 (4816896)
I0726 19:52:39.022042  2103 net.cpp:137] Memory required for data: 2607559424
I0726 19:52:39.022045  2103 layer_factory.hpp:77] Creating layer conv4_2/dwise/bn
I0726 19:52:39.022050  2103 net.cpp:84] Creating Layer conv4_2/dwise/bn
I0726 19:52:39.022053  2103 net.cpp:406] conv4_2/dwise/bn <- conv4_2/dwise
I0726 19:52:39.022058  2103 net.cpp:380] conv4_2/dwise/bn -> conv4_2/dwise/bn
I0726 19:52:39.022266  2103 net.cpp:122] Setting up conv4_2/dwise/bn
I0726 19:52:39.022274  2103 net.cpp:129] Top shape: 32 192 28 28 (4816896)
I0726 19:52:39.022275  2103 net.cpp:137] Memory required for data: 2626827008
I0726 19:52:39.022290  2103 layer_factory.hpp:77] Creating layer conv4_2/dwise/scale
I0726 19:52:39.022296  2103 net.cpp:84] Creating Layer conv4_2/dwise/scale
I0726 19:52:39.022300  2103 net.cpp:406] conv4_2/dwise/scale <- conv4_2/dwise/bn
I0726 19:52:39.022305  2103 net.cpp:367] conv4_2/dwise/scale -> conv4_2/dwise/bn (in-place)
I0726 19:52:39.022352  2103 layer_factory.hpp:77] Creating layer conv4_2/dwise/scale
I0726 19:52:39.022476  2103 net.cpp:122] Setting up conv4_2/dwise/scale
I0726 19:52:39.022483  2103 net.cpp:129] Top shape: 32 192 28 28 (4816896)
I0726 19:52:39.022485  2103 net.cpp:137] Memory required for data: 2646094592
I0726 19:52:39.022490  2103 layer_factory.hpp:77] Creating layer relu4_2/dwise
I0726 19:52:39.022495  2103 net.cpp:84] Creating Layer relu4_2/dwise
I0726 19:52:39.022497  2103 net.cpp:406] relu4_2/dwise <- conv4_2/dwise/bn
I0726 19:52:39.022502  2103 net.cpp:367] relu4_2/dwise -> conv4_2/dwise/bn (in-place)
I0726 19:52:39.023131  2103 net.cpp:122] Setting up relu4_2/dwise
I0726 19:52:39.023152  2103 net.cpp:129] Top shape: 32 192 28 28 (4816896)
I0726 19:52:39.023155  2103 net.cpp:137] Memory required for data: 2665362176
I0726 19:52:39.023159  2103 layer_factory.hpp:77] Creating layer conv4_2/linear
I0726 19:52:39.023169  2103 net.cpp:84] Creating Layer conv4_2/linear
I0726 19:52:39.023171  2103 net.cpp:406] conv4_2/linear <- conv4_2/dwise/bn
I0726 19:52:39.023177  2103 net.cpp:380] conv4_2/linear -> conv4_2/linear
I0726 19:52:39.025043  2103 net.cpp:122] Setting up conv4_2/linear
I0726 19:52:39.025055  2103 net.cpp:129] Top shape: 32 32 28 28 (802816)
I0726 19:52:39.025058  2103 net.cpp:137] Memory required for data: 2668573440
I0726 19:52:39.025064  2103 layer_factory.hpp:77] Creating layer conv4_2/linear/bn
I0726 19:52:39.025070  2103 net.cpp:84] Creating Layer conv4_2/linear/bn
I0726 19:52:39.025074  2103 net.cpp:406] conv4_2/linear/bn <- conv4_2/linear
I0726 19:52:39.025079  2103 net.cpp:380] conv4_2/linear/bn -> conv4_2/linear/bn
I0726 19:52:39.025348  2103 net.cpp:122] Setting up conv4_2/linear/bn
I0726 19:52:39.025357  2103 net.cpp:129] Top shape: 32 32 28 28 (802816)
I0726 19:52:39.025360  2103 net.cpp:137] Memory required for data: 2671784704
I0726 19:52:39.025367  2103 layer_factory.hpp:77] Creating layer conv4_2/linear/scale
I0726 19:52:39.025372  2103 net.cpp:84] Creating Layer conv4_2/linear/scale
I0726 19:52:39.025375  2103 net.cpp:406] conv4_2/linear/scale <- conv4_2/linear/bn
I0726 19:52:39.025379  2103 net.cpp:367] conv4_2/linear/scale -> conv4_2/linear/bn (in-place)
I0726 19:52:39.025419  2103 layer_factory.hpp:77] Creating layer conv4_2/linear/scale
I0726 19:52:39.025557  2103 net.cpp:122] Setting up conv4_2/linear/scale
I0726 19:52:39.025563  2103 net.cpp:129] Top shape: 32 32 28 28 (802816)
I0726 19:52:39.025565  2103 net.cpp:137] Memory required for data: 2674995968
I0726 19:52:39.025570  2103 layer_factory.hpp:77] Creating layer block_4_2
I0726 19:52:39.025576  2103 net.cpp:84] Creating Layer block_4_2
I0726 19:52:39.025579  2103 net.cpp:406] block_4_2 <- block_4_1_block_4_1_0_split_1
I0726 19:52:39.025583  2103 net.cpp:406] block_4_2 <- conv4_2/linear/bn
I0726 19:52:39.025588  2103 net.cpp:380] block_4_2 -> block_4_2
I0726 19:52:39.025609  2103 net.cpp:122] Setting up block_4_2
I0726 19:52:39.025616  2103 net.cpp:129] Top shape: 32 32 28 28 (802816)
I0726 19:52:39.025619  2103 net.cpp:137] Memory required for data: 2678207232
I0726 19:52:39.025622  2103 layer_factory.hpp:77] Creating layer conv4_3/expand
I0726 19:52:39.025629  2103 net.cpp:84] Creating Layer conv4_3/expand
I0726 19:52:39.025631  2103 net.cpp:406] conv4_3/expand <- block_4_2
I0726 19:52:39.025636  2103 net.cpp:380] conv4_3/expand -> conv4_3/expand
I0726 19:52:39.027282  2103 net.cpp:122] Setting up conv4_3/expand
I0726 19:52:39.027294  2103 net.cpp:129] Top shape: 32 192 28 28 (4816896)
I0726 19:52:39.027297  2103 net.cpp:137] Memory required for data: 2697474816
I0726 19:52:39.027302  2103 layer_factory.hpp:77] Creating layer conv4_3/expand/bn
I0726 19:52:39.027309  2103 net.cpp:84] Creating Layer conv4_3/expand/bn
I0726 19:52:39.027314  2103 net.cpp:406] conv4_3/expand/bn <- conv4_3/expand
I0726 19:52:39.027320  2103 net.cpp:380] conv4_3/expand/bn -> conv4_3/expand/bn
I0726 19:52:39.027568  2103 net.cpp:122] Setting up conv4_3/expand/bn
I0726 19:52:39.027593  2103 net.cpp:129] Top shape: 32 192 28 28 (4816896)
I0726 19:52:39.027606  2103 net.cpp:137] Memory required for data: 2716742400
I0726 19:52:39.027619  2103 layer_factory.hpp:77] Creating layer conv4_3/expand/scale
I0726 19:52:39.027633  2103 net.cpp:84] Creating Layer conv4_3/expand/scale
I0726 19:52:39.027644  2103 net.cpp:406] conv4_3/expand/scale <- conv4_3/expand/bn
I0726 19:52:39.027657  2103 net.cpp:367] conv4_3/expand/scale -> conv4_3/expand/bn (in-place)
I0726 19:52:39.027711  2103 layer_factory.hpp:77] Creating layer conv4_3/expand/scale
I0726 19:52:39.027834  2103 net.cpp:122] Setting up conv4_3/expand/scale
I0726 19:52:39.027842  2103 net.cpp:129] Top shape: 32 192 28 28 (4816896)
I0726 19:52:39.027844  2103 net.cpp:137] Memory required for data: 2736009984
I0726 19:52:39.027849  2103 layer_factory.hpp:77] Creating layer relu4_3/expand
I0726 19:52:39.027855  2103 net.cpp:84] Creating Layer relu4_3/expand
I0726 19:52:39.027858  2103 net.cpp:406] relu4_3/expand <- conv4_3/expand/bn
I0726 19:52:39.027861  2103 net.cpp:367] relu4_3/expand -> conv4_3/expand/bn (in-place)
I0726 19:52:39.028264  2103 net.cpp:122] Setting up relu4_3/expand
I0726 19:52:39.028275  2103 net.cpp:129] Top shape: 32 192 28 28 (4816896)
I0726 19:52:39.028277  2103 net.cpp:137] Memory required for data: 2755277568
I0726 19:52:39.028280  2103 layer_factory.hpp:77] Creating layer conv4_3/dwise
I0726 19:52:39.028287  2103 net.cpp:84] Creating Layer conv4_3/dwise
I0726 19:52:39.028291  2103 net.cpp:406] conv4_3/dwise <- conv4_3/expand/bn
I0726 19:52:39.028296  2103 net.cpp:380] conv4_3/dwise -> conv4_3/dwise
I0726 19:52:39.028511  2103 net.cpp:122] Setting up conv4_3/dwise
I0726 19:52:39.028518  2103 net.cpp:129] Top shape: 32 192 28 28 (4816896)
I0726 19:52:39.028520  2103 net.cpp:137] Memory required for data: 2774545152
I0726 19:52:39.028524  2103 layer_factory.hpp:77] Creating layer conv4_3/dwise/bn
I0726 19:52:39.028532  2103 net.cpp:84] Creating Layer conv4_3/dwise/bn
I0726 19:52:39.028534  2103 net.cpp:406] conv4_3/dwise/bn <- conv4_3/dwise
I0726 19:52:39.028538  2103 net.cpp:380] conv4_3/dwise/bn -> conv4_3/dwise/bn
I0726 19:52:39.028739  2103 net.cpp:122] Setting up conv4_3/dwise/bn
I0726 19:52:39.028745  2103 net.cpp:129] Top shape: 32 192 28 28 (4816896)
I0726 19:52:39.028748  2103 net.cpp:137] Memory required for data: 2793812736
I0726 19:52:39.028754  2103 layer_factory.hpp:77] Creating layer conv4_3/dwise/scale
I0726 19:52:39.028760  2103 net.cpp:84] Creating Layer conv4_3/dwise/scale
I0726 19:52:39.028764  2103 net.cpp:406] conv4_3/dwise/scale <- conv4_3/dwise/bn
I0726 19:52:39.028769  2103 net.cpp:367] conv4_3/dwise/scale -> conv4_3/dwise/bn (in-place)
I0726 19:52:39.028815  2103 layer_factory.hpp:77] Creating layer conv4_3/dwise/scale
I0726 19:52:39.028946  2103 net.cpp:122] Setting up conv4_3/dwise/scale
I0726 19:52:39.028952  2103 net.cpp:129] Top shape: 32 192 28 28 (4816896)
I0726 19:52:39.028964  2103 net.cpp:137] Memory required for data: 2813080320
I0726 19:52:39.028969  2103 layer_factory.hpp:77] Creating layer relu4_3/dwise
I0726 19:52:39.028972  2103 net.cpp:84] Creating Layer relu4_3/dwise
I0726 19:52:39.028975  2103 net.cpp:406] relu4_3/dwise <- conv4_3/dwise/bn
I0726 19:52:39.028980  2103 net.cpp:367] relu4_3/dwise -> conv4_3/dwise/bn (in-place)
I0726 19:52:39.029374  2103 net.cpp:122] Setting up relu4_3/dwise
I0726 19:52:39.029382  2103 net.cpp:129] Top shape: 32 192 28 28 (4816896)
I0726 19:52:39.029394  2103 net.cpp:137] Memory required for data: 2832347904
I0726 19:52:39.029397  2103 layer_factory.hpp:77] Creating layer conv4_3/linear
I0726 19:52:39.029404  2103 net.cpp:84] Creating Layer conv4_3/linear
I0726 19:52:39.029407  2103 net.cpp:406] conv4_3/linear <- conv4_3/dwise/bn
I0726 19:52:39.029413  2103 net.cpp:380] conv4_3/linear -> conv4_3/linear
I0726 19:52:39.031147  2103 net.cpp:122] Setting up conv4_3/linear
I0726 19:52:39.031172  2103 net.cpp:129] Top shape: 32 64 28 28 (1605632)
I0726 19:52:39.031175  2103 net.cpp:137] Memory required for data: 2838770432
I0726 19:52:39.031180  2103 layer_factory.hpp:77] Creating layer conv4_3/linear/bn
I0726 19:52:39.031186  2103 net.cpp:84] Creating Layer conv4_3/linear/bn
I0726 19:52:39.031190  2103 net.cpp:406] conv4_3/linear/bn <- conv4_3/linear
I0726 19:52:39.031196  2103 net.cpp:380] conv4_3/linear/bn -> conv4_3/linear/bn
I0726 19:52:39.031414  2103 net.cpp:122] Setting up conv4_3/linear/bn
I0726 19:52:39.031420  2103 net.cpp:129] Top shape: 32 64 28 28 (1605632)
I0726 19:52:39.031432  2103 net.cpp:137] Memory required for data: 2845192960
I0726 19:52:39.031455  2103 layer_factory.hpp:77] Creating layer conv4_3/linear/scale
I0726 19:52:39.031463  2103 net.cpp:84] Creating Layer conv4_3/linear/scale
I0726 19:52:39.031466  2103 net.cpp:406] conv4_3/linear/scale <- conv4_3/linear/bn
I0726 19:52:39.031471  2103 net.cpp:367] conv4_3/linear/scale -> conv4_3/linear/bn (in-place)
I0726 19:52:39.031522  2103 layer_factory.hpp:77] Creating layer conv4_3/linear/scale
I0726 19:52:39.031673  2103 net.cpp:122] Setting up conv4_3/linear/scale
I0726 19:52:39.031680  2103 net.cpp:129] Top shape: 32 64 28 28 (1605632)
I0726 19:52:39.031692  2103 net.cpp:137] Memory required for data: 2851615488
I0726 19:52:39.031697  2103 layer_factory.hpp:77] Creating layer conv4_3/linear/bn_conv4_3/linear/scale_0_split
I0726 19:52:39.031702  2103 net.cpp:84] Creating Layer conv4_3/linear/bn_conv4_3/linear/scale_0_split
I0726 19:52:39.031704  2103 net.cpp:406] conv4_3/linear/bn_conv4_3/linear/scale_0_split <- conv4_3/linear/bn
I0726 19:52:39.031709  2103 net.cpp:380] conv4_3/linear/bn_conv4_3/linear/scale_0_split -> conv4_3/linear/bn_conv4_3/linear/scale_0_split_0
I0726 19:52:39.031714  2103 net.cpp:380] conv4_3/linear/bn_conv4_3/linear/scale_0_split -> conv4_3/linear/bn_conv4_3/linear/scale_0_split_1
I0726 19:52:39.031750  2103 net.cpp:122] Setting up conv4_3/linear/bn_conv4_3/linear/scale_0_split
I0726 19:52:39.031757  2103 net.cpp:129] Top shape: 32 64 28 28 (1605632)
I0726 19:52:39.031760  2103 net.cpp:129] Top shape: 32 64 28 28 (1605632)
I0726 19:52:39.031762  2103 net.cpp:137] Memory required for data: 2864460544
I0726 19:52:39.031765  2103 layer_factory.hpp:77] Creating layer conv4_4/expand
I0726 19:52:39.031771  2103 net.cpp:84] Creating Layer conv4_4/expand
I0726 19:52:39.031774  2103 net.cpp:406] conv4_4/expand <- conv4_3/linear/bn_conv4_3/linear/scale_0_split_0
I0726 19:52:39.031780  2103 net.cpp:380] conv4_4/expand -> conv4_4/expand
I0726 19:52:39.034232  2103 net.cpp:122] Setting up conv4_4/expand
I0726 19:52:39.034245  2103 net.cpp:129] Top shape: 32 384 28 28 (9633792)
I0726 19:52:39.034248  2103 net.cpp:137] Memory required for data: 2902995712
I0726 19:52:39.034253  2103 layer_factory.hpp:77] Creating layer conv4_4/expand/bn
I0726 19:52:39.034262  2103 net.cpp:84] Creating Layer conv4_4/expand/bn
I0726 19:52:39.034266  2103 net.cpp:406] conv4_4/expand/bn <- conv4_4/expand
I0726 19:52:39.034271  2103 net.cpp:380] conv4_4/expand/bn -> conv4_4/expand/bn
I0726 19:52:39.034478  2103 net.cpp:122] Setting up conv4_4/expand/bn
I0726 19:52:39.034487  2103 net.cpp:129] Top shape: 32 384 28 28 (9633792)
I0726 19:52:39.034488  2103 net.cpp:137] Memory required for data: 2941530880
I0726 19:52:39.034495  2103 layer_factory.hpp:77] Creating layer conv4_4/expand/scale
I0726 19:52:39.034502  2103 net.cpp:84] Creating Layer conv4_4/expand/scale
I0726 19:52:39.034504  2103 net.cpp:406] conv4_4/expand/scale <- conv4_4/expand/bn
I0726 19:52:39.034508  2103 net.cpp:367] conv4_4/expand/scale -> conv4_4/expand/bn (in-place)
I0726 19:52:39.034560  2103 layer_factory.hpp:77] Creating layer conv4_4/expand/scale
I0726 19:52:39.034682  2103 net.cpp:122] Setting up conv4_4/expand/scale
I0726 19:52:39.034689  2103 net.cpp:129] Top shape: 32 384 28 28 (9633792)
I0726 19:52:39.034692  2103 net.cpp:137] Memory required for data: 2980066048
I0726 19:52:39.034696  2103 layer_factory.hpp:77] Creating layer relu4_4/expand
I0726 19:52:39.034701  2103 net.cpp:84] Creating Layer relu4_4/expand
I0726 19:52:39.034704  2103 net.cpp:406] relu4_4/expand <- conv4_4/expand/bn
I0726 19:52:39.034709  2103 net.cpp:367] relu4_4/expand -> conv4_4/expand/bn (in-place)
I0726 19:52:39.035295  2103 net.cpp:122] Setting up relu4_4/expand
I0726 19:52:39.035305  2103 net.cpp:129] Top shape: 32 384 28 28 (9633792)
I0726 19:52:39.035318  2103 net.cpp:137] Memory required for data: 3018601216
I0726 19:52:39.035321  2103 layer_factory.hpp:77] Creating layer conv4_4/dwise
I0726 19:52:39.035331  2103 net.cpp:84] Creating Layer conv4_4/dwise
I0726 19:52:39.035333  2103 net.cpp:406] conv4_4/dwise <- conv4_4/expand/bn
I0726 19:52:39.035339  2103 net.cpp:380] conv4_4/dwise -> conv4_4/dwise
I0726 19:52:39.035580  2103 net.cpp:122] Setting up conv4_4/dwise
I0726 19:52:39.035588  2103 net.cpp:129] Top shape: 32 384 28 28 (9633792)
I0726 19:52:39.035599  2103 net.cpp:137] Memory required for data: 3057136384
I0726 19:52:39.035604  2103 layer_factory.hpp:77] Creating layer conv4_4/dwise/bn
I0726 19:52:39.035610  2103 net.cpp:84] Creating Layer conv4_4/dwise/bn
I0726 19:52:39.035614  2103 net.cpp:406] conv4_4/dwise/bn <- conv4_4/dwise
I0726 19:52:39.035619  2103 net.cpp:380] conv4_4/dwise/bn -> conv4_4/dwise/bn
I0726 19:52:39.035821  2103 net.cpp:122] Setting up conv4_4/dwise/bn
I0726 19:52:39.035827  2103 net.cpp:129] Top shape: 32 384 28 28 (9633792)
I0726 19:52:39.035840  2103 net.cpp:137] Memory required for data: 3095671552
I0726 19:52:39.035845  2103 layer_factory.hpp:77] Creating layer conv4_4/dwise/scale
I0726 19:52:39.035851  2103 net.cpp:84] Creating Layer conv4_4/dwise/scale
I0726 19:52:39.035853  2103 net.cpp:406] conv4_4/dwise/scale <- conv4_4/dwise/bn
I0726 19:52:39.035858  2103 net.cpp:367] conv4_4/dwise/scale -> conv4_4/dwise/bn (in-place)
I0726 19:52:39.035899  2103 layer_factory.hpp:77] Creating layer conv4_4/dwise/scale
I0726 19:52:39.036034  2103 net.cpp:122] Setting up conv4_4/dwise/scale
I0726 19:52:39.036041  2103 net.cpp:129] Top shape: 32 384 28 28 (9633792)
I0726 19:52:39.036052  2103 net.cpp:137] Memory required for data: 3134206720
I0726 19:52:39.036057  2103 layer_factory.hpp:77] Creating layer relu4_4/dwise
I0726 19:52:39.036062  2103 net.cpp:84] Creating Layer relu4_4/dwise
I0726 19:52:39.036065  2103 net.cpp:406] relu4_4/dwise <- conv4_4/dwise/bn
I0726 19:52:39.036068  2103 net.cpp:367] relu4_4/dwise -> conv4_4/dwise/bn (in-place)
I0726 19:52:39.036468  2103 net.cpp:122] Setting up relu4_4/dwise
I0726 19:52:39.036487  2103 net.cpp:129] Top shape: 32 384 28 28 (9633792)
I0726 19:52:39.036490  2103 net.cpp:137] Memory required for data: 3172741888
I0726 19:52:39.036494  2103 layer_factory.hpp:77] Creating layer conv4_4/linear
I0726 19:52:39.036500  2103 net.cpp:84] Creating Layer conv4_4/linear
I0726 19:52:39.036504  2103 net.cpp:406] conv4_4/linear <- conv4_4/dwise/bn
I0726 19:52:39.036509  2103 net.cpp:380] conv4_4/linear -> conv4_4/linear
I0726 19:52:39.038461  2103 net.cpp:122] Setting up conv4_4/linear
I0726 19:52:39.038483  2103 net.cpp:129] Top shape: 32 64 28 28 (1605632)
I0726 19:52:39.038486  2103 net.cpp:137] Memory required for data: 3179164416
I0726 19:52:39.038492  2103 layer_factory.hpp:77] Creating layer conv4_4/linear/bn
I0726 19:52:39.038501  2103 net.cpp:84] Creating Layer conv4_4/linear/bn
I0726 19:52:39.038504  2103 net.cpp:406] conv4_4/linear/bn <- conv4_4/linear
I0726 19:52:39.038511  2103 net.cpp:380] conv4_4/linear/bn -> conv4_4/linear/bn
I0726 19:52:39.038786  2103 net.cpp:122] Setting up conv4_4/linear/bn
I0726 19:52:39.038795  2103 net.cpp:129] Top shape: 32 64 28 28 (1605632)
I0726 19:52:39.038799  2103 net.cpp:137] Memory required for data: 3185586944
I0726 19:52:39.038805  2103 layer_factory.hpp:77] Creating layer conv4_4/linear/scale
I0726 19:52:39.038812  2103 net.cpp:84] Creating Layer conv4_4/linear/scale
I0726 19:52:39.038828  2103 net.cpp:406] conv4_4/linear/scale <- conv4_4/linear/bn
I0726 19:52:39.038836  2103 net.cpp:367] conv4_4/linear/scale -> conv4_4/linear/bn (in-place)
I0726 19:52:39.038893  2103 layer_factory.hpp:77] Creating layer conv4_4/linear/scale
I0726 19:52:39.039014  2103 net.cpp:122] Setting up conv4_4/linear/scale
I0726 19:52:39.039021  2103 net.cpp:129] Top shape: 32 64 28 28 (1605632)
I0726 19:52:39.039024  2103 net.cpp:137] Memory required for data: 3192009472
I0726 19:52:39.039028  2103 layer_factory.hpp:77] Creating layer block_4_4
I0726 19:52:39.039036  2103 net.cpp:84] Creating Layer block_4_4
I0726 19:52:39.039041  2103 net.cpp:406] block_4_4 <- conv4_3/linear/bn_conv4_3/linear/scale_0_split_1
I0726 19:52:39.039044  2103 net.cpp:406] block_4_4 <- conv4_4/linear/bn
I0726 19:52:39.039048  2103 net.cpp:380] block_4_4 -> block_4_4
I0726 19:52:39.039075  2103 net.cpp:122] Setting up block_4_4
I0726 19:52:39.039081  2103 net.cpp:129] Top shape: 32 64 28 28 (1605632)
I0726 19:52:39.039083  2103 net.cpp:137] Memory required for data: 3198432000
I0726 19:52:39.039086  2103 layer_factory.hpp:77] Creating layer block_4_4_block_4_4_0_split
I0726 19:52:39.039091  2103 net.cpp:84] Creating Layer block_4_4_block_4_4_0_split
I0726 19:52:39.039094  2103 net.cpp:406] block_4_4_block_4_4_0_split <- block_4_4
I0726 19:52:39.039108  2103 net.cpp:380] block_4_4_block_4_4_0_split -> block_4_4_block_4_4_0_split_0
I0726 19:52:39.039122  2103 net.cpp:380] block_4_4_block_4_4_0_split -> block_4_4_block_4_4_0_split_1
I0726 19:52:39.039160  2103 net.cpp:122] Setting up block_4_4_block_4_4_0_split
I0726 19:52:39.039166  2103 net.cpp:129] Top shape: 32 64 28 28 (1605632)
I0726 19:52:39.039171  2103 net.cpp:129] Top shape: 32 64 28 28 (1605632)
I0726 19:52:39.039173  2103 net.cpp:137] Memory required for data: 3211277056
I0726 19:52:39.039176  2103 layer_factory.hpp:77] Creating layer conv4_5/expand
I0726 19:52:39.039183  2103 net.cpp:84] Creating Layer conv4_5/expand
I0726 19:52:39.039188  2103 net.cpp:406] conv4_5/expand <- block_4_4_block_4_4_0_split_0
I0726 19:52:39.039193  2103 net.cpp:380] conv4_5/expand -> conv4_5/expand
I0726 19:52:39.041029  2103 net.cpp:122] Setting up conv4_5/expand
I0726 19:52:39.041041  2103 net.cpp:129] Top shape: 32 384 28 28 (9633792)
I0726 19:52:39.041044  2103 net.cpp:137] Memory required for data: 3249812224
I0726 19:52:39.041049  2103 layer_factory.hpp:77] Creating layer conv4_5/expand/bn
I0726 19:52:39.041057  2103 net.cpp:84] Creating Layer conv4_5/expand/bn
I0726 19:52:39.041061  2103 net.cpp:406] conv4_5/expand/bn <- conv4_5/expand
I0726 19:52:39.041066  2103 net.cpp:380] conv4_5/expand/bn -> conv4_5/expand/bn
I0726 19:52:39.041275  2103 net.cpp:122] Setting up conv4_5/expand/bn
I0726 19:52:39.041283  2103 net.cpp:129] Top shape: 32 384 28 28 (9633792)
I0726 19:52:39.041286  2103 net.cpp:137] Memory required for data: 3288347392
I0726 19:52:39.041293  2103 layer_factory.hpp:77] Creating layer conv4_5/expand/scale
I0726 19:52:39.041318  2103 net.cpp:84] Creating Layer conv4_5/expand/scale
I0726 19:52:39.041323  2103 net.cpp:406] conv4_5/expand/scale <- conv4_5/expand/bn
I0726 19:52:39.041328  2103 net.cpp:367] conv4_5/expand/scale -> conv4_5/expand/bn (in-place)
I0726 19:52:39.041376  2103 layer_factory.hpp:77] Creating layer conv4_5/expand/scale
I0726 19:52:39.041487  2103 net.cpp:122] Setting up conv4_5/expand/scale
I0726 19:52:39.041494  2103 net.cpp:129] Top shape: 32 384 28 28 (9633792)
I0726 19:52:39.041496  2103 net.cpp:137] Memory required for data: 3326882560
I0726 19:52:39.041501  2103 layer_factory.hpp:77] Creating layer relu4_5/expand
I0726 19:52:39.041507  2103 net.cpp:84] Creating Layer relu4_5/expand
I0726 19:52:39.041523  2103 net.cpp:406] relu4_5/expand <- conv4_5/expand/bn
I0726 19:52:39.041530  2103 net.cpp:367] relu4_5/expand -> conv4_5/expand/bn (in-place)
I0726 19:52:39.041937  2103 net.cpp:122] Setting up relu4_5/expand
I0726 19:52:39.041946  2103 net.cpp:129] Top shape: 32 384 28 28 (9633792)
I0726 19:52:39.041949  2103 net.cpp:137] Memory required for data: 3365417728
I0726 19:52:39.041952  2103 layer_factory.hpp:77] Creating layer conv4_5/dwise
I0726 19:52:39.041960  2103 net.cpp:84] Creating Layer conv4_5/dwise
I0726 19:52:39.041963  2103 net.cpp:406] conv4_5/dwise <- conv4_5/expand/bn
I0726 19:52:39.041970  2103 net.cpp:380] conv4_5/dwise -> conv4_5/dwise
I0726 19:52:39.042229  2103 net.cpp:122] Setting up conv4_5/dwise
I0726 19:52:39.042237  2103 net.cpp:129] Top shape: 32 384 28 28 (9633792)
I0726 19:52:39.042248  2103 net.cpp:137] Memory required for data: 3403952896
I0726 19:52:39.042253  2103 layer_factory.hpp:77] Creating layer conv4_5/dwise/bn
I0726 19:52:39.042258  2103 net.cpp:84] Creating Layer conv4_5/dwise/bn
I0726 19:52:39.042261  2103 net.cpp:406] conv4_5/dwise/bn <- conv4_5/dwise
I0726 19:52:39.042268  2103 net.cpp:380] conv4_5/dwise/bn -> conv4_5/dwise/bn
I0726 19:52:39.042490  2103 net.cpp:122] Setting up conv4_5/dwise/bn
I0726 19:52:39.042498  2103 net.cpp:129] Top shape: 32 384 28 28 (9633792)
I0726 19:52:39.042500  2103 net.cpp:137] Memory required for data: 3442488064
I0726 19:52:39.042506  2103 layer_factory.hpp:77] Creating layer conv4_5/dwise/scale
I0726 19:52:39.042513  2103 net.cpp:84] Creating Layer conv4_5/dwise/scale
I0726 19:52:39.042516  2103 net.cpp:406] conv4_5/dwise/scale <- conv4_5/dwise/bn
I0726 19:52:39.042520  2103 net.cpp:367] conv4_5/dwise/scale -> conv4_5/dwise/bn (in-place)
I0726 19:52:39.042562  2103 layer_factory.hpp:77] Creating layer conv4_5/dwise/scale
I0726 19:52:39.042672  2103 net.cpp:122] Setting up conv4_5/dwise/scale
I0726 19:52:39.042680  2103 net.cpp:129] Top shape: 32 384 28 28 (9633792)
I0726 19:52:39.042682  2103 net.cpp:137] Memory required for data: 3481023232
I0726 19:52:39.042687  2103 layer_factory.hpp:77] Creating layer relu4_5/dwise
I0726 19:52:39.042693  2103 net.cpp:84] Creating Layer relu4_5/dwise
I0726 19:52:39.042697  2103 net.cpp:406] relu4_5/dwise <- conv4_5/dwise/bn
I0726 19:52:39.042701  2103 net.cpp:367] relu4_5/dwise -> conv4_5/dwise/bn (in-place)
I0726 19:52:39.043095  2103 net.cpp:122] Setting up relu4_5/dwise
I0726 19:52:39.043121  2103 net.cpp:129] Top shape: 32 384 28 28 (9633792)
I0726 19:52:39.043124  2103 net.cpp:137] Memory required for data: 3519558400
I0726 19:52:39.043128  2103 layer_factory.hpp:77] Creating layer conv4_5/linear
I0726 19:52:39.043144  2103 net.cpp:84] Creating Layer conv4_5/linear
I0726 19:52:39.043148  2103 net.cpp:406] conv4_5/linear <- conv4_5/dwise/bn
I0726 19:52:39.043154  2103 net.cpp:380] conv4_5/linear -> conv4_5/linear
I0726 19:52:39.045017  2103 net.cpp:122] Setting up conv4_5/linear
I0726 19:52:39.045028  2103 net.cpp:129] Top shape: 32 64 28 28 (1605632)
I0726 19:52:39.045040  2103 net.cpp:137] Memory required for data: 3525980928
I0726 19:52:39.045045  2103 layer_factory.hpp:77] Creating layer conv4_5/linear/bn
I0726 19:52:39.045053  2103 net.cpp:84] Creating Layer conv4_5/linear/bn
I0726 19:52:39.045073  2103 net.cpp:406] conv4_5/linear/bn <- conv4_5/linear
I0726 19:52:39.045091  2103 net.cpp:380] conv4_5/linear/bn -> conv4_5/linear/bn
I0726 19:52:39.045359  2103 net.cpp:122] Setting up conv4_5/linear/bn
I0726 19:52:39.045367  2103 net.cpp:129] Top shape: 32 64 28 28 (1605632)
I0726 19:52:39.045369  2103 net.cpp:137] Memory required for data: 3532403456
I0726 19:52:39.045377  2103 layer_factory.hpp:77] Creating layer conv4_5/linear/scale
I0726 19:52:39.045385  2103 net.cpp:84] Creating Layer conv4_5/linear/scale
I0726 19:52:39.045388  2103 net.cpp:406] conv4_5/linear/scale <- conv4_5/linear/bn
I0726 19:52:39.045393  2103 net.cpp:367] conv4_5/linear/scale -> conv4_5/linear/bn (in-place)
I0726 19:52:39.045436  2103 layer_factory.hpp:77] Creating layer conv4_5/linear/scale
I0726 19:52:39.045557  2103 net.cpp:122] Setting up conv4_5/linear/scale
I0726 19:52:39.045562  2103 net.cpp:129] Top shape: 32 64 28 28 (1605632)
I0726 19:52:39.045564  2103 net.cpp:137] Memory required for data: 3538825984
I0726 19:52:39.045569  2103 layer_factory.hpp:77] Creating layer block_4_5
I0726 19:52:39.045574  2103 net.cpp:84] Creating Layer block_4_5
I0726 19:52:39.045579  2103 net.cpp:406] block_4_5 <- block_4_4_block_4_4_0_split_1
I0726 19:52:39.045583  2103 net.cpp:406] block_4_5 <- conv4_5/linear/bn
I0726 19:52:39.045586  2103 net.cpp:380] block_4_5 -> block_4_5
I0726 19:52:39.045609  2103 net.cpp:122] Setting up block_4_5
I0726 19:52:39.045614  2103 net.cpp:129] Top shape: 32 64 28 28 (1605632)
I0726 19:52:39.045616  2103 net.cpp:137] Memory required for data: 3545248512
I0726 19:52:39.045619  2103 layer_factory.hpp:77] Creating layer block_4_5_block_4_5_0_split
I0726 19:52:39.045625  2103 net.cpp:84] Creating Layer block_4_5_block_4_5_0_split
I0726 19:52:39.045627  2103 net.cpp:406] block_4_5_block_4_5_0_split <- block_4_5
I0726 19:52:39.045631  2103 net.cpp:380] block_4_5_block_4_5_0_split -> block_4_5_block_4_5_0_split_0
I0726 19:52:39.045636  2103 net.cpp:380] block_4_5_block_4_5_0_split -> block_4_5_block_4_5_0_split_1
I0726 19:52:39.045670  2103 net.cpp:122] Setting up block_4_5_block_4_5_0_split
I0726 19:52:39.045675  2103 net.cpp:129] Top shape: 32 64 28 28 (1605632)
I0726 19:52:39.045678  2103 net.cpp:129] Top shape: 32 64 28 28 (1605632)
I0726 19:52:39.045681  2103 net.cpp:137] Memory required for data: 3558093568
I0726 19:52:39.045683  2103 layer_factory.hpp:77] Creating layer conv4_6/expand
I0726 19:52:39.045692  2103 net.cpp:84] Creating Layer conv4_6/expand
I0726 19:52:39.045696  2103 net.cpp:406] conv4_6/expand <- block_4_5_block_4_5_0_split_0
I0726 19:52:39.045699  2103 net.cpp:380] conv4_6/expand -> conv4_6/expand
I0726 19:52:39.047602  2103 net.cpp:122] Setting up conv4_6/expand
I0726 19:52:39.047614  2103 net.cpp:129] Top shape: 32 384 28 28 (9633792)
I0726 19:52:39.047617  2103 net.cpp:137] Memory required for data: 3596628736
I0726 19:52:39.047622  2103 layer_factory.hpp:77] Creating layer conv4_6/expand/bn
I0726 19:52:39.047631  2103 net.cpp:84] Creating Layer conv4_6/expand/bn
I0726 19:52:39.047636  2103 net.cpp:406] conv4_6/expand/bn <- conv4_6/expand
I0726 19:52:39.047641  2103 net.cpp:380] conv4_6/expand/bn -> conv4_6/expand/bn
I0726 19:52:39.047855  2103 net.cpp:122] Setting up conv4_6/expand/bn
I0726 19:52:39.047863  2103 net.cpp:129] Top shape: 32 384 28 28 (9633792)
I0726 19:52:39.047864  2103 net.cpp:137] Memory required for data: 3635163904
I0726 19:52:39.047870  2103 layer_factory.hpp:77] Creating layer conv4_6/expand/scale
I0726 19:52:39.047878  2103 net.cpp:84] Creating Layer conv4_6/expand/scale
I0726 19:52:39.047881  2103 net.cpp:406] conv4_6/expand/scale <- conv4_6/expand/bn
I0726 19:52:39.047885  2103 net.cpp:367] conv4_6/expand/scale -> conv4_6/expand/bn (in-place)
I0726 19:52:39.047931  2103 layer_factory.hpp:77] Creating layer conv4_6/expand/scale
I0726 19:52:39.048044  2103 net.cpp:122] Setting up conv4_6/expand/scale
I0726 19:52:39.048053  2103 net.cpp:129] Top shape: 32 384 28 28 (9633792)
I0726 19:52:39.048054  2103 net.cpp:137] Memory required for data: 3673699072
I0726 19:52:39.048059  2103 layer_factory.hpp:77] Creating layer relu4_6/expand
I0726 19:52:39.048065  2103 net.cpp:84] Creating Layer relu4_6/expand
I0726 19:52:39.048070  2103 net.cpp:406] relu4_6/expand <- conv4_6/expand/bn
I0726 19:52:39.048074  2103 net.cpp:367] relu4_6/expand -> conv4_6/expand/bn (in-place)
I0726 19:52:39.048663  2103 net.cpp:122] Setting up relu4_6/expand
I0726 19:52:39.048676  2103 net.cpp:129] Top shape: 32 384 28 28 (9633792)
I0726 19:52:39.048679  2103 net.cpp:137] Memory required for data: 3712234240
I0726 19:52:39.048682  2103 layer_factory.hpp:77] Creating layer conv4_6/dwise
I0726 19:52:39.048689  2103 net.cpp:84] Creating Layer conv4_6/dwise
I0726 19:52:39.048692  2103 net.cpp:406] conv4_6/dwise <- conv4_6/expand/bn
I0726 19:52:39.048701  2103 net.cpp:380] conv4_6/dwise -> conv4_6/dwise
I0726 19:52:39.048938  2103 net.cpp:122] Setting up conv4_6/dwise
I0726 19:52:39.048945  2103 net.cpp:129] Top shape: 32 384 28 28 (9633792)
I0726 19:52:39.048949  2103 net.cpp:137] Memory required for data: 3750769408
I0726 19:52:39.048952  2103 layer_factory.hpp:77] Creating layer conv4_6/dwise/bn
I0726 19:52:39.048961  2103 net.cpp:84] Creating Layer conv4_6/dwise/bn
I0726 19:52:39.048964  2103 net.cpp:406] conv4_6/dwise/bn <- conv4_6/dwise
I0726 19:52:39.048970  2103 net.cpp:380] conv4_6/dwise/bn -> conv4_6/dwise/bn
I0726 19:52:39.049177  2103 net.cpp:122] Setting up conv4_6/dwise/bn
I0726 19:52:39.049183  2103 net.cpp:129] Top shape: 32 384 28 28 (9633792)
I0726 19:52:39.049185  2103 net.cpp:137] Memory required for data: 3789304576
I0726 19:52:39.049191  2103 layer_factory.hpp:77] Creating layer conv4_6/dwise/scale
I0726 19:52:39.049199  2103 net.cpp:84] Creating Layer conv4_6/dwise/scale
I0726 19:52:39.049202  2103 net.cpp:406] conv4_6/dwise/scale <- conv4_6/dwise/bn
I0726 19:52:39.049206  2103 net.cpp:367] conv4_6/dwise/scale -> conv4_6/dwise/bn (in-place)
I0726 19:52:39.049247  2103 layer_factory.hpp:77] Creating layer conv4_6/dwise/scale
I0726 19:52:39.049355  2103 net.cpp:122] Setting up conv4_6/dwise/scale
I0726 19:52:39.049361  2103 net.cpp:129] Top shape: 32 384 28 28 (9633792)
I0726 19:52:39.049363  2103 net.cpp:137] Memory required for data: 3827839744
I0726 19:52:39.049368  2103 layer_factory.hpp:77] Creating layer relu4_6/dwise
I0726 19:52:39.049374  2103 net.cpp:84] Creating Layer relu4_6/dwise
I0726 19:52:39.049377  2103 net.cpp:406] relu4_6/dwise <- conv4_6/dwise/bn
I0726 19:52:39.049382  2103 net.cpp:367] relu4_6/dwise -> conv4_6/dwise/bn (in-place)
I0726 19:52:39.049785  2103 net.cpp:122] Setting up relu4_6/dwise
I0726 19:52:39.049795  2103 net.cpp:129] Top shape: 32 384 28 28 (9633792)
I0726 19:52:39.049798  2103 net.cpp:137] Memory required for data: 3866374912
I0726 19:52:39.049800  2103 layer_factory.hpp:77] Creating layer conv4_6/linear
I0726 19:52:39.049809  2103 net.cpp:84] Creating Layer conv4_6/linear
I0726 19:52:39.049813  2103 net.cpp:406] conv4_6/linear <- conv4_6/dwise/bn
I0726 19:52:39.049818  2103 net.cpp:380] conv4_6/linear -> conv4_6/linear
I0726 19:52:39.051683  2103 net.cpp:122] Setting up conv4_6/linear
I0726 19:52:39.051697  2103 net.cpp:129] Top shape: 32 64 28 28 (1605632)
I0726 19:52:39.051699  2103 net.cpp:137] Memory required for data: 3872797440
I0726 19:52:39.051704  2103 layer_factory.hpp:77] Creating layer conv4_6/linear/bn
I0726 19:52:39.051712  2103 net.cpp:84] Creating Layer conv4_6/linear/bn
I0726 19:52:39.051717  2103 net.cpp:406] conv4_6/linear/bn <- conv4_6/linear
I0726 19:52:39.051723  2103 net.cpp:380] conv4_6/linear/bn -> conv4_6/linear/bn
I0726 19:52:39.051951  2103 net.cpp:122] Setting up conv4_6/linear/bn
I0726 19:52:39.051960  2103 net.cpp:129] Top shape: 32 64 28 28 (1605632)
I0726 19:52:39.051964  2103 net.cpp:137] Memory required for data: 3879219968
I0726 19:52:39.051970  2103 layer_factory.hpp:77] Creating layer conv4_6/linear/scale
I0726 19:52:39.051976  2103 net.cpp:84] Creating Layer conv4_6/linear/scale
I0726 19:52:39.051980  2103 net.cpp:406] conv4_6/linear/scale <- conv4_6/linear/bn
I0726 19:52:39.051985  2103 net.cpp:367] conv4_6/linear/scale -> conv4_6/linear/bn (in-place)
I0726 19:52:39.052031  2103 layer_factory.hpp:77] Creating layer conv4_6/linear/scale
I0726 19:52:39.052155  2103 net.cpp:122] Setting up conv4_6/linear/scale
I0726 19:52:39.052162  2103 net.cpp:129] Top shape: 32 64 28 28 (1605632)
I0726 19:52:39.052165  2103 net.cpp:137] Memory required for data: 3885642496
I0726 19:52:39.052170  2103 layer_factory.hpp:77] Creating layer block_4_6
I0726 19:52:39.052176  2103 net.cpp:84] Creating Layer block_4_6
I0726 19:52:39.052181  2103 net.cpp:406] block_4_6 <- block_4_5_block_4_5_0_split_1
I0726 19:52:39.052184  2103 net.cpp:406] block_4_6 <- conv4_6/linear/bn
I0726 19:52:39.052188  2103 net.cpp:380] block_4_6 -> block_4_6
I0726 19:52:39.052212  2103 net.cpp:122] Setting up block_4_6
I0726 19:52:39.052217  2103 net.cpp:129] Top shape: 32 64 28 28 (1605632)
I0726 19:52:39.052220  2103 net.cpp:137] Memory required for data: 3892065024
I0726 19:52:39.052222  2103 layer_factory.hpp:77] Creating layer conv4_7/expand
I0726 19:52:39.052245  2103 net.cpp:84] Creating Layer conv4_7/expand
I0726 19:52:39.052248  2103 net.cpp:406] conv4_7/expand <- block_4_6
I0726 19:52:39.052253  2103 net.cpp:380] conv4_7/expand -> conv4_7/expand
I0726 19:52:39.054329  2103 net.cpp:122] Setting up conv4_7/expand
I0726 19:52:39.054343  2103 net.cpp:129] Top shape: 32 384 28 28 (9633792)
I0726 19:52:39.054347  2103 net.cpp:137] Memory required for data: 3930600192
I0726 19:52:39.054353  2103 layer_factory.hpp:77] Creating layer conv4_7/expand/bn
I0726 19:52:39.054360  2103 net.cpp:84] Creating Layer conv4_7/expand/bn
I0726 19:52:39.054366  2103 net.cpp:406] conv4_7/expand/bn <- conv4_7/expand
I0726 19:52:39.054373  2103 net.cpp:380] conv4_7/expand/bn -> conv4_7/expand/bn
I0726 19:52:39.054590  2103 net.cpp:122] Setting up conv4_7/expand/bn
I0726 19:52:39.054599  2103 net.cpp:129] Top shape: 32 384 28 28 (9633792)
I0726 19:52:39.054600  2103 net.cpp:137] Memory required for data: 3969135360
I0726 19:52:39.054607  2103 layer_factory.hpp:77] Creating layer conv4_7/expand/scale
I0726 19:52:39.054615  2103 net.cpp:84] Creating Layer conv4_7/expand/scale
I0726 19:52:39.054618  2103 net.cpp:406] conv4_7/expand/scale <- conv4_7/expand/bn
I0726 19:52:39.054623  2103 net.cpp:367] conv4_7/expand/scale -> conv4_7/expand/bn (in-place)
I0726 19:52:39.054671  2103 layer_factory.hpp:77] Creating layer conv4_7/expand/scale
I0726 19:52:39.054785  2103 net.cpp:122] Setting up conv4_7/expand/scale
I0726 19:52:39.054790  2103 net.cpp:129] Top shape: 32 384 28 28 (9633792)
I0726 19:52:39.054793  2103 net.cpp:137] Memory required for data: 4007670528
I0726 19:52:39.054798  2103 layer_factory.hpp:77] Creating layer relu4_7/expand
I0726 19:52:39.054803  2103 net.cpp:84] Creating Layer relu4_7/expand
I0726 19:52:39.054806  2103 net.cpp:406] relu4_7/expand <- conv4_7/expand/bn
I0726 19:52:39.054811  2103 net.cpp:367] relu4_7/expand -> conv4_7/expand/bn (in-place)
I0726 19:52:39.055384  2103 net.cpp:122] Setting up relu4_7/expand
I0726 19:52:39.055397  2103 net.cpp:129] Top shape: 32 384 28 28 (9633792)
I0726 19:52:39.055399  2103 net.cpp:137] Memory required for data: 4046205696
I0726 19:52:39.055402  2103 layer_factory.hpp:77] Creating layer conv4_7/dwise
I0726 19:52:39.055410  2103 net.cpp:84] Creating Layer conv4_7/dwise
I0726 19:52:39.055416  2103 net.cpp:406] conv4_7/dwise <- conv4_7/expand/bn
I0726 19:52:39.055423  2103 net.cpp:380] conv4_7/dwise -> conv4_7/dwise
I0726 19:52:39.055660  2103 net.cpp:122] Setting up conv4_7/dwise
I0726 19:52:39.055666  2103 net.cpp:129] Top shape: 32 384 14 14 (2408448)
I0726 19:52:39.055670  2103 net.cpp:137] Memory required for data: 4055839488
I0726 19:52:39.055673  2103 layer_factory.hpp:77] Creating layer conv4_7/dwise/bn
I0726 19:52:39.055681  2103 net.cpp:84] Creating Layer conv4_7/dwise/bn
I0726 19:52:39.055685  2103 net.cpp:406] conv4_7/dwise/bn <- conv4_7/dwise
I0726 19:52:39.055689  2103 net.cpp:380] conv4_7/dwise/bn -> conv4_7/dwise/bn
I0726 19:52:39.055904  2103 net.cpp:122] Setting up conv4_7/dwise/bn
I0726 19:52:39.055909  2103 net.cpp:129] Top shape: 32 384 14 14 (2408448)
I0726 19:52:39.055912  2103 net.cpp:137] Memory required for data: 4065473280
I0726 19:52:39.055918  2103 layer_factory.hpp:77] Creating layer conv4_7/dwise/scale
I0726 19:52:39.055924  2103 net.cpp:84] Creating Layer conv4_7/dwise/scale
I0726 19:52:39.055927  2103 net.cpp:406] conv4_7/dwise/scale <- conv4_7/dwise/bn
I0726 19:52:39.055932  2103 net.cpp:367] conv4_7/dwise/scale -> conv4_7/dwise/bn (in-place)
I0726 19:52:39.055972  2103 layer_factory.hpp:77] Creating layer conv4_7/dwise/scale
I0726 19:52:39.056087  2103 net.cpp:122] Setting up conv4_7/dwise/scale
I0726 19:52:39.056092  2103 net.cpp:129] Top shape: 32 384 14 14 (2408448)
I0726 19:52:39.056095  2103 net.cpp:137] Memory required for data: 4075107072
I0726 19:52:39.056100  2103 layer_factory.hpp:77] Creating layer relu4_7/dwise
I0726 19:52:39.056105  2103 net.cpp:84] Creating Layer relu4_7/dwise
I0726 19:52:39.056108  2103 net.cpp:406] relu4_7/dwise <- conv4_7/dwise/bn
I0726 19:52:39.056113  2103 net.cpp:367] relu4_7/dwise -> conv4_7/dwise/bn (in-place)
I0726 19:52:39.056741  2103 net.cpp:122] Setting up relu4_7/dwise
I0726 19:52:39.056751  2103 net.cpp:129] Top shape: 32 384 14 14 (2408448)
I0726 19:52:39.056754  2103 net.cpp:137] Memory required for data: 4084740864
I0726 19:52:39.056757  2103 layer_factory.hpp:77] Creating layer conv4_7/linear
I0726 19:52:39.056766  2103 net.cpp:84] Creating Layer conv4_7/linear
I0726 19:52:39.056771  2103 net.cpp:406] conv4_7/linear <- conv4_7/dwise/bn
I0726 19:52:39.056777  2103 net.cpp:380] conv4_7/linear -> conv4_7/linear
I0726 19:52:39.058746  2103 net.cpp:122] Setting up conv4_7/linear
I0726 19:52:39.058755  2103 net.cpp:129] Top shape: 32 96 14 14 (602112)
I0726 19:52:39.058758  2103 net.cpp:137] Memory required for data: 4087149312
I0726 19:52:39.058763  2103 layer_factory.hpp:77] Creating layer conv4_7/linear/bn
I0726 19:52:39.058770  2103 net.cpp:84] Creating Layer conv4_7/linear/bn
I0726 19:52:39.058774  2103 net.cpp:406] conv4_7/linear/bn <- conv4_7/linear
I0726 19:52:39.058779  2103 net.cpp:380] conv4_7/linear/bn -> conv4_7/linear/bn
I0726 19:52:39.059001  2103 net.cpp:122] Setting up conv4_7/linear/bn
I0726 19:52:39.059007  2103 net.cpp:129] Top shape: 32 96 14 14 (602112)
I0726 19:52:39.059010  2103 net.cpp:137] Memory required for data: 4089557760
I0726 19:52:39.059016  2103 layer_factory.hpp:77] Creating layer conv4_7/linear/scale
I0726 19:52:39.059022  2103 net.cpp:84] Creating Layer conv4_7/linear/scale
I0726 19:52:39.059026  2103 net.cpp:406] conv4_7/linear/scale <- conv4_7/linear/bn
I0726 19:52:39.059029  2103 net.cpp:367] conv4_7/linear/scale -> conv4_7/linear/bn (in-place)
I0726 19:52:39.059068  2103 layer_factory.hpp:77] Creating layer conv4_7/linear/scale
I0726 19:52:39.059243  2103 net.cpp:122] Setting up conv4_7/linear/scale
I0726 19:52:39.059252  2103 net.cpp:129] Top shape: 32 96 14 14 (602112)
I0726 19:52:39.059255  2103 net.cpp:137] Memory required for data: 4091966208
I0726 19:52:39.059260  2103 layer_factory.hpp:77] Creating layer conv4_7/linear/bn_conv4_7/linear/scale_0_split
I0726 19:52:39.059267  2103 net.cpp:84] Creating Layer conv4_7/linear/bn_conv4_7/linear/scale_0_split
I0726 19:52:39.059271  2103 net.cpp:406] conv4_7/linear/bn_conv4_7/linear/scale_0_split <- conv4_7/linear/bn
I0726 19:52:39.059275  2103 net.cpp:380] conv4_7/linear/bn_conv4_7/linear/scale_0_split -> conv4_7/linear/bn_conv4_7/linear/scale_0_split_0
I0726 19:52:39.059281  2103 net.cpp:380] conv4_7/linear/bn_conv4_7/linear/scale_0_split -> conv4_7/linear/bn_conv4_7/linear/scale_0_split_1
I0726 19:52:39.059319  2103 net.cpp:122] Setting up conv4_7/linear/bn_conv4_7/linear/scale_0_split
I0726 19:52:39.059324  2103 net.cpp:129] Top shape: 32 96 14 14 (602112)
I0726 19:52:39.059329  2103 net.cpp:129] Top shape: 32 96 14 14 (602112)
I0726 19:52:39.059330  2103 net.cpp:137] Memory required for data: 4096783104
I0726 19:52:39.059334  2103 layer_factory.hpp:77] Creating layer conv5_1/expand
I0726 19:52:39.059340  2103 net.cpp:84] Creating Layer conv5_1/expand
I0726 19:52:39.059345  2103 net.cpp:406] conv5_1/expand <- conv4_7/linear/bn_conv4_7/linear/scale_0_split_0
I0726 19:52:39.059350  2103 net.cpp:380] conv5_1/expand -> conv5_1/expand
I0726 19:52:39.061502  2103 net.cpp:122] Setting up conv5_1/expand
I0726 19:52:39.061514  2103 net.cpp:129] Top shape: 32 576 14 14 (3612672)
I0726 19:52:39.061517  2103 net.cpp:137] Memory required for data: 4111233792
I0726 19:52:39.061522  2103 layer_factory.hpp:77] Creating layer conv5_1/expand/bn
I0726 19:52:39.061530  2103 net.cpp:84] Creating Layer conv5_1/expand/bn
I0726 19:52:39.061535  2103 net.cpp:406] conv5_1/expand/bn <- conv5_1/expand
I0726 19:52:39.061542  2103 net.cpp:380] conv5_1/expand/bn -> conv5_1/expand/bn
I0726 19:52:39.061774  2103 net.cpp:122] Setting up conv5_1/expand/bn
I0726 19:52:39.061780  2103 net.cpp:129] Top shape: 32 576 14 14 (3612672)
I0726 19:52:39.061782  2103 net.cpp:137] Memory required for data: 4125684480
I0726 19:52:39.061799  2103 layer_factory.hpp:77] Creating layer conv5_1/expand/scale
I0726 19:52:39.061807  2103 net.cpp:84] Creating Layer conv5_1/expand/scale
I0726 19:52:39.061810  2103 net.cpp:406] conv5_1/expand/scale <- conv5_1/expand/bn
I0726 19:52:39.061815  2103 net.cpp:367] conv5_1/expand/scale -> conv5_1/expand/bn (in-place)
I0726 19:52:39.061875  2103 layer_factory.hpp:77] Creating layer conv5_1/expand/scale
I0726 19:52:39.062002  2103 net.cpp:122] Setting up conv5_1/expand/scale
I0726 19:52:39.062007  2103 net.cpp:129] Top shape: 32 576 14 14 (3612672)
I0726 19:52:39.062011  2103 net.cpp:137] Memory required for data: 4140135168
I0726 19:52:39.062014  2103 layer_factory.hpp:77] Creating layer relu5_1/expand
I0726 19:52:39.062019  2103 net.cpp:84] Creating Layer relu5_1/expand
I0726 19:52:39.062022  2103 net.cpp:406] relu5_1/expand <- conv5_1/expand/bn
I0726 19:52:39.062026  2103 net.cpp:367] relu5_1/expand -> conv5_1/expand/bn (in-place)
I0726 19:52:39.062438  2103 net.cpp:122] Setting up relu5_1/expand
I0726 19:52:39.062445  2103 net.cpp:129] Top shape: 32 576 14 14 (3612672)
I0726 19:52:39.062448  2103 net.cpp:137] Memory required for data: 4154585856
I0726 19:52:39.062451  2103 layer_factory.hpp:77] Creating layer conv5_1/dwise
I0726 19:52:39.062459  2103 net.cpp:84] Creating Layer conv5_1/dwise
I0726 19:52:39.062463  2103 net.cpp:406] conv5_1/dwise <- conv5_1/expand/bn
I0726 19:52:39.062467  2103 net.cpp:380] conv5_1/dwise -> conv5_1/dwise
I0726 19:52:39.062737  2103 net.cpp:122] Setting up conv5_1/dwise
I0726 19:52:39.062743  2103 net.cpp:129] Top shape: 32 576 14 14 (3612672)
I0726 19:52:39.062746  2103 net.cpp:137] Memory required for data: 4169036544
I0726 19:52:39.062749  2103 layer_factory.hpp:77] Creating layer conv5_1/dwise/bn
I0726 19:52:39.062757  2103 net.cpp:84] Creating Layer conv5_1/dwise/bn
I0726 19:52:39.062758  2103 net.cpp:406] conv5_1/dwise/bn <- conv5_1/dwise
I0726 19:52:39.062763  2103 net.cpp:380] conv5_1/dwise/bn -> conv5_1/dwise/bn
I0726 19:52:39.062978  2103 net.cpp:122] Setting up conv5_1/dwise/bn
I0726 19:52:39.062983  2103 net.cpp:129] Top shape: 32 576 14 14 (3612672)
I0726 19:52:39.062986  2103 net.cpp:137] Memory required for data: 4183487232
I0726 19:52:39.062993  2103 layer_factory.hpp:77] Creating layer conv5_1/dwise/scale
I0726 19:52:39.062997  2103 net.cpp:84] Creating Layer conv5_1/dwise/scale
I0726 19:52:39.062999  2103 net.cpp:406] conv5_1/dwise/scale <- conv5_1/dwise/bn
I0726 19:52:39.063004  2103 net.cpp:367] conv5_1/dwise/scale -> conv5_1/dwise/bn (in-place)
I0726 19:52:39.063046  2103 layer_factory.hpp:77] Creating layer conv5_1/dwise/scale
I0726 19:52:39.063172  2103 net.cpp:122] Setting up conv5_1/dwise/scale
I0726 19:52:39.063180  2103 net.cpp:129] Top shape: 32 576 14 14 (3612672)
I0726 19:52:39.063184  2103 net.cpp:137] Memory required for data: 4197937920
I0726 19:52:39.063189  2103 layer_factory.hpp:77] Creating layer relu5_1/dwise
I0726 19:52:39.063194  2103 net.cpp:84] Creating Layer relu5_1/dwise
I0726 19:52:39.063199  2103 net.cpp:406] relu5_1/dwise <- conv5_1/dwise/bn
I0726 19:52:39.063203  2103 net.cpp:367] relu5_1/dwise -> conv5_1/dwise/bn (in-place)
I0726 19:52:39.063611  2103 net.cpp:122] Setting up relu5_1/dwise
I0726 19:52:39.063621  2103 net.cpp:129] Top shape: 32 576 14 14 (3612672)
I0726 19:52:39.063623  2103 net.cpp:137] Memory required for data: 4212388608
I0726 19:52:39.063627  2103 layer_factory.hpp:77] Creating layer conv5_1/linear
I0726 19:52:39.063634  2103 net.cpp:84] Creating Layer conv5_1/linear
I0726 19:52:39.063639  2103 net.cpp:406] conv5_1/linear <- conv5_1/dwise/bn
I0726 19:52:39.063645  2103 net.cpp:380] conv5_1/linear -> conv5_1/linear
I0726 19:52:39.065742  2103 net.cpp:122] Setting up conv5_1/linear
I0726 19:52:39.065754  2103 net.cpp:129] Top shape: 32 96 14 14 (602112)
I0726 19:52:39.065757  2103 net.cpp:137] Memory required for data: 4214797056
I0726 19:52:39.065762  2103 layer_factory.hpp:77] Creating layer conv5_1/linear/bn
I0726 19:52:39.065780  2103 net.cpp:84] Creating Layer conv5_1/linear/bn
I0726 19:52:39.065784  2103 net.cpp:406] conv5_1/linear/bn <- conv5_1/linear
I0726 19:52:39.065789  2103 net.cpp:380] conv5_1/linear/bn -> conv5_1/linear/bn
I0726 19:52:39.066015  2103 net.cpp:122] Setting up conv5_1/linear/bn
I0726 19:52:39.066022  2103 net.cpp:129] Top shape: 32 96 14 14 (602112)
I0726 19:52:39.066025  2103 net.cpp:137] Memory required for data: 4217205504
I0726 19:52:39.066030  2103 layer_factory.hpp:77] Creating layer conv5_1/linear/scale
I0726 19:52:39.066038  2103 net.cpp:84] Creating Layer conv5_1/linear/scale
I0726 19:52:39.066043  2103 net.cpp:406] conv5_1/linear/scale <- conv5_1/linear/bn
I0726 19:52:39.066048  2103 net.cpp:367] conv5_1/linear/scale -> conv5_1/linear/bn (in-place)
I0726 19:52:39.066098  2103 layer_factory.hpp:77] Creating layer conv5_1/linear/scale
I0726 19:52:39.066233  2103 net.cpp:122] Setting up conv5_1/linear/scale
I0726 19:52:39.066238  2103 net.cpp:129] Top shape: 32 96 14 14 (602112)
I0726 19:52:39.066241  2103 net.cpp:137] Memory required for data: 4219613952
I0726 19:52:39.066246  2103 layer_factory.hpp:77] Creating layer block_5_1
I0726 19:52:39.066251  2103 net.cpp:84] Creating Layer block_5_1
I0726 19:52:39.066254  2103 net.cpp:406] block_5_1 <- conv4_7/linear/bn_conv4_7/linear/scale_0_split_1
I0726 19:52:39.066257  2103 net.cpp:406] block_5_1 <- conv5_1/linear/bn
I0726 19:52:39.066262  2103 net.cpp:380] block_5_1 -> block_5_1
I0726 19:52:39.066285  2103 net.cpp:122] Setting up block_5_1
I0726 19:52:39.066290  2103 net.cpp:129] Top shape: 32 96 14 14 (602112)
I0726 19:52:39.066293  2103 net.cpp:137] Memory required for data: 4222022400
I0726 19:52:39.066295  2103 layer_factory.hpp:77] Creating layer block_5_1_block_5_1_0_split
I0726 19:52:39.066299  2103 net.cpp:84] Creating Layer block_5_1_block_5_1_0_split
I0726 19:52:39.066303  2103 net.cpp:406] block_5_1_block_5_1_0_split <- block_5_1
I0726 19:52:39.066306  2103 net.cpp:380] block_5_1_block_5_1_0_split -> block_5_1_block_5_1_0_split_0
I0726 19:52:39.066311  2103 net.cpp:380] block_5_1_block_5_1_0_split -> block_5_1_block_5_1_0_split_1
I0726 19:52:39.066344  2103 net.cpp:122] Setting up block_5_1_block_5_1_0_split
I0726 19:52:39.066349  2103 net.cpp:129] Top shape: 32 96 14 14 (602112)
I0726 19:52:39.066351  2103 net.cpp:129] Top shape: 32 96 14 14 (602112)
I0726 19:52:39.066354  2103 net.cpp:137] Memory required for data: 4226839296
I0726 19:52:39.066355  2103 layer_factory.hpp:77] Creating layer conv5_2/expand
I0726 19:52:39.066363  2103 net.cpp:84] Creating Layer conv5_2/expand
I0726 19:52:39.066366  2103 net.cpp:406] conv5_2/expand <- block_5_1_block_5_1_0_split_0
I0726 19:52:39.066370  2103 net.cpp:380] conv5_2/expand -> conv5_2/expand
I0726 19:52:39.068549  2103 net.cpp:122] Setting up conv5_2/expand
I0726 19:52:39.068562  2103 net.cpp:129] Top shape: 32 576 14 14 (3612672)
I0726 19:52:39.068564  2103 net.cpp:137] Memory required for data: 4241289984
I0726 19:52:39.068569  2103 layer_factory.hpp:77] Creating layer conv5_2/expand/bn
I0726 19:52:39.068588  2103 net.cpp:84] Creating Layer conv5_2/expand/bn
I0726 19:52:39.068593  2103 net.cpp:406] conv5_2/expand/bn <- conv5_2/expand
I0726 19:52:39.068598  2103 net.cpp:380] conv5_2/expand/bn -> conv5_2/expand/bn
I0726 19:52:39.068861  2103 net.cpp:122] Setting up conv5_2/expand/bn
I0726 19:52:39.068876  2103 net.cpp:129] Top shape: 32 576 14 14 (3612672)
I0726 19:52:39.068878  2103 net.cpp:137] Memory required for data: 4255740672
I0726 19:52:39.068884  2103 layer_factory.hpp:77] Creating layer conv5_2/expand/scale
I0726 19:52:39.068889  2103 net.cpp:84] Creating Layer conv5_2/expand/scale
I0726 19:52:39.068892  2103 net.cpp:406] conv5_2/expand/scale <- conv5_2/expand/bn
I0726 19:52:39.068897  2103 net.cpp:367] conv5_2/expand/scale -> conv5_2/expand/bn (in-place)
I0726 19:52:39.068941  2103 layer_factory.hpp:77] Creating layer conv5_2/expand/scale
I0726 19:52:39.069072  2103 net.cpp:122] Setting up conv5_2/expand/scale
I0726 19:52:39.069078  2103 net.cpp:129] Top shape: 32 576 14 14 (3612672)
I0726 19:52:39.069080  2103 net.cpp:137] Memory required for data: 4270191360
I0726 19:52:39.069085  2103 layer_factory.hpp:77] Creating layer relu5_2/expand
I0726 19:52:39.069090  2103 net.cpp:84] Creating Layer relu5_2/expand
I0726 19:52:39.069093  2103 net.cpp:406] relu5_2/expand <- conv5_2/expand/bn
I0726 19:52:39.069097  2103 net.cpp:367] relu5_2/expand -> conv5_2/expand/bn (in-place)
I0726 19:52:39.069689  2103 net.cpp:122] Setting up relu5_2/expand
I0726 19:52:39.069700  2103 net.cpp:129] Top shape: 32 576 14 14 (3612672)
I0726 19:52:39.069702  2103 net.cpp:137] Memory required for data: 4284642048
I0726 19:52:39.069705  2103 layer_factory.hpp:77] Creating layer conv5_2/dwise
I0726 19:52:39.069712  2103 net.cpp:84] Creating Layer conv5_2/dwise
I0726 19:52:39.069715  2103 net.cpp:406] conv5_2/dwise <- conv5_2/expand/bn
I0726 19:52:39.069721  2103 net.cpp:380] conv5_2/dwise -> conv5_2/dwise
I0726 19:52:39.069984  2103 net.cpp:122] Setting up conv5_2/dwise
I0726 19:52:39.069990  2103 net.cpp:129] Top shape: 32 576 14 14 (3612672)
I0726 19:52:39.069993  2103 net.cpp:137] Memory required for data: 4299092736
I0726 19:52:39.069998  2103 layer_factory.hpp:77] Creating layer conv5_2/dwise/bn
I0726 19:52:39.070003  2103 net.cpp:84] Creating Layer conv5_2/dwise/bn
I0726 19:52:39.070005  2103 net.cpp:406] conv5_2/dwise/bn <- conv5_2/dwise
I0726 19:52:39.070009  2103 net.cpp:380] conv5_2/dwise/bn -> conv5_2/dwise/bn
I0726 19:52:39.070225  2103 net.cpp:122] Setting up conv5_2/dwise/bn
I0726 19:52:39.070230  2103 net.cpp:129] Top shape: 32 576 14 14 (3612672)
I0726 19:52:39.070232  2103 net.cpp:137] Memory required for data: 4313543424
I0726 19:52:39.070237  2103 layer_factory.hpp:77] Creating layer conv5_2/dwise/scale
I0726 19:52:39.070243  2103 net.cpp:84] Creating Layer conv5_2/dwise/scale
I0726 19:52:39.070246  2103 net.cpp:406] conv5_2/dwise/scale <- conv5_2/dwise/bn
I0726 19:52:39.070251  2103 net.cpp:367] conv5_2/dwise/scale -> conv5_2/dwise/bn (in-place)
I0726 19:52:39.070293  2103 layer_factory.hpp:77] Creating layer conv5_2/dwise/scale
I0726 19:52:39.070415  2103 net.cpp:122] Setting up conv5_2/dwise/scale
I0726 19:52:39.070420  2103 net.cpp:129] Top shape: 32 576 14 14 (3612672)
I0726 19:52:39.070422  2103 net.cpp:137] Memory required for data: 4327994112
I0726 19:52:39.070427  2103 layer_factory.hpp:77] Creating layer relu5_2/dwise
I0726 19:52:39.070431  2103 net.cpp:84] Creating Layer relu5_2/dwise
I0726 19:52:39.070435  2103 net.cpp:406] relu5_2/dwise <- conv5_2/dwise/bn
I0726 19:52:39.070439  2103 net.cpp:367] relu5_2/dwise -> conv5_2/dwise/bn (in-place)
I0726 19:52:39.070869  2103 net.cpp:122] Setting up relu5_2/dwise
I0726 19:52:39.070878  2103 net.cpp:129] Top shape: 32 576 14 14 (3612672)
I0726 19:52:39.070880  2103 net.cpp:137] Memory required for data: 4342444800
I0726 19:52:39.070883  2103 layer_factory.hpp:77] Creating layer conv5_2/linear
I0726 19:52:39.070891  2103 net.cpp:84] Creating Layer conv5_2/linear
I0726 19:52:39.070894  2103 net.cpp:406] conv5_2/linear <- conv5_2/dwise/bn
I0726 19:52:39.070901  2103 net.cpp:380] conv5_2/linear -> conv5_2/linear
I0726 19:52:39.073294  2103 net.cpp:122] Setting up conv5_2/linear
I0726 19:52:39.073307  2103 net.cpp:129] Top shape: 32 96 14 14 (602112)
I0726 19:52:39.073310  2103 net.cpp:137] Memory required for data: 4344853248
I0726 19:52:39.073315  2103 layer_factory.hpp:77] Creating layer conv5_2/linear/bn
I0726 19:52:39.073323  2103 net.cpp:84] Creating Layer conv5_2/linear/bn
I0726 19:52:39.073329  2103 net.cpp:406] conv5_2/linear/bn <- conv5_2/linear
I0726 19:52:39.073334  2103 net.cpp:380] conv5_2/linear/bn -> conv5_2/linear/bn
I0726 19:52:39.073601  2103 net.cpp:122] Setting up conv5_2/linear/bn
I0726 19:52:39.073606  2103 net.cpp:129] Top shape: 32 96 14 14 (602112)
I0726 19:52:39.073609  2103 net.cpp:137] Memory required for data: 4347261696
I0726 19:52:39.073616  2103 layer_factory.hpp:77] Creating layer conv5_2/linear/scale
I0726 19:52:39.073621  2103 net.cpp:84] Creating Layer conv5_2/linear/scale
I0726 19:52:39.073624  2103 net.cpp:406] conv5_2/linear/scale <- conv5_2/linear/bn
I0726 19:52:39.073629  2103 net.cpp:367] conv5_2/linear/scale -> conv5_2/linear/bn (in-place)
I0726 19:52:39.073676  2103 layer_factory.hpp:77] Creating layer conv5_2/linear/scale
I0726 19:52:39.073812  2103 net.cpp:122] Setting up conv5_2/linear/scale
I0726 19:52:39.073817  2103 net.cpp:129] Top shape: 32 96 14 14 (602112)
I0726 19:52:39.073819  2103 net.cpp:137] Memory required for data: 4349670144
I0726 19:52:39.073824  2103 layer_factory.hpp:77] Creating layer block_5_2
I0726 19:52:39.073830  2103 net.cpp:84] Creating Layer block_5_2
I0726 19:52:39.073833  2103 net.cpp:406] block_5_2 <- block_5_1_block_5_1_0_split_1
I0726 19:52:39.073837  2103 net.cpp:406] block_5_2 <- conv5_2/linear/bn
I0726 19:52:39.073840  2103 net.cpp:380] block_5_2 -> block_5_2
I0726 19:52:39.073864  2103 net.cpp:122] Setting up block_5_2
I0726 19:52:39.073869  2103 net.cpp:129] Top shape: 32 96 14 14 (602112)
I0726 19:52:39.073871  2103 net.cpp:137] Memory required for data: 4352078592
I0726 19:52:39.073874  2103 layer_factory.hpp:77] Creating layer conv5_3/expand
I0726 19:52:39.073880  2103 net.cpp:84] Creating Layer conv5_3/expand
I0726 19:52:39.073884  2103 net.cpp:406] conv5_3/expand <- block_5_2
I0726 19:52:39.073887  2103 net.cpp:380] conv5_3/expand -> conv5_3/expand
I0726 19:52:39.076146  2103 net.cpp:122] Setting up conv5_3/expand
I0726 19:52:39.076159  2103 net.cpp:129] Top shape: 32 576 14 14 (3612672)
I0726 19:52:39.076162  2103 net.cpp:137] Memory required for data: 4366529280
I0726 19:52:39.076167  2103 layer_factory.hpp:77] Creating layer conv5_3/expand/bn
I0726 19:52:39.076174  2103 net.cpp:84] Creating Layer conv5_3/expand/bn
I0726 19:52:39.076177  2103 net.cpp:406] conv5_3/expand/bn <- conv5_3/expand
I0726 19:52:39.076184  2103 net.cpp:380] conv5_3/expand/bn -> conv5_3/expand/bn
I0726 19:52:39.076416  2103 net.cpp:122] Setting up conv5_3/expand/bn
I0726 19:52:39.076423  2103 net.cpp:129] Top shape: 32 576 14 14 (3612672)
I0726 19:52:39.076426  2103 net.cpp:137] Memory required for data: 4380979968
I0726 19:52:39.076432  2103 layer_factory.hpp:77] Creating layer conv5_3/expand/scale
I0726 19:52:39.076439  2103 net.cpp:84] Creating Layer conv5_3/expand/scale
I0726 19:52:39.076442  2103 net.cpp:406] conv5_3/expand/scale <- conv5_3/expand/bn
I0726 19:52:39.076447  2103 net.cpp:367] conv5_3/expand/scale -> conv5_3/expand/bn (in-place)
I0726 19:52:39.076491  2103 layer_factory.hpp:77] Creating layer conv5_3/expand/scale
I0726 19:52:39.076614  2103 net.cpp:122] Setting up conv5_3/expand/scale
I0726 19:52:39.076622  2103 net.cpp:129] Top shape: 32 576 14 14 (3612672)
I0726 19:52:39.076625  2103 net.cpp:137] Memory required for data: 4395430656
I0726 19:52:39.076629  2103 layer_factory.hpp:77] Creating layer relu5_3/expand
I0726 19:52:39.076634  2103 net.cpp:84] Creating Layer relu5_3/expand
I0726 19:52:39.076637  2103 net.cpp:406] relu5_3/expand <- conv5_3/expand/bn
I0726 19:52:39.076642  2103 net.cpp:367] relu5_3/expand -> conv5_3/expand/bn (in-place)
I0726 19:52:39.077044  2103 net.cpp:122] Setting up relu5_3/expand
I0726 19:52:39.077054  2103 net.cpp:129] Top shape: 32 576 14 14 (3612672)
I0726 19:52:39.077056  2103 net.cpp:137] Memory required for data: 4409881344
I0726 19:52:39.077059  2103 layer_factory.hpp:77] Creating layer conv5_3/dwise
I0726 19:52:39.077066  2103 net.cpp:84] Creating Layer conv5_3/dwise
I0726 19:52:39.077071  2103 net.cpp:406] conv5_3/dwise <- conv5_3/expand/bn
I0726 19:52:39.077077  2103 net.cpp:380] conv5_3/dwise -> conv5_3/dwise
I0726 19:52:39.077335  2103 net.cpp:122] Setting up conv5_3/dwise
I0726 19:52:39.077342  2103 net.cpp:129] Top shape: 32 576 7 7 (903168)
I0726 19:52:39.077344  2103 net.cpp:137] Memory required for data: 4413494016
I0726 19:52:39.077348  2103 layer_factory.hpp:77] Creating layer conv5_3/dwise/bn
I0726 19:52:39.077353  2103 net.cpp:84] Creating Layer conv5_3/dwise/bn
I0726 19:52:39.077356  2103 net.cpp:406] conv5_3/dwise/bn <- conv5_3/dwise
I0726 19:52:39.077360  2103 net.cpp:380] conv5_3/dwise/bn -> conv5_3/dwise/bn
I0726 19:52:39.077603  2103 net.cpp:122] Setting up conv5_3/dwise/bn
I0726 19:52:39.077610  2103 net.cpp:129] Top shape: 32 576 7 7 (903168)
I0726 19:52:39.077612  2103 net.cpp:137] Memory required for data: 4417106688
I0726 19:52:39.077617  2103 layer_factory.hpp:77] Creating layer conv5_3/dwise/scale
I0726 19:52:39.077623  2103 net.cpp:84] Creating Layer conv5_3/dwise/scale
I0726 19:52:39.077626  2103 net.cpp:406] conv5_3/dwise/scale <- conv5_3/dwise/bn
I0726 19:52:39.077632  2103 net.cpp:367] conv5_3/dwise/scale -> conv5_3/dwise/bn (in-place)
I0726 19:52:39.077692  2103 layer_factory.hpp:77] Creating layer conv5_3/dwise/scale
I0726 19:52:39.077819  2103 net.cpp:122] Setting up conv5_3/dwise/scale
I0726 19:52:39.077824  2103 net.cpp:129] Top shape: 32 576 7 7 (903168)
I0726 19:52:39.077827  2103 net.cpp:137] Memory required for data: 4420719360
I0726 19:52:39.077831  2103 layer_factory.hpp:77] Creating layer relu5_3/dwise
I0726 19:52:39.077836  2103 net.cpp:84] Creating Layer relu5_3/dwise
I0726 19:52:39.077838  2103 net.cpp:406] relu5_3/dwise <- conv5_3/dwise/bn
I0726 19:52:39.077842  2103 net.cpp:367] relu5_3/dwise -> conv5_3/dwise/bn (in-place)
I0726 19:52:39.078227  2103 net.cpp:122] Setting up relu5_3/dwise
I0726 19:52:39.078233  2103 net.cpp:129] Top shape: 32 576 7 7 (903168)
I0726 19:52:39.078236  2103 net.cpp:137] Memory required for data: 4424332032
I0726 19:52:39.078239  2103 layer_factory.hpp:77] Creating layer conv5_3/linear
I0726 19:52:39.078246  2103 net.cpp:84] Creating Layer conv5_3/linear
I0726 19:52:39.078249  2103 net.cpp:406] conv5_3/linear <- conv5_3/dwise/bn
I0726 19:52:39.078255  2103 net.cpp:380] conv5_3/linear -> conv5_3/linear
I0726 19:52:39.080838  2103 net.cpp:122] Setting up conv5_3/linear
I0726 19:52:39.080852  2103 net.cpp:129] Top shape: 32 160 7 7 (250880)
I0726 19:52:39.080854  2103 net.cpp:137] Memory required for data: 4425335552
I0726 19:52:39.080860  2103 layer_factory.hpp:77] Creating layer conv5_3/linear/bn
I0726 19:52:39.080868  2103 net.cpp:84] Creating Layer conv5_3/linear/bn
I0726 19:52:39.080873  2103 net.cpp:406] conv5_3/linear/bn <- conv5_3/linear
I0726 19:52:39.080878  2103 net.cpp:380] conv5_3/linear/bn -> conv5_3/linear/bn
I0726 19:52:39.081110  2103 net.cpp:122] Setting up conv5_3/linear/bn
I0726 19:52:39.081117  2103 net.cpp:129] Top shape: 32 160 7 7 (250880)
I0726 19:52:39.081120  2103 net.cpp:137] Memory required for data: 4426339072
I0726 19:52:39.081126  2103 layer_factory.hpp:77] Creating layer conv5_3/linear/scale
I0726 19:52:39.081135  2103 net.cpp:84] Creating Layer conv5_3/linear/scale
I0726 19:52:39.081137  2103 net.cpp:406] conv5_3/linear/scale <- conv5_3/linear/bn
I0726 19:52:39.081143  2103 net.cpp:367] conv5_3/linear/scale -> conv5_3/linear/bn (in-place)
I0726 19:52:39.081185  2103 layer_factory.hpp:77] Creating layer conv5_3/linear/scale
I0726 19:52:39.081305  2103 net.cpp:122] Setting up conv5_3/linear/scale
I0726 19:52:39.081310  2103 net.cpp:129] Top shape: 32 160 7 7 (250880)
I0726 19:52:39.081312  2103 net.cpp:137] Memory required for data: 4427342592
I0726 19:52:39.081341  2103 layer_factory.hpp:77] Creating layer conv5_3/linear/bn_conv5_3/linear/scale_0_split
I0726 19:52:39.081347  2103 net.cpp:84] Creating Layer conv5_3/linear/bn_conv5_3/linear/scale_0_split
I0726 19:52:39.081351  2103 net.cpp:406] conv5_3/linear/bn_conv5_3/linear/scale_0_split <- conv5_3/linear/bn
I0726 19:52:39.081354  2103 net.cpp:380] conv5_3/linear/bn_conv5_3/linear/scale_0_split -> conv5_3/linear/bn_conv5_3/linear/scale_0_split_0
I0726 19:52:39.081359  2103 net.cpp:380] conv5_3/linear/bn_conv5_3/linear/scale_0_split -> conv5_3/linear/bn_conv5_3/linear/scale_0_split_1
I0726 19:52:39.081398  2103 net.cpp:122] Setting up conv5_3/linear/bn_conv5_3/linear/scale_0_split
I0726 19:52:39.081403  2103 net.cpp:129] Top shape: 32 160 7 7 (250880)
I0726 19:52:39.081408  2103 net.cpp:129] Top shape: 32 160 7 7 (250880)
I0726 19:52:39.081409  2103 net.cpp:137] Memory required for data: 4429349632
I0726 19:52:39.081413  2103 layer_factory.hpp:77] Creating layer conv6_1/expand
I0726 19:52:39.081418  2103 net.cpp:84] Creating Layer conv6_1/expand
I0726 19:52:39.081421  2103 net.cpp:406] conv6_1/expand <- conv5_3/linear/bn_conv5_3/linear/scale_0_split_0
I0726 19:52:39.081425  2103 net.cpp:380] conv6_1/expand -> conv6_1/expand
I0726 19:52:39.084419  2103 net.cpp:122] Setting up conv6_1/expand
I0726 19:52:39.084432  2103 net.cpp:129] Top shape: 32 960 7 7 (1505280)
I0726 19:52:39.084435  2103 net.cpp:137] Memory required for data: 4435370752
I0726 19:52:39.084441  2103 layer_factory.hpp:77] Creating layer conv6_1/expand/bn
I0726 19:52:39.084448  2103 net.cpp:84] Creating Layer conv6_1/expand/bn
I0726 19:52:39.084452  2103 net.cpp:406] conv6_1/expand/bn <- conv6_1/expand
I0726 19:52:39.084460  2103 net.cpp:380] conv6_1/expand/bn -> conv6_1/expand/bn
I0726 19:52:39.084787  2103 net.cpp:122] Setting up conv6_1/expand/bn
I0726 19:52:39.084795  2103 net.cpp:129] Top shape: 32 960 7 7 (1505280)
I0726 19:52:39.084798  2103 net.cpp:137] Memory required for data: 4441391872
I0726 19:52:39.084805  2103 layer_factory.hpp:77] Creating layer conv6_1/expand/scale
I0726 19:52:39.084810  2103 net.cpp:84] Creating Layer conv6_1/expand/scale
I0726 19:52:39.084812  2103 net.cpp:406] conv6_1/expand/scale <- conv6_1/expand/bn
I0726 19:52:39.084816  2103 net.cpp:367] conv6_1/expand/scale -> conv6_1/expand/bn (in-place)
I0726 19:52:39.084863  2103 layer_factory.hpp:77] Creating layer conv6_1/expand/scale
I0726 19:52:39.084985  2103 net.cpp:122] Setting up conv6_1/expand/scale
I0726 19:52:39.084991  2103 net.cpp:129] Top shape: 32 960 7 7 (1505280)
I0726 19:52:39.084993  2103 net.cpp:137] Memory required for data: 4447412992
I0726 19:52:39.084998  2103 layer_factory.hpp:77] Creating layer relu6_1/expand
I0726 19:52:39.085002  2103 net.cpp:84] Creating Layer relu6_1/expand
I0726 19:52:39.085005  2103 net.cpp:406] relu6_1/expand <- conv6_1/expand/bn
I0726 19:52:39.085011  2103 net.cpp:367] relu6_1/expand -> conv6_1/expand/bn (in-place)
I0726 19:52:39.085595  2103 net.cpp:122] Setting up relu6_1/expand
I0726 19:52:39.085606  2103 net.cpp:129] Top shape: 32 960 7 7 (1505280)
I0726 19:52:39.085609  2103 net.cpp:137] Memory required for data: 4453434112
I0726 19:52:39.085613  2103 layer_factory.hpp:77] Creating layer conv6_1/dwise
I0726 19:52:39.085620  2103 net.cpp:84] Creating Layer conv6_1/dwise
I0726 19:52:39.085623  2103 net.cpp:406] conv6_1/dwise <- conv6_1/expand/bn
I0726 19:52:39.085628  2103 net.cpp:380] conv6_1/dwise -> conv6_1/dwise
I0726 19:52:39.085922  2103 net.cpp:122] Setting up conv6_1/dwise
I0726 19:52:39.085929  2103 net.cpp:129] Top shape: 32 960 7 7 (1505280)
I0726 19:52:39.085932  2103 net.cpp:137] Memory required for data: 4459455232
I0726 19:52:39.085937  2103 layer_factory.hpp:77] Creating layer conv6_1/dwise/bn
I0726 19:52:39.085942  2103 net.cpp:84] Creating Layer conv6_1/dwise/bn
I0726 19:52:39.085945  2103 net.cpp:406] conv6_1/dwise/bn <- conv6_1/dwise
I0726 19:52:39.085949  2103 net.cpp:380] conv6_1/dwise/bn -> conv6_1/dwise/bn
I0726 19:52:39.086172  2103 net.cpp:122] Setting up conv6_1/dwise/bn
I0726 19:52:39.086177  2103 net.cpp:129] Top shape: 32 960 7 7 (1505280)
I0726 19:52:39.086180  2103 net.cpp:137] Memory required for data: 4465476352
I0726 19:52:39.086186  2103 layer_factory.hpp:77] Creating layer conv6_1/dwise/scale
I0726 19:52:39.086191  2103 net.cpp:84] Creating Layer conv6_1/dwise/scale
I0726 19:52:39.086194  2103 net.cpp:406] conv6_1/dwise/scale <- conv6_1/dwise/bn
I0726 19:52:39.086199  2103 net.cpp:367] conv6_1/dwise/scale -> conv6_1/dwise/bn (in-place)
I0726 19:52:39.086243  2103 layer_factory.hpp:77] Creating layer conv6_1/dwise/scale
I0726 19:52:39.086367  2103 net.cpp:122] Setting up conv6_1/dwise/scale
I0726 19:52:39.086374  2103 net.cpp:129] Top shape: 32 960 7 7 (1505280)
I0726 19:52:39.086375  2103 net.cpp:137] Memory required for data: 4471497472
I0726 19:52:39.086380  2103 layer_factory.hpp:77] Creating layer relu6_1/dwise
I0726 19:52:39.086385  2103 net.cpp:84] Creating Layer relu6_1/dwise
I0726 19:52:39.086388  2103 net.cpp:406] relu6_1/dwise <- conv6_1/dwise/bn
I0726 19:52:39.086392  2103 net.cpp:367] relu6_1/dwise -> conv6_1/dwise/bn (in-place)
I0726 19:52:39.086804  2103 net.cpp:122] Setting up relu6_1/dwise
I0726 19:52:39.086812  2103 net.cpp:129] Top shape: 32 960 7 7 (1505280)
I0726 19:52:39.086815  2103 net.cpp:137] Memory required for data: 4477518592
I0726 19:52:39.086818  2103 layer_factory.hpp:77] Creating layer conv6_1/linear
I0726 19:52:39.086827  2103 net.cpp:84] Creating Layer conv6_1/linear
I0726 19:52:39.086829  2103 net.cpp:406] conv6_1/linear <- conv6_1/dwise/bn
I0726 19:52:39.086834  2103 net.cpp:380] conv6_1/linear -> conv6_1/linear
I0726 19:52:39.090661  2103 net.cpp:122] Setting up conv6_1/linear
I0726 19:52:39.090690  2103 net.cpp:129] Top shape: 32 160 7 7 (250880)
I0726 19:52:39.090694  2103 net.cpp:137] Memory required for data: 4478522112
I0726 19:52:39.090711  2103 layer_factory.hpp:77] Creating layer conv6_1/linear/bn
I0726 19:52:39.090723  2103 net.cpp:84] Creating Layer conv6_1/linear/bn
I0726 19:52:39.090730  2103 net.cpp:406] conv6_1/linear/bn <- conv6_1/linear
I0726 19:52:39.090737  2103 net.cpp:380] conv6_1/linear/bn -> conv6_1/linear/bn
I0726 19:52:39.090987  2103 net.cpp:122] Setting up conv6_1/linear/bn
I0726 19:52:39.090997  2103 net.cpp:129] Top shape: 32 160 7 7 (250880)
I0726 19:52:39.091001  2103 net.cpp:137] Memory required for data: 4479525632
I0726 19:52:39.091006  2103 layer_factory.hpp:77] Creating layer conv6_1/linear/scale
I0726 19:52:39.091013  2103 net.cpp:84] Creating Layer conv6_1/linear/scale
I0726 19:52:39.091017  2103 net.cpp:406] conv6_1/linear/scale <- conv6_1/linear/bn
I0726 19:52:39.091022  2103 net.cpp:367] conv6_1/linear/scale -> conv6_1/linear/bn (in-place)
I0726 19:52:39.091068  2103 layer_factory.hpp:77] Creating layer conv6_1/linear/scale
I0726 19:52:39.091240  2103 net.cpp:122] Setting up conv6_1/linear/scale
I0726 19:52:39.091250  2103 net.cpp:129] Top shape: 32 160 7 7 (250880)
I0726 19:52:39.091253  2103 net.cpp:137] Memory required for data: 4480529152
I0726 19:52:39.091259  2103 layer_factory.hpp:77] Creating layer block_6_1
I0726 19:52:39.091265  2103 net.cpp:84] Creating Layer block_6_1
I0726 19:52:39.091271  2103 net.cpp:406] block_6_1 <- conv5_3/linear/bn_conv5_3/linear/scale_0_split_1
I0726 19:52:39.091274  2103 net.cpp:406] block_6_1 <- conv6_1/linear/bn
I0726 19:52:39.091279  2103 net.cpp:380] block_6_1 -> block_6_1
I0726 19:52:39.091308  2103 net.cpp:122] Setting up block_6_1
I0726 19:52:39.091315  2103 net.cpp:129] Top shape: 32 160 7 7 (250880)
I0726 19:52:39.091316  2103 net.cpp:137] Memory required for data: 4481532672
I0726 19:52:39.091320  2103 layer_factory.hpp:77] Creating layer block_6_1_block_6_1_0_split
I0726 19:52:39.091325  2103 net.cpp:84] Creating Layer block_6_1_block_6_1_0_split
I0726 19:52:39.091328  2103 net.cpp:406] block_6_1_block_6_1_0_split <- block_6_1
I0726 19:52:39.091333  2103 net.cpp:380] block_6_1_block_6_1_0_split -> block_6_1_block_6_1_0_split_0
I0726 19:52:39.091338  2103 net.cpp:380] block_6_1_block_6_1_0_split -> block_6_1_block_6_1_0_split_1
I0726 19:52:39.091377  2103 net.cpp:122] Setting up block_6_1_block_6_1_0_split
I0726 19:52:39.091382  2103 net.cpp:129] Top shape: 32 160 7 7 (250880)
I0726 19:52:39.091384  2103 net.cpp:129] Top shape: 32 160 7 7 (250880)
I0726 19:52:39.091387  2103 net.cpp:137] Memory required for data: 4483539712
I0726 19:52:39.091389  2103 layer_factory.hpp:77] Creating layer conv6_2/expand
I0726 19:52:39.091398  2103 net.cpp:84] Creating Layer conv6_2/expand
I0726 19:52:39.091400  2103 net.cpp:406] conv6_2/expand <- block_6_1_block_6_1_0_split_0
I0726 19:52:39.091406  2103 net.cpp:380] conv6_2/expand -> conv6_2/expand
I0726 19:52:39.094606  2103 net.cpp:122] Setting up conv6_2/expand
I0726 19:52:39.094622  2103 net.cpp:129] Top shape: 32 960 7 7 (1505280)
I0726 19:52:39.094625  2103 net.cpp:137] Memory required for data: 4489560832
I0726 19:52:39.094631  2103 layer_factory.hpp:77] Creating layer conv6_2/expand/bn
I0726 19:52:39.094640  2103 net.cpp:84] Creating Layer conv6_2/expand/bn
I0726 19:52:39.094643  2103 net.cpp:406] conv6_2/expand/bn <- conv6_2/expand
I0726 19:52:39.094650  2103 net.cpp:380] conv6_2/expand/bn -> conv6_2/expand/bn
I0726 19:52:39.094883  2103 net.cpp:122] Setting up conv6_2/expand/bn
I0726 19:52:39.094890  2103 net.cpp:129] Top shape: 32 960 7 7 (1505280)
I0726 19:52:39.094892  2103 net.cpp:137] Memory required for data: 4495581952
I0726 19:52:39.094898  2103 layer_factory.hpp:77] Creating layer conv6_2/expand/scale
I0726 19:52:39.094904  2103 net.cpp:84] Creating Layer conv6_2/expand/scale
I0726 19:52:39.094907  2103 net.cpp:406] conv6_2/expand/scale <- conv6_2/expand/bn
I0726 19:52:39.094911  2103 net.cpp:367] conv6_2/expand/scale -> conv6_2/expand/bn (in-place)
I0726 19:52:39.094959  2103 layer_factory.hpp:77] Creating layer conv6_2/expand/scale
I0726 19:52:39.095079  2103 net.cpp:122] Setting up conv6_2/expand/scale
I0726 19:52:39.095085  2103 net.cpp:129] Top shape: 32 960 7 7 (1505280)
I0726 19:52:39.095088  2103 net.cpp:137] Memory required for data: 4501603072
I0726 19:52:39.095093  2103 layer_factory.hpp:77] Creating layer relu6_2/expand
I0726 19:52:39.095114  2103 net.cpp:84] Creating Layer relu6_2/expand
I0726 19:52:39.095118  2103 net.cpp:406] relu6_2/expand <- conv6_2/expand/bn
I0726 19:52:39.095124  2103 net.cpp:367] relu6_2/expand -> conv6_2/expand/bn (in-place)
I0726 19:52:39.095702  2103 net.cpp:122] Setting up relu6_2/expand
I0726 19:52:39.095722  2103 net.cpp:129] Top shape: 32 960 7 7 (1505280)
I0726 19:52:39.095724  2103 net.cpp:137] Memory required for data: 4507624192
I0726 19:52:39.095727  2103 layer_factory.hpp:77] Creating layer conv6_2/dwise
I0726 19:52:39.095746  2103 net.cpp:84] Creating Layer conv6_2/dwise
I0726 19:52:39.095759  2103 net.cpp:406] conv6_2/dwise <- conv6_2/expand/bn
I0726 19:52:39.095763  2103 net.cpp:380] conv6_2/dwise -> conv6_2/dwise
I0726 19:52:39.096117  2103 net.cpp:122] Setting up conv6_2/dwise
I0726 19:52:39.096124  2103 net.cpp:129] Top shape: 32 960 7 7 (1505280)
I0726 19:52:39.096137  2103 net.cpp:137] Memory required for data: 4513645312
I0726 19:52:39.096141  2103 layer_factory.hpp:77] Creating layer conv6_2/dwise/bn
I0726 19:52:39.096148  2103 net.cpp:84] Creating Layer conv6_2/dwise/bn
I0726 19:52:39.096149  2103 net.cpp:406] conv6_2/dwise/bn <- conv6_2/dwise
I0726 19:52:39.096155  2103 net.cpp:380] conv6_2/dwise/bn -> conv6_2/dwise/bn
I0726 19:52:39.096403  2103 net.cpp:122] Setting up conv6_2/dwise/bn
I0726 19:52:39.096410  2103 net.cpp:129] Top shape: 32 960 7 7 (1505280)
I0726 19:52:39.096412  2103 net.cpp:137] Memory required for data: 4519666432
I0726 19:52:39.096418  2103 layer_factory.hpp:77] Creating layer conv6_2/dwise/scale
I0726 19:52:39.096426  2103 net.cpp:84] Creating Layer conv6_2/dwise/scale
I0726 19:52:39.096431  2103 net.cpp:406] conv6_2/dwise/scale <- conv6_2/dwise/bn
I0726 19:52:39.096434  2103 net.cpp:367] conv6_2/dwise/scale -> conv6_2/dwise/bn (in-place)
I0726 19:52:39.096482  2103 layer_factory.hpp:77] Creating layer conv6_2/dwise/scale
I0726 19:52:39.096607  2103 net.cpp:122] Setting up conv6_2/dwise/scale
I0726 19:52:39.096614  2103 net.cpp:129] Top shape: 32 960 7 7 (1505280)
I0726 19:52:39.096617  2103 net.cpp:137] Memory required for data: 4525687552
I0726 19:52:39.096622  2103 layer_factory.hpp:77] Creating layer relu6_2/dwise
I0726 19:52:39.096630  2103 net.cpp:84] Creating Layer relu6_2/dwise
I0726 19:52:39.096633  2103 net.cpp:406] relu6_2/dwise <- conv6_2/dwise/bn
I0726 19:52:39.096637  2103 net.cpp:367] relu6_2/dwise -> conv6_2/dwise/bn (in-place)
I0726 19:52:39.097263  2103 net.cpp:122] Setting up relu6_2/dwise
I0726 19:52:39.097275  2103 net.cpp:129] Top shape: 32 960 7 7 (1505280)
I0726 19:52:39.097276  2103 net.cpp:137] Memory required for data: 4531708672
I0726 19:52:39.097280  2103 layer_factory.hpp:77] Creating layer conv6_2/linear
I0726 19:52:39.097290  2103 net.cpp:84] Creating Layer conv6_2/linear
I0726 19:52:39.097295  2103 net.cpp:406] conv6_2/linear <- conv6_2/dwise/bn
I0726 19:52:39.097302  2103 net.cpp:380] conv6_2/linear -> conv6_2/linear
I0726 19:52:39.100549  2103 net.cpp:122] Setting up conv6_2/linear
I0726 19:52:39.100563  2103 net.cpp:129] Top shape: 32 160 7 7 (250880)
I0726 19:52:39.100565  2103 net.cpp:137] Memory required for data: 4532712192
I0726 19:52:39.100571  2103 layer_factory.hpp:77] Creating layer conv6_2/linear/bn
I0726 19:52:39.100579  2103 net.cpp:84] Creating Layer conv6_2/linear/bn
I0726 19:52:39.100584  2103 net.cpp:406] conv6_2/linear/bn <- conv6_2/linear
I0726 19:52:39.100589  2103 net.cpp:380] conv6_2/linear/bn -> conv6_2/linear/bn
I0726 19:52:39.100865  2103 net.cpp:122] Setting up conv6_2/linear/bn
I0726 19:52:39.100874  2103 net.cpp:129] Top shape: 32 160 7 7 (250880)
I0726 19:52:39.100878  2103 net.cpp:137] Memory required for data: 4533715712
I0726 19:52:39.100893  2103 layer_factory.hpp:77] Creating layer conv6_2/linear/scale
I0726 19:52:39.100900  2103 net.cpp:84] Creating Layer conv6_2/linear/scale
I0726 19:52:39.100903  2103 net.cpp:406] conv6_2/linear/scale <- conv6_2/linear/bn
I0726 19:52:39.100909  2103 net.cpp:367] conv6_2/linear/scale -> conv6_2/linear/bn (in-place)
I0726 19:52:39.100960  2103 layer_factory.hpp:77] Creating layer conv6_2/linear/scale
I0726 19:52:39.101078  2103 net.cpp:122] Setting up conv6_2/linear/scale
I0726 19:52:39.101084  2103 net.cpp:129] Top shape: 32 160 7 7 (250880)
I0726 19:52:39.101086  2103 net.cpp:137] Memory required for data: 4534719232
I0726 19:52:39.101091  2103 layer_factory.hpp:77] Creating layer block_6_2
I0726 19:52:39.101096  2103 net.cpp:84] Creating Layer block_6_2
I0726 19:52:39.101100  2103 net.cpp:406] block_6_2 <- block_6_1_block_6_1_0_split_1
I0726 19:52:39.101104  2103 net.cpp:406] block_6_2 <- conv6_2/linear/bn
I0726 19:52:39.101109  2103 net.cpp:380] block_6_2 -> block_6_2
I0726 19:52:39.101132  2103 net.cpp:122] Setting up block_6_2
I0726 19:52:39.101137  2103 net.cpp:129] Top shape: 32 160 7 7 (250880)
I0726 19:52:39.101140  2103 net.cpp:137] Memory required for data: 4535722752
I0726 19:52:39.101141  2103 layer_factory.hpp:77] Creating layer conv6_3/expand
I0726 19:52:39.101150  2103 net.cpp:84] Creating Layer conv6_3/expand
I0726 19:52:39.101152  2103 net.cpp:406] conv6_3/expand <- block_6_2
I0726 19:52:39.101156  2103 net.cpp:380] conv6_3/expand -> conv6_3/expand
I0726 19:52:39.104821  2103 net.cpp:122] Setting up conv6_3/expand
I0726 19:52:39.104836  2103 net.cpp:129] Top shape: 32 960 7 7 (1505280)
I0726 19:52:39.104840  2103 net.cpp:137] Memory required for data: 4541743872
I0726 19:52:39.104846  2103 layer_factory.hpp:77] Creating layer conv6_3/expand/bn
I0726 19:52:39.104852  2103 net.cpp:84] Creating Layer conv6_3/expand/bn
I0726 19:52:39.104858  2103 net.cpp:406] conv6_3/expand/bn <- conv6_3/expand
I0726 19:52:39.104866  2103 net.cpp:380] conv6_3/expand/bn -> conv6_3/expand/bn
I0726 19:52:39.105123  2103 net.cpp:122] Setting up conv6_3/expand/bn
I0726 19:52:39.105130  2103 net.cpp:129] Top shape: 32 960 7 7 (1505280)
I0726 19:52:39.105132  2103 net.cpp:137] Memory required for data: 4547764992
I0726 19:52:39.105139  2103 layer_factory.hpp:77] Creating layer conv6_3/expand/scale
I0726 19:52:39.105145  2103 net.cpp:84] Creating Layer conv6_3/expand/scale
I0726 19:52:39.105149  2103 net.cpp:406] conv6_3/expand/scale <- conv6_3/expand/bn
I0726 19:52:39.105154  2103 net.cpp:367] conv6_3/expand/scale -> conv6_3/expand/bn (in-place)
I0726 19:52:39.105201  2103 layer_factory.hpp:77] Creating layer conv6_3/expand/scale
I0726 19:52:39.105329  2103 net.cpp:122] Setting up conv6_3/expand/scale
I0726 19:52:39.105335  2103 net.cpp:129] Top shape: 32 960 7 7 (1505280)
I0726 19:52:39.105337  2103 net.cpp:137] Memory required for data: 4553786112
I0726 19:52:39.105342  2103 layer_factory.hpp:77] Creating layer relu6_3/expand
I0726 19:52:39.105347  2103 net.cpp:84] Creating Layer relu6_3/expand
I0726 19:52:39.105350  2103 net.cpp:406] relu6_3/expand <- conv6_3/expand/bn
I0726 19:52:39.105355  2103 net.cpp:367] relu6_3/expand -> conv6_3/expand/bn (in-place)
I0726 19:52:39.105772  2103 net.cpp:122] Setting up relu6_3/expand
I0726 19:52:39.105782  2103 net.cpp:129] Top shape: 32 960 7 7 (1505280)
I0726 19:52:39.105783  2103 net.cpp:137] Memory required for data: 4559807232
I0726 19:52:39.105787  2103 layer_factory.hpp:77] Creating layer conv6_3/dwise
I0726 19:52:39.105794  2103 net.cpp:84] Creating Layer conv6_3/dwise
I0726 19:52:39.105798  2103 net.cpp:406] conv6_3/dwise <- conv6_3/expand/bn
I0726 19:52:39.105803  2103 net.cpp:380] conv6_3/dwise -> conv6_3/dwise
I0726 19:52:39.106091  2103 net.cpp:122] Setting up conv6_3/dwise
I0726 19:52:39.106096  2103 net.cpp:129] Top shape: 32 960 7 7 (1505280)
I0726 19:52:39.106098  2103 net.cpp:137] Memory required for data: 4565828352
I0726 19:52:39.106102  2103 layer_factory.hpp:77] Creating layer conv6_3/dwise/bn
I0726 19:52:39.106109  2103 net.cpp:84] Creating Layer conv6_3/dwise/bn
I0726 19:52:39.106112  2103 net.cpp:406] conv6_3/dwise/bn <- conv6_3/dwise
I0726 19:52:39.106117  2103 net.cpp:380] conv6_3/dwise/bn -> conv6_3/dwise/bn
I0726 19:52:39.106336  2103 net.cpp:122] Setting up conv6_3/dwise/bn
I0726 19:52:39.106341  2103 net.cpp:129] Top shape: 32 960 7 7 (1505280)
I0726 19:52:39.106343  2103 net.cpp:137] Memory required for data: 4571849472
I0726 19:52:39.106349  2103 layer_factory.hpp:77] Creating layer conv6_3/dwise/scale
I0726 19:52:39.106354  2103 net.cpp:84] Creating Layer conv6_3/dwise/scale
I0726 19:52:39.106357  2103 net.cpp:406] conv6_3/dwise/scale <- conv6_3/dwise/bn
I0726 19:52:39.106362  2103 net.cpp:367] conv6_3/dwise/scale -> conv6_3/dwise/bn (in-place)
I0726 19:52:39.106403  2103 layer_factory.hpp:77] Creating layer conv6_3/dwise/scale
I0726 19:52:39.106524  2103 net.cpp:122] Setting up conv6_3/dwise/scale
…
I0726 19:52:39.215986  2103 net.cpp:406] conv4_7/dwise/bn <- conv4_7/dwise
I0726 19:52:39.215989  2103 net.cpp:380] conv4_7/dwise/bn -> conv4_7/dwise/bn
I0726 19:52:39.216234  2103 net.cpp:122] Setting up conv4_7/dwise/bn
I0726 19:52:39.216241  2103 net.cpp:129] Top shape: 1 384 14 14 (75264)
I0726 19:52:39.216244  2103 net.cpp:137] Memory required for data: 127046040
I0726 19:52:39.216250  2103 layer_factory.hpp:77] Creating layer conv4_7/dwise/scale
I0726 19:52:39.216256  2103 net.cpp:84] Creating Layer conv4_7/dwise/scale
I0726 19:52:39.216260  2103 net.cpp:406] conv4_7/dwise/scale <- conv4_7/dwise/bn
I0726 19:52:39.216265  2103 net.cpp:367] conv4_7/dwise/scale -> conv4_7/dwise/bn (in-place)
I0726 19:52:39.216307  2103 layer_factory.hpp:77] Creating layer conv4_7/dwise/scale
I0726 19:52:39.216440  2103 net.cpp:122] Setting up conv4_7/dwise/scale
I0726 19:52:39.216447  2103 net.cpp:129] Top shape: 1 384 14 14 (75264)
I0726 19:52:39.216450  2103 net.cpp:137] Memory required for data: 127347096
I0726 19:52:39.216454  2103 layer_factory.hpp:77] Creating layer relu4_7/dwise
I0726 19:52:39.216459  2103 net.cpp:84] Creating Layer relu4_7/dwise
I0726 19:52:39.216462  2103 net.cpp:406] relu4_7/dwise <- conv4_7/dwise/bn
I0726 19:52:39.216465  2103 net.cpp:367] relu4_7/dwise -> conv4_7/dwise/bn (in-place)
I0726 19:52:39.216886  2103 net.cpp:122] Setting up relu4_7/dwise
I0726 19:52:39.216897  2103 net.cpp:129] Top shape: 1 384 14 14 (75264)
I0726 19:52:39.216899  2103 net.cpp:137] Memory required for data: 127648152
I0726 19:52:39.216902  2103 layer_factory.hpp:77] Creating layer conv4_7/linear
I0726 19:52:39.216909  2103 net.cpp:84] Creating Layer conv4_7/linear
I0726 19:52:39.216912  2103 net.cpp:406] conv4_7/linear <- conv4_7/dwise/bn
I0726 19:52:39.216918  2103 net.cpp:380] conv4_7/linear -> conv4_7/linear
I0726 19:52:39.218983  2103 net.cpp:122] Setting up conv4_7/linear
I0726 19:52:39.218997  2103 net.cpp:129] Top shape: 1 96 14 14 (18816)
I0726 19:52:39.218999  2103 net.cpp:137] Memory required for data: 127723416
I0726 19:52:39.219004  2103 layer_factory.hpp:77] Creating layer conv4_7/linear/bn
I0726 19:52:39.219012  2103 net.cpp:84] Creating Layer conv4_7/linear/bn
I0726 19:52:39.219014  2103 net.cpp:406] conv4_7/linear/bn <- conv4_7/linear
I0726 19:52:39.219022  2103 net.cpp:380] conv4_7/linear/bn -> conv4_7/linear/bn
I0726 19:52:39.219290  2103 net.cpp:122] Setting up conv4_7/linear/bn
I0726 19:52:39.219297  2103 net.cpp:129] Top shape: 1 96 14 14 (18816)
I0726 19:52:39.219300  2103 net.cpp:137] Memory required for data: 127798680
I0726 19:52:39.219306  2103 layer_factory.hpp:77] Creating layer conv4_7/linear/scale
I0726 19:52:39.219312  2103 net.cpp:84] Creating Layer conv4_7/linear/scale
I0726 19:52:39.219314  2103 net.cpp:406] conv4_7/linear/scale <- conv4_7/linear/bn
I0726 19:52:39.219321  2103 net.cpp:367] conv4_7/linear/scale -> conv4_7/linear/bn (in-place)
I0726 19:52:39.219367  2103 layer_factory.hpp:77] Creating layer conv4_7/linear/scale
I0726 19:52:39.219504  2103 net.cpp:122] Setting up conv4_7/linear/scale
I0726 19:52:39.219511  2103 net.cpp:129] Top shape: 1 96 14 14 (18816)
I0726 19:52:39.219513  2103 net.cpp:137] Memory required for data: 127873944
I0726 19:52:39.219517  2103 layer_factory.hpp:77] Creating layer conv4_7/linear/bn_conv4_7/linear/scale_0_split
I0726 19:52:39.219524  2103 net.cpp:84] Creating Layer conv4_7/linear/bn_conv4_7/linear/scale_0_split
I0726 19:52:39.219527  2103 net.cpp:406] conv4_7/linear/bn_conv4_7/linear/scale_0_split <- conv4_7/linear/bn
I0726 19:52:39.219532  2103 net.cpp:380] conv4_7/linear/bn_conv4_7/linear/scale_0_split -> conv4_7/linear/bn_conv4_7/linear/scale_0_split_0
I0726 19:52:39.219537  2103 net.cpp:380] conv4_7/linear/bn_conv4_7/linear/scale_0_split -> conv4_7/linear/bn_conv4_7/linear/scale_0_split_1
I0726 19:52:39.219578  2103 net.cpp:122] Setting up conv4_7/linear/bn_conv4_7/linear/scale_0_split
I0726 19:52:39.219584  2103 net.cpp:129] Top shape: 1 96 14 14 (18816)
I0726 19:52:39.219588  2103 net.cpp:129] Top shape: 1 96 14 14 (18816)
I0726 19:52:39.219589  2103 net.cpp:137] Memory required for data: 128024472
I0726 19:52:39.219593  2103 layer_factory.hpp:77] Creating layer conv5_1/expand
I0726 19:52:39.219599  2103 net.cpp:84] Creating Layer conv5_1/expand
I0726 19:52:39.219601  2103 net.cpp:406] conv5_1/expand <- conv4_7/linear/bn_conv4_7/linear/scale_0_split_0
I0726 19:52:39.219607  2103 net.cpp:380] conv5_1/expand -> conv5_1/expand
I0726 19:52:39.221810  2103 net.cpp:122] Setting up conv5_1/expand
I0726 19:52:39.221822  2103 net.cpp:129] Top shape: 1 576 14 14 (112896)
I0726 19:52:39.221825  2103 net.cpp:137] Memory required for data: 128476056
I0726 19:52:39.221830  2103 layer_factory.hpp:77] Creating layer conv5_1/expand/bn
I0726 19:52:39.221840  2103 net.cpp:84] Creating Layer conv5_1/expand/bn
I0726 19:52:39.221844  2103 net.cpp:406] conv5_1/expand/bn <- conv5_1/expand
I0726 19:52:39.221849  2103 net.cpp:380] conv5_1/expand/bn -> conv5_1/expand/bn
I0726 19:52:39.222107  2103 net.cpp:122] Setting up conv5_1/expand/bn
I0726 19:52:39.222115  2103 net.cpp:129] Top shape: 1 576 14 14 (112896)
I0726 19:52:39.222117  2103 net.cpp:137] Memory required for data: 128927640
I0726 19:52:39.222123  2103 layer_factory.hpp:77] Creating layer conv5_1/expand/scale
I0726 19:52:39.222129  2103 net.cpp:84] Creating Layer conv5_1/expand/scale
I0726 19:52:39.222133  2103 net.cpp:406] conv5_1/expand/scale <- conv5_1/expand/bn
I0726 19:52:39.222137  2103 net.cpp:367] conv5_1/expand/scale -> conv5_1/expand/bn (in-place)
I0726 19:52:39.222187  2103 layer_factory.hpp:77] Creating layer conv5_1/expand/scale
I0726 19:52:39.222329  2103 net.cpp:122] Setting up conv5_1/expand/scale
I0726 19:52:39.222337  2103 net.cpp:129] Top shape: 1 576 14 14 (112896)
I0726 19:52:39.222338  2103 net.cpp:137] Memory required for data: 129379224
I0726 19:52:39.222343  2103 layer_factory.hpp:77] Creating layer relu5_1/expand
I0726 19:52:39.222348  2103 net.cpp:84] Creating Layer relu5_1/expand
I0726 19:52:39.222352  2103 net.cpp:406] relu5_1/expand <- conv5_1/expand/bn
I0726 19:52:39.222358  2103 net.cpp:367] relu5_1/expand -> conv5_1/expand/bn (in-place)
I0726 19:52:39.222781  2103 net.cpp:122] Setting up relu5_1/expand
I0726 19:52:39.222791  2103 net.cpp:129] Top shape: 1 576 14 14 (112896)
I0726 19:52:39.222793  2103 net.cpp:137] Memory required for data: 129830808
I0726 19:52:39.222797  2103 layer_factory.hpp:77] Creating layer conv5_1/dwise
I0726 19:52:39.222805  2103 net.cpp:84] Creating Layer conv5_1/dwise
I0726 19:52:39.222808  2103 net.cpp:406] conv5_1/dwise <- conv5_1/expand/bn
I0726 19:52:39.222813  2103 net.cpp:380] conv5_1/dwise -> conv5_1/dwise
I0726 19:52:39.223104  2103 net.cpp:122] Setting up conv5_1/dwise
I0726 19:52:39.223114  2103 net.cpp:129] Top shape: 1 576 14 14 (112896)
I0726 19:52:39.223115  2103 net.cpp:137] Memory required for data: 130282392
I0726 19:52:39.223119  2103 layer_factory.hpp:77] Creating layer conv5_1/dwise/bn
I0726 19:52:39.223125  2103 net.cpp:84] Creating Layer conv5_1/dwise/bn
I0726 19:52:39.223127  2103 net.cpp:406] conv5_1/dwise/bn <- conv5_1/dwise
I0726 19:52:39.223132  2103 net.cpp:380] conv5_1/dwise/bn -> conv5_1/dwise/bn
I0726 19:52:39.223383  2103 net.cpp:122] Setting up conv5_1/dwise/bn
I0726 19:52:39.223390  2103 net.cpp:129] Top shape: 1 576 14 14 (112896)
I0726 19:52:39.223392  2103 net.cpp:137] Memory required for data: 130733976
I0726 19:52:39.223398  2103 layer_factory.hpp:77] Creating layer conv5_1/dwise/scale
I0726 19:52:39.223407  2103 net.cpp:84] Creating Layer conv5_1/dwise/scale
I0726 19:52:39.223409  2103 net.cpp:406] conv5_1/dwise/scale <- conv5_1/dwise/bn
I0726 19:52:39.223414  2103 net.cpp:367] conv5_1/dwise/scale -> conv5_1/dwise/bn (in-place)
I0726 19:52:39.223461  2103 layer_factory.hpp:77] Creating layer conv5_1/dwise/scale
I0726 19:52:39.223598  2103 net.cpp:122] Setting up conv5_1/dwise/scale
I0726 19:52:39.223604  2103 net.cpp:129] Top shape: 1 576 14 14 (112896)
I0726 19:52:39.223606  2103 net.cpp:137] Memory required for data: 131185560
I0726 19:52:39.223611  2103 layer_factory.hpp:77] Creating layer relu5_1/dwise
I0726 19:52:39.223616  2103 net.cpp:84] Creating Layer relu5_1/dwise
I0726 19:52:39.223618  2103 net.cpp:406] relu5_1/dwise <- conv5_1/dwise/bn
I0726 19:52:39.223623  2103 net.cpp:367] relu5_1/dwise -> conv5_1/dwise/bn (in-place)
I0726 19:52:39.224045  2103 net.cpp:122] Setting up relu5_1/dwise
I0726 19:52:39.224054  2103 net.cpp:129] Top shape: 1 576 14 14 (112896)
I0726 19:52:39.224056  2103 net.cpp:137] Memory required for data: 131637144
I0726 19:52:39.224059  2103 layer_factory.hpp:77] Creating layer conv5_1/linear
I0726 19:52:39.224067  2103 net.cpp:84] Creating Layer conv5_1/linear
I0726 19:52:39.224071  2103 net.cpp:406] conv5_1/linear <- conv5_1/dwise/bn
I0726 19:52:39.224077  2103 net.cpp:380] conv5_1/linear -> conv5_1/linear
I0726 19:52:39.226295  2103 net.cpp:122] Setting up conv5_1/linear
I0726 19:52:39.226307  2103 net.cpp:129] Top shape: 1 96 14 14 (18816)
I0726 19:52:39.226310  2103 net.cpp:137] Memory required for data: 131712408
I0726 19:52:39.226315  2103 layer_factory.hpp:77] Creating layer conv5_1/linear/bn
I0726 19:52:39.226321  2103 net.cpp:84] Creating Layer conv5_1/linear/bn
I0726 19:52:39.226326  2103 net.cpp:406] conv5_1/linear/bn <- conv5_1/linear
I0726 19:52:39.226332  2103 net.cpp:380] conv5_1/linear/bn -> conv5_1/linear/bn
I0726 19:52:39.226593  2103 net.cpp:122] Setting up conv5_1/linear/bn
I0726 19:52:39.226600  2103 net.cpp:129] Top shape: 1 96 14 14 (18816)
I0726 19:52:39.226603  2103 net.cpp:137] Memory required for data: 131787672
I0726 19:52:39.226609  2103 layer_factory.hpp:77] Creating layer conv5_1/linear/scale
I0726 19:52:39.226614  2103 net.cpp:84] Creating Layer conv5_1/linear/scale
I0726 19:52:39.226617  2103 net.cpp:406] conv5_1/linear/scale <- conv5_1/linear/bn
I0726 19:52:39.226621  2103 net.cpp:367] conv5_1/linear/scale -> conv5_1/linear/bn (in-place)
I0726 19:52:39.226668  2103 layer_factory.hpp:77] Creating layer conv5_1/linear/scale
I0726 19:52:39.226809  2103 net.cpp:122] Setting up conv5_1/linear/scale
I0726 19:52:39.226832  2103 net.cpp:129] Top shape: 1 96 14 14 (18816)
I0726 19:52:39.226836  2103 net.cpp:137] Memory required for data: 131862936
I0726 19:52:39.226841  2103 layer_factory.hpp:77] Creating layer block_5_1
I0726 19:52:39.226846  2103 net.cpp:84] Creating Layer block_5_1
I0726 19:52:39.226850  2103 net.cpp:406] block_5_1 <- conv4_7/linear/bn_conv4_7/linear/scale_0_split_1
I0726 19:52:39.226853  2103 net.cpp:406] block_5_1 <- conv5_1/linear/bn
I0726 19:52:39.226871  2103 net.cpp:380] block_5_1 -> block_5_1
I0726 19:52:39.226902  2103 net.cpp:122] Setting up block_5_1
I0726 19:52:39.226922  2103 net.cpp:129] Top shape: 1 96 14 14 (18816)
I0726 19:52:39.226925  2103 net.cpp:137] Memory required for data: 131938200
I0726 19:52:39.226927  2103 layer_factory.hpp:77] Creating layer block_5_1_block_5_1_0_split
I0726 19:52:39.226933  2103 net.cpp:84] Creating Layer block_5_1_block_5_1_0_split
I0726 19:52:39.226936  2103 net.cpp:406] block_5_1_block_5_1_0_split <- block_5_1
I0726 19:52:39.226940  2103 net.cpp:380] block_5_1_block_5_1_0_split -> block_5_1_block_5_1_0_split_0
I0726 19:52:39.226958  2103 net.cpp:380] block_5_1_block_5_1_0_split -> block_5_1_block_5_1_0_split_1
I0726 19:52:39.227001  2103 net.cpp:122] Setting up block_5_1_block_5_1_0_split
I0726 19:52:39.227007  2103 net.cpp:129] Top shape: 1 96 14 14 (18816)
I0726 19:52:39.227010  2103 net.cpp:129] Top shape: 1 96 14 14 (18816)
I0726 19:52:39.227013  2103 net.cpp:137] Memory required for data: 132088728
I0726 19:52:39.227015  2103 layer_factory.hpp:77] Creating layer conv5_2/expand
I0726 19:52:39.227023  2103 net.cpp:84] Creating Layer conv5_2/expand
I0726 19:52:39.227027  2103 net.cpp:406] conv5_2/expand <- block_5_1_block_5_1_0_split_0
I0726 19:52:39.227032  2103 net.cpp:380] conv5_2/expand -> conv5_2/expand
I0726 19:52:39.229279  2103 net.cpp:122] Setting up conv5_2/expand
I0726 19:52:39.229290  2103 net.cpp:129] Top shape: 1 576 14 14 (112896)
I0726 19:52:39.229293  2103 net.cpp:137] Memory required for data: 132540312
I0726 19:52:39.229298  2103 layer_factory.hpp:77] Creating layer conv5_2/expand/bn
I0726 19:52:39.229306  2103 net.cpp:84] Creating Layer conv5_2/expand/bn
I0726 19:52:39.229310  2103 net.cpp:406] conv5_2/expand/bn <- conv5_2/expand
I0726 19:52:39.229316  2103 net.cpp:380] conv5_2/expand/bn -> conv5_2/expand/bn
I0726 19:52:39.229596  2103 net.cpp:122] Setting up conv5_2/expand/bn
I0726 19:52:39.229604  2103 net.cpp:129] Top shape: 1 576 14 14 (112896)
I0726 19:52:39.229605  2103 net.cpp:137] Memory required for data: 132991896
I0726 19:52:39.229611  2103 layer_factory.hpp:77] Creating layer conv5_2/expand/scale
I0726 19:52:39.229636  2103 net.cpp:84] Creating Layer conv5_2/expand/scale
I0726 19:52:39.229641  2103 net.cpp:406] conv5_2/expand/scale <- conv5_2/expand/bn
I0726 19:52:39.229646  2103 net.cpp:367] conv5_2/expand/scale -> conv5_2/expand/bn (in-place)
I0726 19:52:39.229702  2103 layer_factory.hpp:77] Creating layer conv5_2/expand/scale
I0726 19:52:39.229863  2103 net.cpp:122] Setting up conv5_2/expand/scale
I0726 19:52:39.229872  2103 net.cpp:129] Top shape: 1 576 14 14 (112896)
I0726 19:52:39.229874  2103 net.cpp:137] Memory required for data: 133443480
I0726 19:52:39.229879  2103 layer_factory.hpp:77] Creating layer relu5_2/expand
I0726 19:52:39.229885  2103 net.cpp:84] Creating Layer relu5_2/expand
I0726 19:52:39.229888  2103 net.cpp:406] relu5_2/expand <- conv5_2/expand/bn
I0726 19:52:39.229892  2103 net.cpp:367] relu5_2/expand -> conv5_2/expand/bn (in-place)
I0726 19:52:39.230515  2103 net.cpp:122] Setting up relu5_2/expand
I0726 19:52:39.230526  2103 net.cpp:129] Top shape: 1 576 14 14 (112896)
I0726 19:52:39.230530  2103 net.cpp:137] Memory required for data: 133895064
I0726 19:52:39.230532  2103 layer_factory.hpp:77] Creating layer conv5_2/dwise
I0726 19:52:39.230541  2103 net.cpp:84] Creating Layer conv5_2/dwise
I0726 19:52:39.230545  2103 net.cpp:406] conv5_2/dwise <- conv5_2/expand/bn
I0726 19:52:39.230551  2103 net.cpp:380] conv5_2/dwise -> conv5_2/dwise
I0726 19:52:39.230851  2103 net.cpp:122] Setting up conv5_2/dwise
I0726 19:52:39.230859  2103 net.cpp:129] Top shape: 1 576 14 14 (112896)
I0726 19:52:39.230862  2103 net.cpp:137] Memory required for data: 134346648
I0726 19:52:39.230866  2103 layer_factory.hpp:77] Creating layer conv5_2/dwise/bn
I0726 19:52:39.230872  2103 net.cpp:84] Creating Layer conv5_2/dwise/bn
I0726 19:52:39.230875  2103 net.cpp:406] conv5_2/dwise/bn <- conv5_2/dwise
I0726 19:52:39.230880  2103 net.cpp:380] conv5_2/dwise/bn -> conv5_2/dwise/bn
I0726 19:52:39.231150  2103 net.cpp:122] Setting up conv5_2/dwise/bn
I0726 19:52:39.231158  2103 net.cpp:129] Top shape: 1 576 14 14 (112896)
I0726 19:52:39.231169  2103 net.cpp:137] Memory required for data: 134798232
I0726 19:52:39.231175  2103 layer_factory.hpp:77] Creating layer conv5_2/dwise/scale
I0726 19:52:39.231181  2103 net.cpp:84] Creating Layer conv5_2/dwise/scale
I0726 19:52:39.231184  2103 net.cpp:406] conv5_2/dwise/scale <- conv5_2/dwise/bn
I0726 19:52:39.231189  2103 net.cpp:367] conv5_2/dwise/scale -> conv5_2/dwise/bn (in-place)
I0726 19:52:39.231247  2103 layer_factory.hpp:77] Creating layer conv5_2/dwise/scale
I0726 19:52:39.231403  2103 net.cpp:122] Setting up conv5_2/dwise/scale
I0726 19:52:39.231410  2103 net.cpp:129] Top shape: 1 576 14 14 (112896)
I0726 19:52:39.231421  2103 net.cpp:137] Memory required for data: 135249816
I0726 19:52:39.231426  2103 layer_factory.hpp:77] Creating layer relu5_2/dwise
I0726 19:52:39.231431  2103 net.cpp:84] Creating Layer relu5_2/dwise
I0726 19:52:39.231433  2103 net.cpp:406] relu5_2/dwise <- conv5_2/dwise/bn
I0726 19:52:39.231438  2103 net.cpp:367] relu5_2/dwise -> conv5_2/dwise/bn (in-place)
I0726 19:52:39.231864  2103 net.cpp:122] Setting up relu5_2/dwise
I0726 19:52:39.231874  2103 net.cpp:129] Top shape: 1 576 14 14 (112896)
I0726 19:52:39.231886  2103 net.cpp:137] Memory required for data: 135701400
I0726 19:52:39.231889  2103 layer_factory.hpp:77] Creating layer conv5_2/linear
I0726 19:52:39.231897  2103 net.cpp:84] Creating Layer conv5_2/linear
I0726 19:52:39.231900  2103 net.cpp:406] conv5_2/linear <- conv5_2/dwise/bn
I0726 19:52:39.231906  2103 net.cpp:380] conv5_2/linear -> conv5_2/linear
I0726 19:52:39.234683  2103 net.cpp:122] Setting up conv5_2/linear
I0726 19:52:39.234707  2103 net.cpp:129] Top shape: 1 96 14 14 (18816)
I0726 19:52:39.234710  2103 net.cpp:137] Memory required for data: 135776664
I0726 19:52:39.234717  2103 layer_factory.hpp:77] Creating layer conv5_2/linear/bn
I0726 19:52:39.234730  2103 net.cpp:84] Creating Layer conv5_2/linear/bn
I0726 19:52:39.234733  2103 net.cpp:406] conv5_2/linear/bn <- conv5_2/linear
I0726 19:52:39.234740  2103 net.cpp:380] conv5_2/linear/bn -> conv5_2/linear/bn
I0726 19:52:39.235011  2103 net.cpp:122] Setting up conv5_2/linear/bn
I0726 19:52:39.235018  2103 net.cpp:129] Top shape: 1 96 14 14 (18816)
I0726 19:52:39.235021  2103 net.cpp:137] Memory required for data: 135851928
I0726 19:52:39.235028  2103 layer_factory.hpp:77] Creating layer conv5_2/linear/scale
I0726 19:52:39.235035  2103 net.cpp:84] Creating Layer conv5_2/linear/scale
I0726 19:52:39.235038  2103 net.cpp:406] conv5_2/linear/scale <- conv5_2/linear/bn
I0726 19:52:39.235044  2103 net.cpp:367] conv5_2/linear/scale -> conv5_2/linear/bn (in-place)
I0726 19:52:39.235092  2103 layer_factory.hpp:77] Creating layer conv5_2/linear/scale
I0726 19:52:39.235301  2103 net.cpp:122] Setting up conv5_2/linear/scale
I0726 19:52:39.235308  2103 net.cpp:129] Top shape: 1 96 14 14 (18816)
I0726 19:52:39.235311  2103 net.cpp:137] Memory required for data: 135927192
I0726 19:52:39.235316  2103 layer_factory.hpp:77] Creating layer block_5_2
I0726 19:52:39.235322  2103 net.cpp:84] Creating Layer block_5_2
I0726 19:52:39.235325  2103 net.cpp:406] block_5_2 <- block_5_1_block_5_1_0_split_1
I0726 19:52:39.235329  2103 net.cpp:406] block_5_2 <- conv5_2/linear/bn
I0726 19:52:39.235334  2103 net.cpp:380] block_5_2 -> block_5_2
I0726 19:52:39.235363  2103 net.cpp:122] Setting up block_5_2
I0726 19:52:39.235369  2103 net.cpp:129] Top shape: 1 96 14 14 (18816)
I0726 19:52:39.235371  2103 net.cpp:137] Memory required for data: 136002456
I0726 19:52:39.235374  2103 layer_factory.hpp:77] Creating layer conv5_3/expand
I0726 19:52:39.235383  2103 net.cpp:84] Creating Layer conv5_3/expand
I0726 19:52:39.235385  2103 net.cpp:406] conv5_3/expand <- block_5_2
I0726 19:52:39.235389  2103 net.cpp:380] conv5_3/expand -> conv5_3/expand
I0726 19:52:39.237694  2103 net.cpp:122] Setting up conv5_3/expand
I0726 19:52:39.237709  2103 net.cpp:129] Top shape: 1 576 14 14 (112896)
I0726 19:52:39.237712  2103 net.cpp:137] Memory required for data: 136454040
I0726 19:52:39.237718  2103 layer_factory.hpp:77] Creating layer conv5_3/expand/bn
I0726 19:52:39.237727  2103 net.cpp:84] Creating Layer conv5_3/expand/bn
I0726 19:52:39.237731  2103 net.cpp:406] conv5_3/expand/bn <- conv5_3/expand
I0726 19:52:39.237737  2103 net.cpp:380] conv5_3/expand/bn -> conv5_3/expand/bn
I0726 19:52:39.238009  2103 net.cpp:122] Setting up conv5_3/expand/bn
I0726 19:52:39.238018  2103 net.cpp:129] Top shape: 1 576 14 14 (112896)
I0726 19:52:39.238019  2103 net.cpp:137] Memory required for data: 136905624
I0726 19:52:39.238026  2103 layer_factory.hpp:77] Creating layer conv5_3/expand/scale
I0726 19:52:39.238034  2103 net.cpp:84] Creating Layer conv5_3/expand/scale
I0726 19:52:39.238039  2103 net.cpp:406] conv5_3/expand/scale <- conv5_3/expand/bn
I0726 19:52:39.238045  2103 net.cpp:367] conv5_3/expand/scale -> conv5_3/expand/bn (in-place)
I0726 19:52:39.238096  2103 layer_factory.hpp:77] Creating layer conv5_3/expand/scale
I0726 19:52:39.238237  2103 net.cpp:122] Setting up conv5_3/expand/scale
I0726 19:52:39.238245  2103 net.cpp:129] Top shape: 1 576 14 14 (112896)
I0726 19:52:39.238247  2103 net.cpp:137] Memory required for data: 137357208
I0726 19:52:39.238252  2103 layer_factory.hpp:77] Creating layer relu5_3/expand
I0726 19:52:39.238260  2103 net.cpp:84] Creating Layer relu5_3/expand
I0726 19:52:39.238262  2103 net.cpp:406] relu5_3/expand <- conv5_3/expand/bn
I0726 19:52:39.238266  2103 net.cpp:367] relu5_3/expand -> conv5_3/expand/bn (in-place)
I0726 19:52:39.238696  2103 net.cpp:122] Setting up relu5_3/expand
I0726 19:52:39.238706  2103 net.cpp:129] Top shape: 1 576 14 14 (112896)
I0726 19:52:39.238708  2103 net.cpp:137] Memory required for data: 137808792
I0726 19:52:39.238711  2103 layer_factory.hpp:77] Creating layer conv5_3/dwise
I0726 19:52:39.238720  2103 net.cpp:84] Creating Layer conv5_3/dwise
I0726 19:52:39.238723  2103 net.cpp:406] conv5_3/dwise <- conv5_3/expand/bn
I0726 19:52:39.238729  2103 net.cpp:380] conv5_3/dwise -> conv5_3/dwise
I0726 19:52:39.239708  2103 net.cpp:122] Setting up conv5_3/dwise
I0726 19:52:39.239720  2103 net.cpp:129] Top shape: 1 576 7 7 (28224)
I0726 19:52:39.239723  2103 net.cpp:137] Memory required for data: 137921688
I0726 19:52:39.239728  2103 layer_factory.hpp:77] Creating layer conv5_3/dwise/bn
I0726 19:52:39.239735  2103 net.cpp:84] Creating Layer conv5_3/dwise/bn
I0726 19:52:39.239738  2103 net.cpp:406] conv5_3/dwise/bn <- conv5_3/dwise
I0726 19:52:39.239745  2103 net.cpp:380] conv5_3/dwise/bn -> conv5_3/dwise/bn
I0726 19:52:39.240011  2103 net.cpp:122] Setting up conv5_3/dwise/bn
I0726 19:52:39.240018  2103 net.cpp:129] Top shape: 1 576 7 7 (28224)
I0726 19:52:39.240021  2103 net.cpp:137] Memory required for data: 138034584
I0726 19:52:39.240027  2103 layer_factory.hpp:77] Creating layer conv5_3/dwise/scale
I0726 19:52:39.240032  2103 net.cpp:84] Creating Layer conv5_3/dwise/scale
I0726 19:52:39.240036  2103 net.cpp:406] conv5_3/dwise/scale <- conv5_3/dwise/bn
I0726 19:52:39.240041  2103 net.cpp:367] conv5_3/dwise/scale -> conv5_3/dwise/bn (in-place)
I0726 19:52:39.240089  2103 layer_factory.hpp:77] Creating layer conv5_3/dwise/scale
I0726 19:52:39.240236  2103 net.cpp:122] Setting up conv5_3/dwise/scale
I0726 19:52:39.240242  2103 net.cpp:129] Top shape: 1 576 7 7 (28224)
I0726 19:52:39.240244  2103 net.cpp:137] Memory required for data: 138147480
I0726 19:52:39.240248  2103 layer_factory.hpp:77] Creating layer relu5_3/dwise
I0726 19:52:39.240253  2103 net.cpp:84] Creating Layer relu5_3/dwise
I0726 19:52:39.240257  2103 net.cpp:406] relu5_3/dwise <- conv5_3/dwise/bn
I0726 19:52:39.240260  2103 net.cpp:367] relu5_3/dwise -> conv5_3/dwise/bn (in-place)
I0726 19:52:39.240895  2103 net.cpp:122] Setting up relu5_3/dwise
I0726 19:52:39.240906  2103 net.cpp:129] Top shape: 1 576 7 7 (28224)
I0726 19:52:39.240908  2103 net.cpp:137] Memory required for data: 138260376
I0726 19:52:39.240911  2103 layer_factory.hpp:77] Creating layer conv5_3/linear
I0726 19:52:39.240921  2103 net.cpp:84] Creating Layer conv5_3/linear
I0726 19:52:39.240924  2103 net.cpp:406] conv5_3/linear <- conv5_3/dwise/bn
I0726 19:52:39.240931  2103 net.cpp:380] conv5_3/linear -> conv5_3/linear
I0726 19:52:39.243557  2103 net.cpp:122] Setting up conv5_3/linear
I0726 19:52:39.243571  2103 net.cpp:129] Top shape: 1 160 7 7 (7840)
I0726 19:52:39.243573  2103 net.cpp:137] Memory required for data: 138291736
I0726 19:52:39.243578  2103 layer_factory.hpp:77] Creating layer conv5_3/linear/bn
I0726 19:52:39.243587  2103 net.cpp:84] Creating Layer conv5_3/linear/bn
I0726 19:52:39.243590  2103 net.cpp:406] conv5_3/linear/bn <- conv5_3/linear
I0726 19:52:39.243598  2103 net.cpp:380] conv5_3/linear/bn -> conv5_3/linear/bn
I0726 19:52:39.243860  2103 net.cpp:122] Setting up conv5_3/linear/bn
I0726 19:52:39.243867  2103 net.cpp:129] Top shape: 1 160 7 7 (7840)
I0726 19:52:39.243870  2103 net.cpp:137] Memory required for data: 138323096
I0726 19:52:39.243875  2103 layer_factory.hpp:77] Creating layer conv5_3/linear/scale
I0726 19:52:39.243881  2103 net.cpp:84] Creating Layer conv5_3/linear/scale
I0726 19:52:39.243885  2103 net.cpp:406] conv5_3/linear/scale <- conv5_3/linear/bn
I0726 19:52:39.243888  2103 net.cpp:367] conv5_3/linear/scale -> conv5_3/linear/bn (in-place)
I0726 19:52:39.243935  2103 layer_factory.hpp:77] Creating layer conv5_3/linear/scale
I0726 19:52:39.244073  2103 net.cpp:122] Setting up conv5_3/linear/scale
I0726 19:52:39.244081  2103 net.cpp:129] Top shape: 1 160 7 7 (7840)
I0726 19:52:39.244086  2103 net.cpp:137] Memory required for data: 138354456
I0726 19:52:39.244112  2103 layer_factory.hpp:77] Creating layer conv5_3/linear/bn_conv5_3/linear/scale_0_split
I0726 19:52:39.244119  2103 net.cpp:84] Creating Layer conv5_3/linear/bn_conv5_3/linear/scale_0_split
I0726 19:52:39.244122  2103 net.cpp:406] conv5_3/linear/bn_conv5_3/linear/scale_0_split <- conv5_3/linear/bn
I0726 19:52:39.244127  2103 net.cpp:380] conv5_3/linear/bn_conv5_3/linear/scale_0_split -> conv5_3/linear/bn_conv5_3/linear/scale_0_split_0
I0726 19:52:39.244132  2103 net.cpp:380] conv5_3/linear/bn_conv5_3/linear/scale_0_split -> conv5_3/linear/bn_conv5_3/linear/scale_0_split_1
I0726 19:52:39.244176  2103 net.cpp:122] Setting up conv5_3/linear/bn_conv5_3/linear/scale_0_split
I0726 19:52:39.244182  2103 net.cpp:129] Top shape: 1 160 7 7 (7840)
I0726 19:52:39.244186  2103 net.cpp:129] Top shape: 1 160 7 7 (7840)
I0726 19:52:39.244189  2103 net.cpp:137] Memory required for data: 138417176
I0726 19:52:39.244190  2103 layer_factory.hpp:77] Creating layer conv6_1/expand
I0726 19:52:39.244199  2103 net.cpp:84] Creating Layer conv6_1/expand
I0726 19:52:39.244202  2103 net.cpp:406] conv6_1/expand <- conv5_3/linear/bn_conv5_3/linear/scale_0_split_0
I0726 19:52:39.244206  2103 net.cpp:380] conv6_1/expand -> conv6_1/expand
I0726 19:52:39.247920  2103 net.cpp:122] Setting up conv6_1/expand
I0726 19:52:39.247942  2103 net.cpp:129] Top shape: 1 960 7 7 (47040)
I0726 19:52:39.247946  2103 net.cpp:137] Memory required for data: 138605336
I0726 19:52:39.247951  2103 layer_factory.hpp:77] Creating layer conv6_1/expand/bn
I0726 19:52:39.247959  2103 net.cpp:84] Creating Layer conv6_1/expand/bn
I0726 19:52:39.247977  2103 net.cpp:406] conv6_1/expand/bn <- conv6_1/expand
I0726 19:52:39.247982  2103 net.cpp:380] conv6_1/expand/bn -> conv6_1/expand/bn
I0726 19:52:39.248371  2103 net.cpp:122] Setting up conv6_1/expand/bn
I0726 19:52:39.248394  2103 net.cpp:129] Top shape: 1 960 7 7 (47040)
I0726 19:52:39.248395  2103 net.cpp:137] Memory required for data: 138793496
I0726 19:52:39.248401  2103 layer_factory.hpp:77] Creating layer conv6_1/expand/scale
I0726 19:52:39.248409  2103 net.cpp:84] Creating Layer conv6_1/expand/scale
I0726 19:52:39.248411  2103 net.cpp:406] conv6_1/expand/scale <- conv6_1/expand/bn
I0726 19:52:39.248425  2103 net.cpp:367] conv6_1/expand/scale -> conv6_1/expand/bn (in-place)
I0726 19:52:39.248498  2103 layer_factory.hpp:77] Creating layer conv6_1/expand/scale
I0726 19:52:39.248684  2103 net.cpp:122] Setting up conv6_1/expand/scale
I0726 19:52:39.248700  2103 net.cpp:129] Top shape: 1 960 7 7 (47040)
I0726 19:52:39.248703  2103 net.cpp:137] Memory required for data: 138981656
I0726 19:52:39.248708  2103 layer_factory.hpp:77] Creating layer relu6_1/expand
I0726 19:52:39.248714  2103 net.cpp:84] Creating Layer relu6_1/expand
I0726 19:52:39.248718  2103 net.cpp:406] relu6_1/expand <- conv6_1/expand/bn
I0726 19:52:39.248730  2103 net.cpp:367] relu6_1/expand -> conv6_1/expand/bn (in-place)
I0726 19:52:39.249187  2103 net.cpp:122] Setting up relu6_1/expand
I0726 19:52:39.249199  2103 net.cpp:129] Top shape: 1 960 7 7 (47040)
I0726 19:52:39.249202  2103 net.cpp:137] Memory required for data: 139169816
I0726 19:52:39.249205  2103 layer_factory.hpp:77] Creating layer conv6_1/dwise
I0726 19:52:39.249213  2103 net.cpp:84] Creating Layer conv6_1/dwise
I0726 19:52:39.249217  2103 net.cpp:406] conv6_1/dwise <- conv6_1/expand/bn
I0726 19:52:39.249222  2103 net.cpp:380] conv6_1/dwise -> conv6_1/dwise
I0726 19:52:39.249552  2103 net.cpp:122] Setting up conv6_1/dwise
I0726 19:52:39.249559  2103 net.cpp:129] Top shape: 1 960 7 7 (47040)
I0726 19:52:39.249562  2103 net.cpp:137] Memory required for data: 139357976
I0726 19:52:39.249567  2103 layer_factory.hpp:77] Creating layer conv6_1/dwise/bn
I0726 19:52:39.249573  2103 net.cpp:84] Creating Layer conv6_1/dwise/bn
I0726 19:52:39.249577  2103 net.cpp:406] conv6_1/dwise/bn <- conv6_1/dwise
I0726 19:52:39.249581  2103 net.cpp:380] conv6_1/dwise/bn -> conv6_1/dwise/bn
I0726 19:52:39.249837  2103 net.cpp:122] Setting up conv6_1/dwise/bn
I0726 19:52:39.249845  2103 net.cpp:129] Top shape: 1 960 7 7 (47040)
I0726 19:52:39.249847  2103 net.cpp:137] Memory required for data: 139546136
I0726 19:52:39.249852  2103 layer_factory.hpp:77] Creating layer conv6_1/dwise/scale
I0726 19:52:39.249858  2103 net.cpp:84] Creating Layer conv6_1/dwise/scale
I0726 19:52:39.249861  2103 net.cpp:406] conv6_1/dwise/scale <- conv6_1/dwise/bn
I0726 19:52:39.249866  2103 net.cpp:367] conv6_1/dwise/scale -> conv6_1/dwise/bn (in-place)
I0726 19:52:39.249915  2103 layer_factory.hpp:77] Creating layer conv6_1/dwise/scale
I0726 19:52:39.250059  2103 net.cpp:122] Setting up conv6_1/dwise/scale
I0726 19:52:39.250066  2103 net.cpp:129] Top shape: 1 960 7 7 (47040)
I0726 19:52:39.250068  2103 net.cpp:137] Memory required for data: 139734296
I0726 19:52:39.250072  2103 layer_factory.hpp:77] Creating layer relu6_1/dwise
I0726 19:52:39.250077  2103 net.cpp:84] Creating Layer relu6_1/dwise
I0726 19:52:39.250080  2103 net.cpp:406] relu6_1/dwise <- conv6_1/dwise/bn
I0726 19:52:39.250085  2103 net.cpp:367] relu6_1/dwise -> conv6_1/dwise/bn (in-place)
I0726 19:52:39.250564  2103 net.cpp:122] Setting up relu6_1/dwise
I0726 19:52:39.250573  2103 net.cpp:129] Top shape: 1 960 7 7 (47040)
I0726 19:52:39.250576  2103 net.cpp:137] Memory required for data: 139922456
I0726 19:52:39.250578  2103 layer_factory.hpp:77] Creating layer conv6_1/linear
I0726 19:52:39.250587  2103 net.cpp:84] Creating Layer conv6_1/linear
I0726 19:52:39.250591  2103 net.cpp:406] conv6_1/linear <- conv6_1/dwise/bn
I0726 19:52:39.250597  2103 net.cpp:380] conv6_1/linear -> conv6_1/linear
I0726 19:52:39.253849  2103 net.cpp:122] Setting up conv6_1/linear
I0726 19:52:39.253865  2103 net.cpp:129] Top shape: 1 160 7 7 (7840)
I0726 19:52:39.253877  2103 net.cpp:137] Memory required for data: 139953816
I0726 19:52:39.253883  2103 layer_factory.hpp:77] Creating layer conv6_1/linear/bn
I0726 19:52:39.253901  2103 net.cpp:84] Creating Layer conv6_1/linear/bn
I0726 19:52:39.253906  2103 net.cpp:406] conv6_1/linear/bn <- conv6_1/linear
I0726 19:52:39.253912  2103 net.cpp:380] conv6_1/linear/bn -> conv6_1/linear/bn
I0726 19:52:39.254190  2103 net.cpp:122] Setting up conv6_1/linear/bn
I0726 19:52:39.254199  2103 net.cpp:129] Top shape: 1 160 7 7 (7840)
I0726 19:52:39.254210  2103 net.cpp:137] Memory required for data: 139985176
I0726 19:52:39.254216  2103 layer_factory.hpp:77] Creating layer conv6_1/linear/scale
I0726 19:52:39.254223  2103 net.cpp:84] Creating Layer conv6_1/linear/scale
I0726 19:52:39.254228  2103 net.cpp:406] conv6_1/linear/scale <- conv6_1/linear/bn
I0726 19:52:39.254233  2103 net.cpp:367] conv6_1/linear/scale -> conv6_1/linear/bn (in-place)
I0726 19:52:39.254290  2103 layer_factory.hpp:77] Creating layer conv6_1/linear/scale
I0726 19:52:39.254482  2103 net.cpp:122] Setting up conv6_1/linear/scale
I0726 19:52:39.254498  2103 net.cpp:129] Top shape: 1 160 7 7 (7840)
I0726 19:52:39.254500  2103 net.cpp:137] Memory required for data: 140016536
I0726 19:52:39.254505  2103 layer_factory.hpp:77] Creating layer block_6_1
I0726 19:52:39.254519  2103 net.cpp:84] Creating Layer block_6_1
I0726 19:52:39.254523  2103 net.cpp:406] block_6_1 <- conv5_3/linear/bn_conv5_3/linear/scale_0_split_1
I0726 19:52:39.254526  2103 net.cpp:406] block_6_1 <- conv6_1/linear/bn
I0726 19:52:39.254532  2103 net.cpp:380] block_6_1 -> block_6_1
I0726 19:52:39.254561  2103 net.cpp:122] Setting up block_6_1
I0726 19:52:39.254567  2103 net.cpp:129] Top shape: 1 160 7 7 (7840)
I0726 19:52:39.254570  2103 net.cpp:137] Memory required for data: 140047896
I0726 19:52:39.254572  2103 layer_factory.hpp:77] Creating layer block_6_1_block_6_1_0_split
I0726 19:52:39.254578  2103 net.cpp:84] Creating Layer block_6_1_block_6_1_0_split
I0726 19:52:39.254582  2103 net.cpp:406] block_6_1_block_6_1_0_split <- block_6_1
I0726 19:52:39.254587  2103 net.cpp:380] block_6_1_block_6_1_0_split -> block_6_1_block_6_1_0_split_0
I0726 19:52:39.254592  2103 net.cpp:380] block_6_1_block_6_1_0_split -> block_6_1_block_6_1_0_split_1
I0726 19:52:39.254634  2103 net.cpp:122] Setting up block_6_1_block_6_1_0_split
I0726 19:52:39.254640  2103 net.cpp:129] Top shape: 1 160 7 7 (7840)
I0726 19:52:39.254643  2103 net.cpp:129] Top shape: 1 160 7 7 (7840)
I0726 19:52:39.254645  2103 net.cpp:137] Memory required for data: 140110616
I0726 19:52:39.254648  2103 layer_factory.hpp:77] Creating layer conv6_2/expand
I0726 19:52:39.254655  2103 net.cpp:84] Creating Layer conv6_2/expand
I0726 19:52:39.254658  2103 net.cpp:406] conv6_2/expand <- block_6_1_block_6_1_0_split_0
I0726 19:52:39.254664  2103 net.cpp:380] conv6_2/expand -> conv6_2/expand
I0726 19:52:39.257766  2103 net.cpp:122] Setting up conv6_2/expand
I0726 19:52:39.257778  2103 net.cpp:129] Top shape: 1 960 7 7 (47040)
I0726 19:52:39.257781  2103 net.cpp:137] Memory required for data: 140298776
I0726 19:52:39.257797  2103 layer_factory.hpp:77] Creating layer conv6_2/expand/bn
I0726 19:52:39.257804  2103 net.cpp:84] Creating Layer conv6_2/expand/bn
I0726 19:52:39.257809  2103 net.cpp:406] conv6_2/expand/bn <- conv6_2/expand
I0726 19:52:39.257815  2103 net.cpp:380] conv6_2/expand/bn -> conv6_2/expand/bn
I0726 19:52:39.258965  2103 net.cpp:122] Setting up conv6_2/expand/bn
I0726 19:52:39.258978  2103 net.cpp:129] Top shape: 1 960 7 7 (47040)
I0726 19:52:39.258981  2103 net.cpp:137] Memory required for data: 140486936
I0726 19:52:39.258988  2103 layer_factory.hpp:77] Creating layer conv6_2/expand/scale
I0726 19:52:39.258997  2103 net.cpp:84] Creating Layer conv6_2/expand/scale
I0726 19:52:39.259002  2103 net.cpp:406] conv6_2/expand/scale <- conv6_2/expand/bn
I0726 19:52:39.259008  2103 net.cpp:367] conv6_2/expand/scale -> conv6_2/expand/bn (in-place)
I0726 19:52:39.259064  2103 layer_factory.hpp:77] Creating layer conv6_2/expand/scale
I0726 19:52:39.259205  2103 net.cpp:122] Setting up conv6_2/expand/scale
I0726 19:52:39.259214  2103 net.cpp:129] Top shape: 1 960 7 7 (47040)
I0726 19:52:39.259225  2103 net.cpp:137] Memory required for data: 140675096
I0726 19:52:39.259230  2103 layer_factory.hpp:77] Creating layer relu6_2/expand
I0726 19:52:39.259248  2103 net.cpp:84] Creating Layer relu6_2/expand
I0726 19:52:39.259250  2103 net.cpp:406] relu6_2/expand <- conv6_2/expand/bn
I0726 19:52:39.259264  2103 net.cpp:367] relu6_2/expand -> conv6_2/expand/bn (in-place)
I0726 19:52:39.259901  2103 net.cpp:122] Setting up relu6_2/expand
I0726 19:52:39.259912  2103 net.cpp:129] Top shape: 1 960 7 7 (47040)
I0726 19:52:39.259914  2103 net.cpp:137] Memory required for data: 140863256
I0726 19:52:39.259917  2103 layer_factory.hpp:77] Creating layer conv6_2/dwise
I0726 19:52:39.259927  2103 net.cpp:84] Creating Layer conv6_2/dwise
I0726 19:52:39.259930  2103 net.cpp:406] conv6_2/dwise <- conv6_2/expand/bn
I0726 19:52:39.259938  2103 net.cpp:380] conv6_2/dwise -> conv6_2/dwise
I0726 19:52:39.260192  2103 net.cpp:122] Setting up conv6_2/dwise
I0726 19:52:39.260200  2103 net.cpp:129] Top shape: 1 960 7 7 (47040)
I0726 19:52:39.260203  2103 net.cpp:137] Memory required for data: 141051416
I0726 19:52:39.260207  2103 layer_factory.hpp:77] Creating layer conv6_2/dwise/bn
I0726 19:52:39.260213  2103 net.cpp:84] Creating Layer conv6_2/dwise/bn
I0726 19:52:39.260217  2103 net.cpp:406] conv6_2/dwise/bn <- conv6_2/dwise
I0726 19:52:39.260223  2103 net.cpp:380] conv6_2/dwise/bn -> conv6_2/dwise/bn
I0726 19:52:39.260416  2103 net.cpp:122] Setting up conv6_2/dwise/bn
I0726 19:52:39.260423  2103 net.cpp:129] Top shape: 1 960 7 7 (47040)
I0726 19:52:39.260426  2103 net.cpp:137] Memory required for data: 141239576
I0726 19:52:39.260432  2103 layer_factory.hpp:77] Creating layer conv6_2/dwise/scale
I0726 19:52:39.260439  2103 net.cpp:84] Creating Layer conv6_2/dwise/scale
I0726 19:52:39.260442  2103 net.cpp:406] conv6_2/dwise/scale <- conv6_2/dwise/bn
I0726 19:52:39.260447  2103 net.cpp:367] conv6_2/dwise/scale -> conv6_2/dwise/bn (in-place)
I0726 19:52:39.260493  2103 layer_factory.hpp:77] Creating layer conv6_2/dwise/scale
I0726 19:52:39.260601  2103 net.cpp:122] Setting up conv6_2/dwise/scale
I0726 19:52:39.260607  2103 net.cpp:129] Top shape: 1 960 7 7 (47040)
I0726 19:52:39.260610  2103 net.cpp:137] Memory required for data: 141427736
I0726 19:52:39.260615  2103 layer_factory.hpp:77] Creating layer relu6_2/dwise
I0726 19:52:39.260620  2103 net.cpp:84] Creating Layer relu6_2/dwise
I0726 19:52:39.260622  2103 net.cpp:406] relu6_2/dwise <- conv6_2/dwise/bn
I0726 19:52:39.260627  2103 net.cpp:367] relu6_2/dwise -> conv6_2/dwise/bn (in-place)
I0726 19:52:39.261251  2103 net.cpp:122] Setting up relu6_2/dwise
I0726 19:52:39.261262  2103 net.cpp:129] Top shape: 1 960 7 7 (47040)
I0726 19:52:39.261265  2103 net.cpp:137] Memory required for data: 141615896
I0726 19:52:39.261268  2103 layer_factory.hpp:77] Creating layer conv6_2/linear
I0726 19:52:39.261286  2103 net.cpp:84] Creating Layer conv6_2/linear
I0726 19:52:39.261291  2103 net.cpp:406] conv6_2/linear <- conv6_2/dwise/bn
I0726 19:52:39.261297  2103 net.cpp:380] conv6_2/linear -> conv6_2/linear
I0726 19:52:39.264956  2103 net.cpp:122] Setting up conv6_2/linear
I0726 19:52:39.264979  2103 net.cpp:129] Top shape: 1 160 7 7 (7840)
I0726 19:52:39.264982  2103 net.cpp:137] Memory required for data: 141647256
I0726 19:52:39.264988  2103 layer_factory.hpp:77] Creating layer conv6_2/linear/bn
I0726 19:52:39.264997  2103 net.cpp:84] Creating Layer conv6_2/linear/bn
I0726 19:52:39.265000  2103 net.cpp:406] conv6_2/linear/bn <- conv6_2/linear
I0726 19:52:39.265005  2103 net.cpp:380] conv6_2/linear/bn -> conv6_2/linear/bn
I0726 19:52:39.265210  2103 net.cpp:122] Setting up conv6_2/linear/bn
I0726 19:52:39.265219  2103 net.cpp:129] Top shape: 1 160 7 7 (7840)
I0726 19:52:39.265223  2103 net.cpp:137] Memory required for data: 141678616
I0726 19:52:39.265228  2103 layer_factory.hpp:77] Creating layer conv6_2/linear/scale
I0726 19:52:39.265238  2103 net.cpp:84] Creating Layer conv6_2/linear/scale
I0726 19:52:39.265241  2103 net.cpp:406] conv6_2/linear/scale <- conv6_2/linear/bn
I0726 19:52:39.265247  2103 net.cpp:367] conv6_2/linear/scale -> conv6_2/linear/bn (in-place)
I0726 19:52:39.265285  2103 layer_factory.hpp:77] Creating layer conv6_2/linear/scale
I0726 19:52:39.265404  2103 net.cpp:122] Setting up conv6_2/linear/scale
I0726 19:52:39.265411  2103 net.cpp:129] Top shape: 1 160 7 7 (7840)
I0726 19:52:39.265414  2103 net.cpp:137] Memory required for data: 141709976
I0726 19:52:39.265419  2103 layer_factory.hpp:77] Creating layer block_6_2
I0726 19:52:39.265427  2103 net.cpp:84] Creating Layer block_6_2
I0726 19:52:39.265432  2103 net.cpp:406] block_6_2 <- block_6_1_block_6_1_0_split_1
I0726 19:52:39.265436  2103 net.cpp:406] block_6_2 <- conv6_2/linear/bn
I0726 19:52:39.265440  2103 net.cpp:380] block_6_2 -> block_6_2
I0726 19:52:39.265463  2103 net.cpp:122] Setting up block_6_2
I0726 19:52:39.265468  2103 net.cpp:129] Top shape: 1 160 7 7 (7840)
I0726 19:52:39.265471  2103 net.cpp:137] Memory required for data: 141741336
I0726 19:52:39.265475  2103 layer_factory.hpp:77] Creating layer conv6_3/expand
I0726 19:52:39.265482  2103 net.cpp:84] Creating Layer conv6_3/expand
I0726 19:52:39.265486  2103 net.cpp:406] conv6_3/expand <- block_6_2
I0726 19:52:39.265491  2103 net.cpp:380] conv6_3/expand -> conv6_3/expand
I0726 19:52:39.269306  2103 net.cpp:122] Setting up conv6_3/expand
I0726 19:52:39.269336  2103 net.cpp:129] Top shape: 1 960 7 7 (47040)
I0726 19:52:39.269340  2103 net.cpp:137] Memory required for data: 141929496
I0726 19:52:39.269347  2103 layer_factory.hpp:77] Creating layer conv6_3/expand/bn
I0726 19:52:39.269357  2103 net.cpp:84] Creating Layer conv6_3/expand/bn
I0726 19:52:39.269361  2103 net.cpp:406] conv6_3/expand/bn <- conv6_3/expand
I0726 19:52:39.269368  2103 net.cpp:380] conv6_3/expand/bn -> conv6_3/expand/bn
I0726 19:52:39.269611  2103 net.cpp:122] Setting up conv6_3/expand/bn
I0726 19:52:39.269620  2103 net.cpp:129] Top shape: 1 960 7 7 (47040)
I0726 19:52:39.269623  2103 net.cpp:137] Memory required for data: 142117656
I0726 19:52:39.269630  2103 layer_factory.hpp:77] Creating layer conv6_3/expand/scale
I0726 19:52:39.269637  2103 net.cpp:84] Creating Layer conv6_3/expand/scale
I0726 19:52:39.269642  2103 net.cpp:406] conv6_3/expand/scale <- conv6_3/expand/bn
I0726 19:52:39.269647  2103 net.cpp:367] conv6_3/expand/scale -> conv6_3/expand/bn (in-place)
I0726 19:52:39.269729  2103 layer_factory.hpp:77] Creating layer conv6_3/expand/scale
I0726 19:52:39.269863  2103 net.cpp:122] Setting up conv6_3/expand/scale
I0726 19:52:39.269870  2103 net.cpp:129] Top shape: 1 960 7 7 (47040)
I0726 19:52:39.269873  2103 net.cpp:137] Memory required for data: 142305816
I0726 19:52:39.269878  2103 layer_factory.hpp:77] Creating layer relu6_3/expand
I0726 19:52:39.269884  2103 net.cpp:84] Creating Layer relu6_3/expand
I0726 19:52:39.269887  2103 net.cpp:406] relu6_3/expand <- conv6_3/expand/bn
I0726 19:52:39.269891  2103 net.cpp:367] relu6_3/expand -> conv6_3/expand/bn (in-place)
I0726 19:52:39.270337  2103 net.cpp:122] Setting up relu6_3/expand
I0726 19:52:39.270349  2103 net.cpp:129] Top shape: 1 960 7 7 (47040)
I0726 19:52:39.270351  2103 net.cpp:137] Memory required for data: 142493976
I0726 19:52:39.270354  2103 layer_factory.hpp:77] Creating layer conv6_3/dwise
I0726 19:52:39.270362  2103 net.cpp:84] Creating Layer conv6_3/dwise
I0726 19:52:39.270366  2103 net.cpp:406] conv6_3/dwise <- conv6_3/expand/bn
I0726 19:52:39.270373  2103 net.cpp:380] conv6_3/dwise -> conv6_3/dwise
I0726 19:52:39.270644  2103 net.cpp:122] Setting up conv6_3/dwise
I0726 19:52:39.270653  2103 net.cpp:129] Top shape: 1 960 7 7 (47040)
I0726 19:52:39.270656  2103 net.cpp:137] Memory required for data: 142682136
I0726 19:52:39.270660  2103 layer_factory.hpp:77] Creating layer conv6_3/dwise/bn
I0726 19:52:39.270666  2103 net.cpp:84] Creating Layer conv6_3/dwise/bn
I0726 19:52:39.270669  2103 net.cpp:406] conv6_3/dwise/bn <- conv6_3/dwise
I0726 19:52:39.270674  2103 net.cpp:380] conv6_3/dwise/bn -> conv6_3/dwise/bn
I0726 19:52:39.270881  2103 net.cpp:122] Setting up conv6_3/dwise/bn
I0726 19:52:39.270889  2103 net.cpp:129] Top shape: 1 960 7 7 (47040)
I0726 19:52:39.270890  2103 net.cpp:137] Memory required for data: 142870296
I0726 19:52:39.270897  2103 layer_factory.hpp:77] Creating layer conv6_3/dwise/scale
I0726 19:52:39.270905  2103 net.cpp:84] Creating Layer conv6_3/dwise/scale
I0726 19:52:39.270908  2103 net.cpp:406] conv6_3/dwise/scale <- conv6_3/dwise/bn
I0726 19:52:39.270913  2103 net.cpp:367] conv6_3/dwise/scale -> conv6_3/dwise/bn (in-place)
I0726 19:52:39.270959  2103 layer_factory.hpp:77] Creating layer conv6_3/dwise/scale
I0726 19:52:39.271075  2103 net.cpp:122] Setting up conv6_3/dwise/scale
I0726 19:52:39.271081  2103 net.cpp:129] Top shape: 1 960 7 7 (47040)
I0726 19:52:39.271085  2103 net.cpp:137] Memory required for data: 143058456
I0726 19:52:39.271088  2103 layer_factory.hpp:77] Creating layer relu6_3/dwise
I0726 19:52:39.271095  2103 net.cpp:84] Creating Layer relu6_3/dwise
I0726 19:52:39.271111  2103 net.cpp:406] relu6_3/dwise <- conv6_3/dwise/bn
I0726 19:52:39.271114  2103 net.cpp:367] relu6_3/dwise -> conv6_3/dwise/bn (in-place)
I0726 19:52:39.271555  2103 net.cpp:122] Setting up relu6_3/dwise
I0726 19:52:39.271565  2103 net.cpp:129] Top shape: 1 960 7 7 (47040)
I0726 19:52:39.271569  2103 net.cpp:137] Memory required for data: 143246616
I0726 19:52:39.271571  2103 layer_factory.hpp:77] Creating layer conv6_3/linear
I0726 19:52:39.271580  2103 net.cpp:84] Creating Layer conv6_3/linear
I0726 19:52:39.271584  2103 net.cpp:406] conv6_3/linear <- conv6_3/dwise/bn
I0726 19:52:39.271590  2103 net.cpp:380] conv6_3/linear -> conv6_3/linear
I0726 19:52:39.276690  2103 net.cpp:122] Setting up conv6_3/linear
I0726 19:52:39.276703  2103 net.cpp:129] Top shape: 1 320 7 7 (15680)
I0726 19:52:39.276706  2103 net.cpp:137] Memory required for data: 143309336
I0726 19:52:39.276722  2103 layer_factory.hpp:77] Creating layer conv6_3/linear/bn
I0726 19:52:39.276741  2103 net.cpp:84] Creating Layer conv6_3/linear/bn
I0726 19:52:39.276746  2103 net.cpp:406] conv6_3/linear/bn <- conv6_3/linear
I0726 19:52:39.276754  2103 net.cpp:380] conv6_3/linear/bn -> conv6_3/linear/bn
I0726 19:52:39.276995  2103 net.cpp:122] Setting up conv6_3/linear/bn
I0726 19:52:39.277004  2103 net.cpp:129] Top shape: 1 320 7 7 (15680)
I0726 19:52:39.277016  2103 net.cpp:137] Memory required for data: 143372056
I0726 19:52:39.277022  2103 layer_factory.hpp:77] Creating layer conv6_3/linear/scale
I0726 19:52:39.277030  2103 net.cpp:84] Creating Layer conv6_3/linear/scale
I0726 19:52:39.277034  2103 net.cpp:406] conv6_3/linear/scale <- conv6_3/linear/bn
I0726 19:52:39.277037  2103 net.cpp:367] conv6_3/linear/scale -> conv6_3/linear/bn (in-place)
I0726 19:52:39.277096  2103 layer_factory.hpp:77] Creating layer conv6_3/linear/scale
I0726 19:52:39.277245  2103 net.cpp:122] Setting up conv6_3/linear/scale
I0726 19:52:39.277253  2103 net.cpp:129] Top shape: 1 320 7 7 (15680)
I0726 19:52:39.277266  2103 net.cpp:137] Memory required for data: 143434776
I0726 19:52:39.277271  2103 layer_factory.hpp:77] Creating layer conv6_4
I0726 19:52:39.277278  2103 net.cpp:84] Creating Layer conv6_4
I0726 19:52:39.277281  2103 net.cpp:406] conv6_4 <- conv6_3/linear/bn
I0726 19:52:39.277287  2103 net.cpp:380] conv6_4 -> conv6_4
I0726 19:52:39.283300  2103 net.cpp:122] Setting up conv6_4
I0726 19:52:39.283318  2103 net.cpp:129] Top shape: 1 1280 7 7 (62720)
I0726 19:52:39.283321  2103 net.cpp:137] Memory required for data: 143685656
I0726 19:52:39.283327  2103 layer_factory.hpp:77] Creating layer conv6_4/bn
I0726 19:52:39.283349  2103 net.cpp:84] Creating Layer conv6_4/bn
I0726 19:52:39.283360  2103 net.cpp:406] conv6_4/bn <- conv6_4
I0726 19:52:39.283367  2103 net.cpp:380] conv6_4/bn -> conv6_4/bn
I0726 19:52:39.283591  2103 net.cpp:122] Setting up conv6_4/bn
I0726 19:52:39.283598  2103 net.cpp:129] Top shape: 1 1280 7 7 (62720)
I0726 19:52:39.283601  2103 net.cpp:137] Memory required for data: 143936536
I0726 19:52:39.283607  2103 layer_factory.hpp:77] Creating layer conv6_4/scale
I0726 19:52:39.283630  2103 net.cpp:84] Creating Layer conv6_4/scale
I0726 19:52:39.283633  2103 net.cpp:406] conv6_4/scale <- conv6_4/bn
I0726 19:52:39.283646  2103 net.cpp:367] conv6_4/scale -> conv6_4/bn (in-place)
I0726 19:52:39.283699  2103 layer_factory.hpp:77] Creating layer conv6_4/scale
I0726 19:52:39.283818  2103 net.cpp:122] Setting up conv6_4/scale
I0726 19:52:39.283825  2103 net.cpp:129] Top shape: 1 1280 7 7 (62720)
I0726 19:52:39.283838  2103 net.cpp:137] Memory required for data: 144187416
I0726 19:52:39.283843  2103 layer_factory.hpp:77] Creating layer relu6_4
I0726 19:52:39.283848  2103 net.cpp:84] Creating Layer relu6_4
I0726 19:52:39.283850  2103 net.cpp:406] relu6_4 <- conv6_4/bn
I0726 19:52:39.283854  2103 net.cpp:367] relu6_4 -> conv6_4/bn (in-place)
I0726 19:52:39.284479  2103 net.cpp:122] Setting up relu6_4
I0726 19:52:39.284490  2103 net.cpp:129] Top shape: 1 1280 7 7 (62720)
I0726 19:52:39.284503  2103 net.cpp:137] Memory required for data: 144438296
I0726 19:52:39.284507  2103 layer_factory.hpp:77] Creating layer pool6
I0726 19:52:39.284514  2103 net.cpp:84] Creating Layer pool6
I0726 19:52:39.284518  2103 net.cpp:406] pool6 <- conv6_4/bn
I0726 19:52:39.284523  2103 net.cpp:380] pool6 -> pool6
I0726 19:52:39.285424  2103 net.cpp:122] Setting up pool6
I0726 19:52:39.285436  2103 net.cpp:129] Top shape: 1 1280 1 1 (1280)
I0726 19:52:39.285439  2103 net.cpp:137] Memory required for data: 144443416
I0726 19:52:39.285442  2103 layer_factory.hpp:77] Creating layer pool6_pool6_0_split
I0726 19:52:39.285447  2103 net.cpp:84] Creating Layer pool6_pool6_0_split
I0726 19:52:39.285450  2103 net.cpp:406] pool6_pool6_0_split <- pool6
I0726 19:52:39.285456  2103 net.cpp:380] pool6_pool6_0_split -> pool6_pool6_0_split_0
I0726 19:52:39.285464  2103 net.cpp:380] pool6_pool6_0_split -> pool6_pool6_0_split_1
I0726 19:52:39.285497  2103 net.cpp:122] Setting up pool6_pool6_0_split
I0726 19:52:39.285504  2103 net.cpp:129] Top shape: 1 1280 1 1 (1280)
I0726 19:52:39.285509  2103 net.cpp:129] Top shape: 1 1280 1 1 (1280)
I0726 19:52:39.285511  2103 net.cpp:137] Memory required for data: 144453656
I0726 19:52:39.285514  2103 layer_factory.hpp:77] Creating layer fc7_102
I0726 19:52:39.285523  2103 net.cpp:84] Creating Layer fc7_102
I0726 19:52:39.285527  2103 net.cpp:406] fc7_102 <- pool6_pool6_0_split_0
I0726 19:52:39.285531  2103 net.cpp:380] fc7_102 -> fc7_102
I0726 19:52:39.288393  2103 net.cpp:122] Setting up fc7_102
I0726 19:52:39.288404  2103 net.cpp:129] Top shape: 1 102 1 1 (102)
I0726 19:52:39.288406  2103 net.cpp:137] Memory required for data: 144454064
I0726 19:52:39.288426  2103 layer_factory.hpp:77] Creating layer fc7_365
I0726 19:52:39.288439  2103 net.cpp:84] Creating Layer fc7_365
I0726 19:52:39.288444  2103 net.cpp:406] fc7_365 <- pool6_pool6_0_split_1
I0726 19:52:39.288450  2103 net.cpp:380] fc7_365 -> fc7_365
I0726 19:52:39.295042  2103 net.cpp:122] Setting up fc7_365
I0726 19:52:39.295058  2103 net.cpp:129] Top shape: 1 365 1 1 (365)
I0726 19:52:39.295060  2103 net.cpp:137] Memory required for data: 144455524
I0726 19:52:39.295078  2103 layer_factory.hpp:77] Creating layer silence
I0726 19:52:39.295085  2103 net.cpp:84] Creating Layer silence
I0726 19:52:39.295089  2103 net.cpp:406] silence <- fc7_365
I0726 19:52:39.295094  2103 net.cpp:122] Setting up silence
I0726 19:52:39.295104  2103 net.cpp:137] Memory required for data: 144455524
…
